models/c3d_ae.pth (torch, 570121 bytes, 31 tensors)

encoder.0.weight f4 [16, 1, 3, 3, 3]
00000000: 2bf2 f33d 0561 fbbc 6dca a73c 6af6 183d
00000010: 8eab 47be c69e 18bd 309e 28be 7de0 25be
00000020: daa9 a33d a81a 5b3e 74f8 d2bc 404e 213b
00000030: 3715 3c3e 4389 053e 2ef0 57be 1c82 083e
00000040: daa8 24be c6e4 493d b864 183e bd01 04bc
00000050: c49a 443d a4ea a53c c4c7 ccbd 4882 883d
00000060: 2588 4a3e e8d8 fe3c d981 f63c 7887 1a3e
00000070: abbf 083e 71d1 1abe a040 103e e3be 213e
00000080: 1381 2ebe 4fe9 9fbc 02e3 313e bc78 1c3e
00000090: 0823 fb3c 3b5b 08bd 0926 ab3c f1a5 083e
000000a0: 3021 4abe 0c3f 053d 37d5 e43d 1338 5dbd
000000b0: 8bae 163e 384f bebd a430 a1bd 1cb8 2fbe
000000c0: 475b cc3d 29c1 18be 8b7c 25be 041b f8bd
000000d0: 98e9 ca3d 5d9a 38be 86ae 00be 0f84 a03d
000000e0: 21cf ac3d 2e99 7d3d 6493 163e 60ff b2bd
000000f0: 7198 85bd a8b4 73bd 1570 a3bd 81b9 2abe
00000100: 4844 38bd 6a7b f53c 8c5a eb3d a759 293d
00000110: 331d 47be 14dd a6bd 93bc 083d d5cb 043e
00000120: abfa 1c3e 1418 8f3d 7bf5 d93d 7c27 1dbd
00000130: 9941 46bd 33ec 043e ed9a 0b3e a08b 663e
00000140: 2ccd 203d 2765 613b d239 5abd 0876 04bd
00000150: 11b8 313e d66d 423e 7f62 70bb fe31 1d3e
00000160: fd08 173e 9fd4 153e 7771 8bbd 7e8b b7bb
00000170: 0ffc 913d 39d1 0a3e 47ea fbbc ab12 003e
00000180: c766 d7bd ce92 9e3d 4e38 81bd 4ce7 93bd
00000190: c867 0abe 2657 10be c1e5 4fbe 3efd bebc
000001a0: b323 003e c8f1 cf3d a257 083e d027 9fbd
000001b0: f4bd 6a3e 156e 033e 38fc f4bd b442 27bc
000001c0: 8c1d ef3c f406 633d e600 883e c241 b53d
000001d0: b0f2 0d3e ecfc 403e ad85 6a3d b35b bc3d
000001e0: ace4 2b3e f55d 0abe c5ca d7bc 425c 37be
000001f0: 8c0d 17bc 28a7 1bbe cfe9 d8bd 04bc fbbd
00000200: bf57 e63c e002 133c 2dbb f43d b615 79bc
00000210: daa2 253e 0648 cf3d 391f b63d 713f 6a3d
00000220: 12e2 ddbd 58e6 14bd fe6a 43be f4cb 0d3e
00000230: 8793 143e 51b5 80bd c88a 493e 1c9c 62bd
00000240: 26ec 33be 5143 1f3e ce92 f93d 066f d7bd
00000250: 3236 453d 1f16 1d3d b9cc f83c 8486 bf3d
00000260: 640e e93d 8544 1a3e cd11 5b3c 2cca 2c3e
00000270: 4ff5 00be 6194 bdbd d54f 08be f5da 2c3e
00000280: 94ae 1abe 0f94 b1bd 0ce3 fa3d 46d9 b73d
00000290: 3022 9e3d 970d 2b3e b8d2 debd e535 70bd
000002a0: 57ba a0bd 1ba5 b1bc c608 50bd 3116 1a3d
000002b0: 91b0 253e f3e2 b4bd d6ba b23d d755 f73d
000002c0: 2b97 71be d264 47be e0d4 75be 3eca ef3d
000002d0: c704 2c3e 4105 03bc 2d60 873d 5721 f1bd
000002e0: af25 343d cc4b bf3d e9ed 1a3e bda0 dfbd
000002f0: 3494 66be 2000 933b 1b0b 13be 4898 103e
00000300: 843d 4d3e 1176 1d3d e585 f83c 048b 4b3a
00000310: d591 383e c10b abbd 174a 153d 8b7c 29be
00000320: a762 43bd 9597 253e 8911 833d 780c b53d
00000330: f79a 6bbd e719 bfbd c246 33be dd56 743d
00000340: ce19 12be 33a3 eabd 6764 7cbd e162 203e
00000350: cbcf 243e 60ea 6abd 69ae 0c3d 34fb 173e
00000360: c8ae 8bbd 8631 98bb 8f1b afbc 6c93 b73d
00000370: dd99 14be 149a 6a3d bb4b 173e 4065 c6bd
00000380: e71a 8bbd 8935 9e3d 29e8 6e3d d6a2 38bd
00000390: d2c1 91bd f7b5 e0bb 2e34 2e3e 633c e73d
000003a0: 794f be3d fb96 373e 4ec2 46be 0fd4 75bd
000003b0: 0755 97bd 2f8f 243c d1b7 3c3c 4f25 0abe
000003c0: 3a07 5fbc 678e 973d 7e9d 063e 7a30 273d
000003d0: ccb9 39be 1feb 2fbc 62f7 aa3d d2a2 2fbe
000003e0: 3ab1 3a3e 6c71 33be ccd8 dbbd 74d5 94bd
000003f0: e2e2 4a3d e296 2c3e 2aab 8e3d 5dd0 8c3d
0.11911424 -0.030685911 0.020482266 0.037344374 -0.19499037 -0.037260793 -0.16466594 -0.16198917
0.07991381 0.21396887 -0.025753237 0.002461329 0.18367468 0.13040642 -0.21087715 0.13330883
-0.16080037 0.04929044 0.14882171 -0.008057055 0.04799916 0.020253487 -0.0999904 0.06665474
0.19778498 0.031109288 0.030091213 0.1509074 0.13354366 -0.15118958 0.14087152 0.15795474
-0.17041425 -0.01952043 0.17371753 0.15280432 0.030656353 -0.03329013 0.02089216 0.13344552
-0.19739223 0.03253083 0.1117348 -0.054008555 0.1471502 -0.092924535 -0.078706056 -0.17160076
0.09978347 -0.14917435 -0.1616079 -0.12114528 0.09907836 -0.18027635 -0.12566575 0.07837688
0.08437944 0.06191366 0.14704663 -0.08740115 -0.065232165 -0.05949846 -0.07980362 -0.16672327
-0.044986993 0.029966075 0.1149188 0.041345265 -0.19444732 -0.08147636 0.033382963 0.12968381
0.15329997 0.069870144 0.10642525 -0.038367733 -0.048402403 0.12980728 0.13633318 0.225142
0.039258167 0.0034392567 -0.053277798 -0.032339126 0.17355372 0.18987212 -0.0036679802 0.15351102
0.14749523 0.1463189 -0.06808751 -0.0056013456 0.071281545 0.13556375 -0.03075136 0.12507121
-0.1051765 0.077428445 -0.063095674 -0.07221851 -0.13516152 -0.14095744 -0.20302488 -0.023314115
0.12513618 0.10153538 0.1331468 -0.077712655 0.22924024 0.12834962 -0.119621694 -0.010208774
0.029188894 0.055426553 0.26563185 0.08850433 0.13862109 0.18846482 0.05725639 0.09197178
0.1678645 -0.13512404 -0.026341805 -0.17906287 -0.009219538 -0.15200484 -0.105914705 -0.122917205
0.028118012 0.008972853 0.119497634 -0.01520293 0.16175404 0.10121159 0.08892674 0.05718941
-0.10834135 -0.036352485 -0.19083783 0.13847333 0.14509402 -0.06284583 0.19681847 -0.05532466
-0.17570552 0.15553023 0.12186204 -0.10519223 0.048147388 0.038351174 0.030371057 0.09351829
0.11379698 0.150652 0.013370943 0.16873997 -0.12593578 -0.09256817 -0.13311704 0.168804
-0.15105659 -0.08670818 0.12250337 0.089769885 0.077213645 0.16704403 -0.10880035 -0.058645148
-0.078480415 -0.021685174 -0.050789617 0.03761882 0.16180636 -0.0883235 0.087270424 0.120769195
-0.23592822 -0.19472054 -0.24006987 0.117084965 0.16798697 -0.007996858 0.06610141 -0.11773937
0.04398125 0.09340629 0.15129818 -0.1091933 -0.22517473 0.004486099 -0.14359705 0.1412059
0.20042998 0.038442675 0.030337283 0.00077645504 0.1802438 -0.08351851 0.03644761 -0.16551416
-0.047701504 0.16171105 0.06399829 0.08840269 -0.057520833 -0.09331112 -0.1750746 0.05965315
-0.14267656 -0.11456909 -0.06161919 0.1566272 0.16094892 -0.057352424 0.034346018 0.1484192
-0.06820446 -0.0046445755 -0.021375446 0.08963665 -0.14511819 0.057275847 0.14774983 -0.09687281
-0.067922406 0.07725055 0.058326874 -0.045077167 -0.071170464 -0.0068576294 0.17012092 0.11290815
0.09292502 0.17928688 -0.19410059 -0.060016688 -0.073892646 0.010043903 0.011518435 -0.13490795
-0.013612563 0.07400208 0.13146016 0.040817715 -0.18137282 -0.01073721 0.08347966 -0.17151955
0.18231669 -0.17523736 -0.1073471 -0.072672755 0.04953278 0.16854432 0.06966241 0.0687568

encoder.0.bias f4 [16]
00000000: 11f3 843d 4a7c ac3d 7a1e ae3d 52fb 43be
00000010: b34e 783d 209a 19bd 5fa1 313e 596c bfbd
00000020: f697 973d 383a 023c 436c fe3d 55c8 2a3c
00000030: f152 24be b81c 053d 5c05 983d fbdd 77bd
0.06491674 0.08422144 0.08501907 -0.1913884 0.06062193 -0.0375005 0.17346714 -0.093468376
0.07402031 0.007948451 0.12422993 0.010423739 -0.16047265 0.03249809 0.07422897 -0.06051443

encoder.1.weight f4 [16]
00000000: 7f26 6f3f 51f1 833f 337d 7a3f d161 7a3f
00000010: aca1 733f 90f4 763f 6efe 853f 94ca 6c3f
00000020: fa85 763f 1215 823f f045 853f ce13 763f
00000030: 3e2b 743f bd37 753f dd2d 7d3f 2237 843f
0.93418115 1.0308019 0.9784729 0.97805506 0.95168567 0.9646692 1.0468271 0.9249661
0.9629818 1.016268 1.0411968 0.9612397 0.9537848 0.95788175 0.98898107 1.0329325

encoder.1.bias f4 [16]
00000000: 0a72 84bb 98aa e93c e0b1 eabc ccc0 80bd
00000010: b12b ebbc ce8b 15bd b25a aa3c 13e1 81bd
00000020: dbd6 62bd b2e8 8fbd 7997 28bd 43f8 67bd
00000030: a4b7 2a3c 0490 39bd 8abb 6bbd 6bfb 18bd
-0.004041915 0.028523728 -0.02864927 -0.06286773 -0.028707357 -0.03651028 0.0207952 -0.063417576
-0.055380683 -0.07026805 -0.04116008 -0.056633245 0.01041976 -0.04530336 -0.057551898 -0.037349146

encoder.1.running_mean f4 [16]
00000000: 6021 593e 370d b43d ff7d a83e 0148 823d
00000010: 4c3e fb3e a7a9 d83d 3182 003e 1e08 683d
00000020: 6641 3e3e 7eef f33d 873e 85be 33da 703e
00000030: 11d1 56ba bfb7 fd3d a8ac ae3e a5ba 03bf
0.21204138 0.08791583 0.32908627 0.0636139 0.49070966 0.105792336 0.12549664 0.056648366
0.18579635 0.11910914 -0.26024267 0.23520736 -0.00081946055 0.123885624 0.341161 -0.5145667

encoder.1.running_var f4 [16]
00000000: f713 aa3c b829 843c 34ec 8d3c 76a3 ac3c
00000010: e1f1 383d a5d0 cf3b 4ad8 ef3b c366 0e3c
00000020: 9cda 933b 36fb cc3b 1f0e ed3c 4bc8 443c
00000030: 2971 323c 0350 a63b 0f85 9e3c 86d0 113d
0.020761473 0.016133174 0.017324544 0.021074038 0.04515255 0.006342011 0.007319485 0.0086914925
0.0045121443 0.0062555326 0.028937398 0.012010644 0.010891237 0.005075456 0.019350557 0.035599254

encoder.3.weight f4 [32, 16, 3, 3, 3]
00000000: 9b5d 20bd 0330 3ebc 8bc4 a7bc d255 003d
00000010: fac8 98bc dae5 1bbd d227 c33b bb6a 123a
00000020: 917c e2ba 7324 2bbd 70af 203b 854e c73c
00000030: bd72 fe3b d55d 05bd e5bb 3a3c 944d d8bc
00000040: 8de1 7d3c 6c7c 52ba 2ea7 e03b 19ec 79bd
00000050: 56b1 313a ef8b 5fbd f6f2 e13c 5eca c0bc
00000060: 4947 023c 9733 4b3c 104e 0e3d 923a 51bc
00000070: fa45 88bd 0090 efbb 8f25 12bb 440a 1d3d
00000080: 28f8 acbc 57ac 5fbd 7c13 2dbd 02e1 bcbb
00000090: dec0 81bd 5d89 f4ba 11be 883c 1c61 56b9
000000a0: f5d9 e13c 3dcc 863c 7b3c 68bd 9def a2ba
000000b0: a16a 75bd 732f 5c3a b3fd 99bb 2eb9 323d
000000c0: 517c a63d 85a4 f83c eb69 b03d 9e07 8b3c
000000d0: 763b 143d e2e7 6b3d b399 2cbd 3d44 463d
000000e0: cc86 3a3a b15d b73b 4c78 9a3c ccb6 6b3d
000000f0: 01af 353d c202 473d d262 a33d 4689 083d
00000100: 101d 22bc a411 16bd 27a9 623d ce5c 433c
00000110: 094a 983c 6a69 c1bc 67c5 523c a18a e93c
00000120: bd54 5cbd b6e0 413c 1fc7 09bd c84d 103d
00000130: a9c1 2abd f4e8 383d 8a1e c43a 870c 9f3c
00000140: 01dd dd3c a980 00bc 0326 e5bc 49e1 053c
00000150: 7f58 b33d f134 c13c 603e bf3c 2538 10bc
00000160: 8d5f ddbb f8dc 8eba 9a59 cbba 8eff 2e3d
00000170: eeb0 4e3d 14a7 b83d 3302 f63c f2c6 003d
00000180: 1661 f83c e80a 733d d496 92bc db35 b1ba
00000190: 22c6 223c 7d05 8a3d 5ae0 a83d f0f8 1e3d
000001a0: 204e ac3d 268f 703d e9bc fe3b 8b22 493c
000001b0: b3c0 433b 2b87 3d3d ec5d 02bd ec80 bcbc
000001c0: afac 84bc 1691 073d e1b6 823c 5477 963d
000001d0: adac 9f3d 89b2 4dbd 2ab5 303d f3a4 6abc
000001e0: 2a50 b93b 1624 abbc 25a4 173d 98ba 103b
000001f0: d80a 6e3d 5484 803c 8c71 10bc 19d6 56bc
00000200: 1084 823c c627 2d3d 0817 293d dffc 1cbb
00000210: 55dd a73c 7956 bdbc 4cf8 1a3d f610 2dbd
00000220: c545 dbbc b89a 43bd 628b 0b3d 853a 153d
00000230: 3e3b c73c 3e83 5e3d 70c0 2a3d 5a95 893d
00000240: fdf9 fa3b ba7f 08bd 2a27 9cbc 5d38 5abd
00000250: a129 e33c 5ad8 fd3c 7a65 543d 8f02 ffbb
00000260: a6eb 593c 57fd a4bc 6ab1 3abd a960 1dbd
00000270: 586f 4d3d b90d 453d 61ef 243d 6721 03bd
00000280: dfd7 853d 902c ee3c 7e85 f7bc cfc6 82bd
00000290: 497f a3bc 04af cdbc 46b4 4bbd 9fa8 02bc
000002a0: 34e7 b1bc c77a c3bc ad11 3c3c 05e2 4b3a
000002b0: 70c5 63bd dbb5 b8bc 2de2 42bd 93d6 96bd
000002c0: 4a1f 92bd db56 263b f8ff 143d 5353 65bc
000002d0: 9cc9 7cbd a620 bfbc 7804 d0bc 5c22 faba
000002e0: b1b6 2ebc d4c3 6abd f026 d5bc 7fdf fe3b
000002f0: adb6 2cbd fd0e b1ba 6a62 9f3c 7a76 aabc
00000300: eb1a 763d 68d3 873d 0b1c 0bbb d0c3 e93c
00000310: 4ac1 593c dda1 553d 9e88 7dbc 833c afbc
00000320: 5d34 cabc 54ad 353d 5a6b 5b3d 4102 183c
00000330: a5f7 1ebd e54d 213d bbb0 423d 8f9f 8fbd
00000340: 849d 2cbd 3167 e13c 4564 72bb f7d4 063d
00000350: 8bbc 9dbc aacd 2cba 77bc ce3c 6ea5 71bc
00000360: 02bb db3c fbb1 dabc 9427 4e3d e0dc 853d
00000370: b7dd 833d 142c 3d3c b4b0 94bc 4059 63bc
00000380: 5d39 e939 4a69 393c 3017 87bc c7ce 0c3c
00000390: f343 a2bb 7405 9a3c ff28 d03c c7f5 993c
000003a0: 5d98 0fbc 1564 04bc 1831 4b3d b26e 003c
000003b0: c5e2 863c 99db 14bc 32d4 af3c 4d74 003c
000003c0: 7201 bdbc e66f 973d 5987 32ba 8adc 8ebc
000003d0: 2d5c 89bc 4115 10bd 611e c93c 1975 3cbc
000003e0: 504a d0bc ec3a 833c d9b7 593c 9925 8fbb
000003f0: 64e6 45bd 21e9 1abd 2669 3d3c 4aa6 4cbc
-0.03915177 -0.011608127 -0.020479461 0.031331845 -0.01865052 -0.038061 0.0059556747 0.0005585362
-0.0017279555 -0.041782808 0.0024518631 0.024329433 0.0077651427 -0.03256019 0.011397337 -0.02640418
0.01549567 -0.00080294046 0.006855867 -0.061016176 0.0006778439 -0.05457681 0.027581673 -0.023533996
0.007951566 0.012402437 0.034742415 -0.012770312 -0.06653972 -0.0073108673 -0.0022300219 0.03833987
-0.021114424 -0.054607715 -0.04225491 -0.0057641277 -0.063356146 -0.001865666 0.016692193 -0.00020444806
0.02756975 0.01645481 -0.056698304 -0.001243103 -0.059916142 0.00083994045 -0.0046994328 0.043633632
0.0812918 0.030351887 0.08613952 0.016971406 0.03618952 0.057594188 -0.042138766 0.04840492
0.0007115423 0.0055958857 0.01885619 0.057547376 0.04435635 0.048586614 0.07977833 0.03333404
-0.009894624 -0.036637917 0.055337097 0.011923982 0.01858999 -0.023609836 0.012864447 0.028508486
-0.05379175 0.01183336 -0.033637162 0.035230428 -0.041688595 0.045144036 0.0014962715 0.019415153
0.027082922 -0.007843175 -0.027972227 0.008171388 0.08757114 0.023584815 0.023345172 -0.008802448
-0.0067557753 -0.0010899594 -0.0015514374 0.042724185 0.050461702 0.090162426 0.030030346 0.03143973
0.030319732 0.059336573 -0.017894186 -0.0013520079 0.009934934 0.06739328 0.08245917 0.038811624
0.08413339 0.058730267 0.0077739847 0.012276302 0.0029869496 0.046271484 -0.031827852 -0.023010693
-0.016195623 0.03309735 0.015956344 0.07346979 0.07796607 -0.050219093 0.04314152 -0.0143215535
0.0056553083 -0.02089123 0.037021775 0.0022083875 0.05811581 0.015688099 -0.008816134 -0.013112568
0.015932113 0.04227426 0.04128173 -0.0023954434 0.020491282 -0.023112522 0.03783445 -0.042252503
-0.026766667 -0.047754973 0.034068473 0.03643276 0.024320241 0.05432438 0.04168743 0.0671794
0.0076591955 -0.033324935 -0.019061644 -0.05327641 0.027729811 0.030986954 0.051854588 -0.0077822874
0.013300812 -0.020140333 -0.04557935 -0.03842226 0.050155014 0.04810879 0.040267352 -0.032014277
0.06535315 0.029073983 -0.030215021 -0.06385576 -0.019958155 -0.025107868 -0.04973247 -0.007974773
-0.021716692 -0.023862256 0.011478824 0.0007777515 -0.055608213 -0.022547653 -0.04757898 -0.073651455
-0.07134874 0.002538136 0.036376923 -0.013996917 -0.061715707 -0.023330998 -0.025392756 -0.0019083726
-0.010663674 -0.057315663 -0.026019543 0.0077781077 -0.0421664 -0.0013508495 0.019456107 -0.020808447
0.060084265 0.066321194 -0.0021226432 0.028535753 0.013290713 0.052156318 -0.015474467 -0.021391159
-0.024683172 0.04435475 0.053569175 0.009277881 -0.03881039 0.039380927 0.047531825 -0.07012855
-0.042142406 0.027515026 -0.0036986035 0.032917943 -0.019254943 -0.00065919256 0.025236351 -0.014748914
0.02682257 -0.026696196 0.050330713 0.06536269 0.06438773 0.011546154 -0.018150665 -0.013876259
0.00044483962 0.011316607 -0.016490549 0.008594221 -0.004951948 0.018801428 0.025410173 0.018793954
-0.008764354 -0.008080502 0.049607366 0.007838892 0.016465554 -0.009085559 0.021463487 0.007840228
-0.023071978 0.0739439 -0.00068103295 -0.017439146 -0.016767586 -0.03517652 0.024550619 -0.011502528
-0.02542606 0.016019307 0.013288462 -0.0043684957 -0.04831542 -0.037819985 0.011560714 -0.012490818

encoder.3.bias f4 [32]
00000000: ca02 04bc f0f5 2e3c a903 223d 330e 0f3d
00000010: 4a55 1b3d 7a58 34bd 6e1e 813c c21d 413d
00000020: a141 753c 2541 4cbc 3efc 10bd b201 1ebd
00000030: 0463 a03c 8447 953c 8fee d53c 5d71 afbb
00000040: bbf9 f13c 9e60 1c3d 5b68 d83a 294f 413d
00000050: 0898 8fbb c349 9d3b 159f c4bc 1528 1b3d
00000060: b896 4d3c a4bc 803c 609c f3bb 1584 d73b
00000070: 284b cf3c ba44 50bc 8448 253d be0d 0b3d
-0.008057306 0.010678753 0.03955427 0.03492565 0.037923135 -0.04402969 0.01576158 0.04714752
0.01496926 -0.012466704 -0.035396807 -0.038575836 0.019578464 0.018222578 0.02611473 -0.00535409
0.029538026 0.03817808 0.0016510593 0.047194634 -0.004382137 0.004800053 -0.024001637 0.037880022
0.012548141 0.01571495 -0.007434413 0.0065770247 0.025304392 -0.012711698 0.04035236 0.033948652

encoder.4.weight f4 [32]
00000000: 5c2b 693f 97bb 793f ed67 873f 91f1 823f
00000010: 6794 803f e133 773f cd89 7a3f 5118 783f
00000020: 6175 7c3f e637 843f a4e1 813f 8f33 7a3f
00000030: 4c89 873f 180c 873f fa66 733f eab9 6c3f
00000040: 33f3 7a3f 7c30 863f 4404 803f 1584 7a3f
00000050: 37a5 813f 5b43 7f3f e15a 843f 9afe 833f
00000060: 9dbe 823f 8919 763f ba8f 883f d0aa 793f
00000070: 3beb 793f dca3 843f 8a15 833f c3ed 713f
0.91081786 0.97551864 1.0578591 1.022997 1.0045289 0.96563536 0.9786652 0.96912104
0.98616606 1.0329559 1.0146985 0.9773492 1.0588775 1.0550566 0.95079005 0.9247118
0.9802734 1.0483546 1.0001302 0.9785779 1.0128545 0.9971215 1.0340234 1.0312073
1.021442 0.96132714 1.0668862 0.97526264 0.9762456 1.0362506 1.0240948 0.9450342

encoder.4.bias f4 [32]
00000000: 1f0d 01be ccf9 acbd 6c8f b2bc 57fd 28bd
00000010: b252 82bd 39ac 28bd 7c39 1abd 0f7e 6a3d
00000020: 23bd 52bd 15f0 64bd 7d22 5fbd e206 a7bd
00000030: d7b5 88bd 4da1 fd3b 163c 07be 5f23 d6bd
00000040: 74b0 abbd bfb9 4f3d 5092 853d 7861 8fbd
00000050: 835c a0bd 0fbf 253d fb8e 6bbc a4d4 9abc
00000060: d4e2 7dbd 12da 9cbc 47f7 1a3c 3ba1 e6bd
00000070: e113 94bd e8f0 a9bc 9a8f 423b 66c3 03be
-0.12602662 -0.084460825 -0.021796905 -0.04125723 -0.06363429 -0.04117987 -0.037652478 0.057249125
-0.051449906 -0.055893023 -0.05447625 -0.0815561 -0.06675308 0.007740176 -0.13206515 -0.10455965
-0.08383265 0.05071425 0.065220475 -0.070010126 -0.07830145 0.04046541 -0.014377351 -0.018900223
-0.0619839 -0.019146953 0.00945837 -0.11261221 -0.07230354 -0.020744756 0.0029687644 -0.12867507

encoder.4.running_mean f4 [32]
00000000: 4c0d 893f 6089 f93e 8f4f 173f 98e2 36bf
00000010: 7b86 84bf c50c 633e 1ba6 e73c 8b45 433d
00000020: bbe7 9f3d dd76 1340 8c51 4cbf c2dd 0b3f
00000030: 4531 d93f f5c1 873f 0209 ff3e e71d 663f
00000040: 2ad1 253f 8a7a 20bf bf3e 0dbf cf75 d63f
00000050: a8c5 2a40 6fd0 2ec0 cbb1 a43d 2110 e5bf
00000060: 3b4f 97bf 1323 54bf a765 a03f ef73 1940
00000070: 08ff 323f ad0c febf 66a9 21c0 e39a 1740
1.0707183 0.4873762 0.5910577 -0.71439505 -1.035354 0.2217284 0.028277447 0.047673743
0.07807871 2.3041298 -0.7981193 0.5463525 1.6968161 1.0606066 0.4981156 0.8988938
0.64772284 -0.6268698 -0.5517387 1.6754702 2.668314 -2.7314718 0.08041724 -1.7895547
-1.1821054 -0.8286602 1.2531022 2.397701 0.69920397 -1.9847618 -2.5259643 2.3688285

encoder.4.running_var f4 [32]
00000000: ec66 6540 6807 9640 c7fe f03e eee6 a340
00000010: 1709 d840 0ec3 1d40 2b9d 193f c8ab 3d3f
00000020: a8c6 bb3e efe4 6d40 dac5 8840 4aea 9940
00000030: b2ae 5f3f 93a8 983f d9e3 9740 f899 2640
00000040: 7a53 ab40 cb9b c33e 3152 163f 7f28 df3f
00000050: b6c8 1f40 2cb9 1a40 dca9 fd3f 1959 1440
00000060: 9e5c cd40 d5ce 0e3f 104a 493f 196c fc3f
00000070: 3112 9340 cd60 ff40 bf03 5140 797f 1c40
3.5844069 4.688404 0.4706938 5.1219397 6.7511096 2.4650302 0.60005444 0.7409024
0.36675 3.717098 4.274152 4.8098497 0.8737594 1.1926445 4.7465634 2.6031475
5.35394 0.38204798 0.58719164 1.7434233 2.4966254 2.417552 1.9817462 2.317938
6.417556 0.5578435 0.78628635 1.9720489 4.5959706 7.9805665 3.2658536 2.4452803

encoder.6.weight f4 [64, 32, 3, 3, 3]
00000000: 7111 e43c 2dd0 9f3c 4ec2 853c 9fdb 18bb
00000010: fdfb d73c 344a 963b 3cde f1bb c729 7cbc
00000020: b1d4 8dbc 1c82 9f3c 8ede a2bb 2571 71bc
00000030: 131f a9bc ac07 3d3d 29de 013b 1b94 873c
00000040: 4a6f 34bc 52df 823c 8c79 283d b130 cc3c
00000050: 8993 903c d895 ec3c 8436 fb3c 6363 273c
00000060: e730 bf3b 0c83 2a3d 81e8 443d 8f18 95bc
00000070: 9ca5 a03a 71d8 af3c 0dc6 833c 33f4 f13c
00000080: 416b 633c 2935 27bc f9a4 3e3c 5557 883c
00000090: 1ba1 913c 9e3d 1a3d a559 9fbc e9d6 973b
000000a0: 1c68 1f3d b707 ad3c 29a8 f9bb 427f 943c
000000b0: da9e ba3c 578f 8ebb c295 48bc 29db 05bb
000000c0: b107 ffbc 620e a63a 89b3 07bc 1ec8 02bd
000000d0: 1809 113d 159b 75bc d30d 84bd 0709 92bd
000000e0: 86ad 9ebc c074 42bd 7b27 12bc 4d5a 783c
000000f0: c4c8 7bbd 19fb 4bbd 1005 89bc 12b1 6ebc
00000100: b76b c3bd 2621 6bbd f3cc 30bd 5882 0abc
00000110: 447b 29ba 0b8b 41bd 410d 03bd 7cbb e4bc
00000120: 4f46 8dbc 4547 853c dfc2 813d c7a4 503d
00000130: 784c 523d 0998 523d 7d95 bb3c 6525 d63d
00000140: 2c90 a83d 4656 8bbc 924d 0bbc f615 3a3d
00000150: 4319 b0bc 0e93 3e3c fa1d 2e3d 0d9f 093d
00000160: 6cee 2a3c f658 fd3c 2337 01bc 2ca1 253d
00000170: 40b6 55bc e8c8 3fbb a1f7 793b 04dd fcba
00000180: 598a b93c 1aae de3c f913 46bc 7c05 dcba
00000190: 3e1b de3c 0928 223c 9ca8 60bc 2e79 b13c
000001a0: 633b 043d b215 373d ee10 543d 11f5 893c
000001b0: 7760 a4bc 6135 623d abaa f83c 11c1 fa3b
000001c0: 3ff8 563d 04e8 3e3c 0862 e23b f108 6f3d
000001d0: 820f b23b 61cb 0339 a0be 433d 3fa5 7a3c
000001e0: 9ac6 d13c 441f 1a3d 714b 313d f77e be3c
000001f0: 2cdd c33c eba1 5f3c 2441 61bc 50ce fe3c
00000200: fcfe 433d a202 3d3c a5e2 f83c f404 3b3d
00000210: a446 4c3d 92c0 233d 68ce 3e3c 1b49 25ba
00000220: f9e9 0a3d 3f3f eebc 0aa6 9a3b a8fa d13c
00000230: 104c ac3c e6c3 1a3d 8fa2 23bb 3d9d 9a3b
00000240: 8f47 a2bb cecf cc3c 0c87 ddbc 6f90 933b
00000250: c9cc 523c 8624 9cbc dd76 bebc 9f21 05bc
00000260: 1af3 453d 4f82 94bb 492e c5bc de9d b43c
00000270: 3245 933c 57b7 c33c 8dd9 373d 4903 aebc
00000280: 5493 19bd 4672 6fbc 6ef6 3dbc c1b3 7cbc
00000290: 7819 813c ece8 2c3c f8eb 853c a582 093b
000002a0: 2bc0 0c3c 1856 7c3c 6c6a 683d ad81 ea3b
000002b0: 6547 d2bc 87df 7a3c 44fb 21bd 1de5 3ebc
000002c0: 7783 873c 6477 9838 c7ef 663d 47f7 af3c
000002d0: dd7f 9ebc 87f1 29bd 9ec6 debb c7e2 cdbc
000002e0: 65a4 ecbc 1f2a f5bc 5558 22bd 379f ef3b
000002f0: cc06 0fbd 9db1 acbc 87cb 803c 6429 20bc
00000300: 2457 ef3c 564a 4f3d 971f 373d 0e12 91bd
00000310: 30c2 1ebd 7ce1 a9bd c14d b3bc 3d76 3bbd
00000320: 974b f1bc 5df8 0a3c 6026 523b a56d 9f3a
00000330: a705 3dbd 5f15 973c 5dd6 babd 7383 f3bc
00000340: 4f7e 95bc 1a0a e83b 2f86 b5bc 529e 42bb
00000350: d622 173d 187c 13bd 56c4 05bc 2c86 b6bd
00000360: e6ba a9b9 78da 133c 607e 9fbc 66fe dd3c
00000370: 035f 893c 5213 693b 5b64 313c 36db 50bc
00000380: c5db aebc 9685 ebbb e28e 303c 70f7 c03a
00000390: 12a7 1dbd fcb5 e23c 5c4a 873c a3e6 cc3c
000003a0: a226 89bb ec5c a73c 2bec ad38 4066 1a3a
000003b0: 57e4 a3bb d34f 503c fdbe 4b3d 2c55 303d
000003c0: ed2a fe3b cda9 ff3c 40ad 1b3d 9b74 a03c
000003d0: 1fae 3d3d 10ba 93bc 4329 c93c f9f3 3b3b
000003e0: 6e80 a33c 357e 493d 5b7f 173d 9090 213c
000003f0: e053 2d3c 1922 de3c 00b1 3b3d 67a3 093d
0.027840348 0.019508446 0.016328003 -0.0023324264 0.026365275 0.0045864824 -0.0073812287 -0.01539082
-0.017313333 0.01947122 -0.0049703782 -0.014736448 -0.0206447 0.046149895 0.0019816256 0.016550114
-0.0110128615 0.015975628 0.04113154 0.024925562 0.017648475 0.028880045 0.030665644 0.010216567
0.005834687 0.041628882 0.048073296 -0.018200187 0.0012256387 0.021465512 0.016085649 0.029535389
0.013880552 -0.010205545 0.011636012 0.016643206 0.017777016 0.03765642 -0.019451926 0.0046337736
0.038917646 0.021121843 -0.007618923 0.018127088 0.022780824 -0.0043505835 -0.012242736 -0.002042482
-0.031131597 0.0012669081 -0.008282551 -0.031929128 0.035409063 -0.014990588 -0.06447949 -0.07130628
-0.019369852 -0.047474623 -0.008920546 0.015158248 -0.061470762 -0.049800012 -0.016726047 -0.014568584
-0.09542029 -0.05740466 -0.043164205 -0.008453928 -0.00064652064 -0.047251742 -0.03199506 -0.02792143
-0.01724544 0.016269336 0.06335997 0.050938394 0.051342458 0.051414523 0.02289843 0.10456351
0.082306236 -0.017008912 -0.008502381 0.0454311 -0.02149642 0.01163174 0.042509057 0.03359895
0.010432821 0.030926209 -0.007886681 0.04043691 -0.01304394 -0.0029264037 0.0038141983 -0.0019291942
0.022648977 0.027182627 -0.012089723 -0.0016786302 0.0271126 0.00989724 -0.013712075 0.021664228
0.032283198 0.044698425 0.051773958 0.01684049 -0.02006553 0.055226687 0.030354818 0.00765241
0.05248284 0.0116519965 0.006908659 0.058358137 0.0054339776 0.00012568898 0.047789216 0.015298187
0.025607396 0.037627473 0.043284837 0.0232539 0.023909174 0.013649444 -0.013748441 0.031104237
0.047850594 0.011536272 0.03038151 0.04565902 0.049872056 0.03997857 0.011645891 -0.0006305144
0.03391454 -0.029082892 0.0047195004 0.025632218 0.021032363 0.03778448 -0.0024968719 0.0047184513
-0.004952378 0.025001433 -0.027041934 0.004503302 0.012866207 -0.019060384 -0.023250038 -0.008125692
0.048327543 -0.0045321356 -0.024069922 0.022047933 0.01797733 0.023891134 0.044885207 -0.0212418
-0.03749402 -0.014614647 -0.011594398 -0.015423716 0.015759215 0.01055358 0.01634787 0.0020982411
0.008590738 0.015401386 0.056742117 0.007156572 -0.02566881 0.015312082 -0.039546266 -0.011651305
0.01654218 7.270163e-05 0.056381013 0.021480216 -0.01934808 -0.041490104 -0.0067985794 -0.02513255
-0.028886983 -0.029927311 -0.03963502 0.007312681 -0.03491859 -0.021080786 0.01572205 -0.009775493
0.029216357 0.050608 0.04470786 -0.07083522 -0.03875941 -0.08294961 -0.021887662 -0.045767058
-0.02945499 0.008482066 0.003206633 0.0012163414 -0.04614797 0.018442808 -0.09122918 -0.029725766
-0.018248705 0.0070812823 -0.02215871 -0.0029696417 0.036898457 -0.036007017 -0.008164486 -0.0891231
-0.00032373442 0.009024255 -0.01946944 0.027098846 0.016768938 0.0035564494 0.010827149 -0.012747576
-0.021345029 -0.0071875555 0.010776253 0.001472218 -0.03848941 0.027674668 0.01651495 0.02501232
-0.0041855136 0.02043005 8.2932725e-05 0.000588987 -0.0050015855 0.012714344 0.049742687 0.043049976
0.007756582 0.031208897 0.03800702 0.019586852 0.046308633 -0.018033057 0.024555808 0.0028679355
0.019958701 0.049192626 0.03698669 0.009861127 0.010579079 0.027115868 0.045823097 0.0336031

encoder.6.bias f4 [64]
00000000: 484a 75bc a2a7 12bc d624 b93c 97f4 2fbb
00000010: cae5 843b 8c53 05bd c8aa 4dbc a6bf b93c
00000020: adeb d63c aa38 cb3c 550f 803c c0c9 b3bc
00000030: e8e4 9ebc 17c4 b2bc 283c 4dbb 87ff b23c
00000040: 9011 e03c 497b e4bb f92d f13c 7236 febc
00000050: b006 803c 6628 bf3b 7fd9 013c 9e49 a3bc
00000060: 4d14 983b 2c9d d73b cd8c 973c 54d3 653c
00000070: cdc6 06bd 2095 ebbc be59 243c 01b8 8a3c
00000080: 6e88 343c 2a7f 39bc f1cc ecbc df77 803c
00000090: 29b8 ad3c 7a02 813b fec1 afbc 85a2 00bd
000000a0: 90c7 eabc f1c1 9d3c afe7 6d3b 7dad c2bc
000000b0: 465e db3c fa9c aabc 7c32 d8bc f056 cebc
000000c0: ece2 b2bc e958 b4bc 67de 0f38 ce20 043b
000000d0: ffea 7abc c581 aeba 36c2 f13c c01b 0dbc
000000e0: 5a18 0abd dfef cabc d043 06bc 703c b8bc
000000f0: 643e ecbc 1153 b33c 8185 08bd 4584 dfbc
-0.014971323 -0.0089511 0.022600573 -0.0026848668 0.0040557133 -0.03255038 -0.012552924 0.022674393
0.026235426 0.024807293 0.01563231 -0.021946788 -0.01939626 -0.021822019 -0.0031316373 0.02185036
0.027352124 -0.0069727045 0.029440867 -0.03103182 0.015628189 0.0058336733 0.00792539 -0.019932564
0.004641092 0.0065800156 0.018499756 0.014027435 -0.032904435 -0.028757632 0.010031162 0.016933443
0.0110188555 -0.011321822 -0.028906317 0.015682159 0.021205978 0.003937063 -0.021454807 -0.03140499
-0.028659612 0.019257518 0.0036301424 -0.023764366 0.026778352 -0.020826805 -0.02639126 -0.02518794
-0.02183672 -0.022015052 3.4300985e-05 0.0020161155 -0.0153148165 -0.0013313821 0.029511552 -0.008612573
-0.03371463 -0.024772583 -0.008194879 -0.022489756 -0.028838344 0.021890195 -0.033330444 -0.02728475

encoder.7.weight f4 [64]
00000000: 6490 7b3f 7d52 7b3f cc2e 7e3f 4370 833f
00000010: dc8a 7b3f 6179 793f dd71 7d3f 2e52 7a3f
00000020: 9c90 7a3f 48cb 7c3f 4b4c 813f da0d 803f
00000030: faa7 863f 7e4d 803f ba71 7c3f 00bd 793f
00000040: 87b2 7b3f e443 803f be96 7c3f 77a5 793f
00000050: f8d4 7f3f 0903 7d3f 09b7 7b3f 81a0 803f
00000060: 2980 803f 12ab 823f adf2 7d3f 64f5 7a3f
00000070: 094a 843f 4f0f 803f d2ef 7c3f 7b00 833f
00000080: e8a7 7b3f 73ae 803f 35d9 7c3f 5be4 7d3f
00000090: 3695 793f 6841 7e3f a0c5 7b3f 9096 7e3f
000000a0: fc88 7e3f cd62 7f3f 23c3 823f 1179 7d3f
000000b0: a7ee 7c3f a972 803f d1cb 7c3f d584 803f
000000c0: 4514 833f afbe 7b3f 0b37 823f ab20 833f
000000d0: 854b 813f c8fd 813f 5947 7c3f e75d 853f
000000e0: bd2c 853f 949d 803f f3f2 803f cc8e 7b3f
000000f0: dd01 823f 8c46 813f 6f4e 7d3f 9477 823f
0.982672 0.9817274 0.99290156 1.0268635 0.9825876 0.97450835 0.99001867 0.97781646
0.97876906 0.9874768 1.0101408 1.0004227 1.0520012 1.0023649 0.9861103 0.97554016
0.98319286 1.0020719 0.98667514 0.97518104 0.9993434 0.98832756 0.98326164 1.0048982
1.0039111 1.0208457 0.9919842 0.98030686 1.0335094 1.0004672 0.98803437 1.0234522
0.9830308 1.0053238 0.9876893 0.9917657 0.974933 0.9931855 0.98348427 0.9944849
0.9942777 0.99760133 1.0215801 0.9901286 0.98801655 1.0034992 0.987485 1.0040537
1.0240561 0.98337835 1.0173048 1.0244344 1.0101172 1.0155573 0.9854637 1.0419282
1.0404278 1.0048089 1.0074142 0.98264766 1.0156819 1.0099654 0.98947805 1.0192742

encoder.7.bias f4 [64]
00000000: cb7d aebd 0d36 a2bd 5223 65bd 19ae 383d
00000010: 0e5d bd3b 62f8 9e3b 12bc b63b 2d5a 0bbb
00000020: e73f 6cbd 8433 7ebc 3ed4 51bd 6408 633a
00000030: 0963 ca3d 0dbc 2b3b c896 23bb 4109 b33c
00000040: 0991 ddbc 775c eb3b 19af 0fbc 51fc 8ebb
00000050: 4f77 8dbb 95f8 1cbd 7da8 7abd 48e2 263d
00000060: b3b4 253d ec18 54bc 9ab0 6fbd f49f 96bd
00000070: 5680 823c 735b 9abc 2aa8 633c bcf2 a2bc
00000080: cf4c 3abb 6b1e 8f3d 7f1a c33b 6205 2e3d
00000090: 4ea8 873c 6ae5 81bd abcb 66bd a45d bcbb
000000a0: 3fdf bfbc 5cdd ca3a 2482 33bc 8ca9 1c3c
000000b0: 0661 07bd d37e 24bb 476a 1d3c 9486 0dbc
000000c0: 777e 3a3c b9dd 6f3d 7229 2cbd 9b7c 3fbd
000000d0: 502e 8c3d 684f 5bbd 7048 9e3c b5ec 25bd
000000e0: bf0a af3d 40a0 27bd aa80 0cbd 0148 bebd
000000f0: e839 44bd 8b69 973c e392 59bd 1741 11bd
-0.08520087 -0.079204656 -0.055941887 0.045087907 0.0057789152 0.004851387 0.005576619 -0.0021263466
-0.05767813 -0.015515212 -0.0512278 0.0008660613 0.09882171 0.0026204616 -0.0024961699 0.021854999
-0.027046697 0.0071826535 -0.008769774 -0.0043635746 -0.004317201 -0.038323004 -0.06119584 0.040743142
0.04045553 -0.012945395 -0.05851803 -0.073547274 0.015930336 -0.018842435 0.013895074 -0.019891135
-0.002842713 0.06988224 0.0059540863 0.042485602 0.016559746 -0.063425854 -0.056346577 -0.0057484675
-0.023421882 0.0015477347 -0.010956321 0.0095619075 -0.033051513 -0.0025100007 0.009607858 -0.008638043
0.011382691 0.05856106 -0.042031713 -0.046749692 0.06844771 -0.053542525 0.01932165 -0.040508945
0.085469715 -0.04092431 -0.03430239 -0.092910774 -0.047906786 0.018482944 -0.053118598 -0.035462465

encoder.7.running_mean f4 [64]
00000000: 3ae5 5d40 cf88 b5bb c43f a43f b6a6 d9bf
00000010: a0c0 9f3d 0e44 c1bf 777f 24bf b8c6 95bd
00000020: 097f 9f3e a18d 7a3e 3c31 b2bf 8b00 82be
00000030: a2dd 223e b6c6 47be 5634 833e 74a9 3cbf
00000040: cb9f 0e3f c71e 473f 0ace 15be 6d8b 93be
00000050: 9aa1 81be b40a 1e3d 9b28 db3e 1c19 9fbf
00000060: 731e adbe c72e b03f 53d7 803f 21f5 dd3e
00000070: b8f7 0d3f bc48 bebf 24b8 06bd 8e8c 37bf
00000080: eb7e 4ebe 3c17 b2bf 2c00 ecbe 891e 3abf
00000090: b9fd 84bf f08d a63f 31a2 80bd 9f3f fbbe
000000a0: c14b c63b fe40 4abf b276 debe ee75 cd3d
000000b0: be87 22c0 c8b8 a83f d3cd 1fbe 54a4 b53f
000000c0: e1e7 fabf 7fbf 80bf 3674 8cbf 2f0c 26bf
000000d0: 0e30 20c0 83b5 4ebf 4469 17bf 8ffa 5340
000000e0: fbe0 45c0 bd56 8440 84d2 a8bd f6c6 00bf
000000f0: 33b4 1f40 e028 90bc 4a11 b53f 918c 38bf
3.4671159 -0.0055399905 1.283196 -1.7004001 0.07800412 -1.5098894 -0.64256996 -0.07313293
0.31151608 0.2446809 -1.3921275 -0.2539104 0.15904859 -0.19509396 0.25625867 -0.73696065
0.55712575 0.7778134 -0.14629379 -0.2881731 -0.25318605 0.038584426 0.42804417 -1.2429538
-0.33812293 1.3764275 1.0065712 0.4335108 0.55456114 -1.4865947 -0.032890454 -0.71698844
-0.20165603 -1.391334 -0.4609388 -0.7270284 -1.038993 1.3012066 -0.062809356 -0.49071977
0.006051511 -0.7900542 -0.43449932 0.10032259 -2.539535 1.3181391 -0.1560586 1.4190774
-1.9602014 -1.005844 -1.0972965 -0.6486234 -2.502933 -0.80745715 -0.59145 3.312168
-3.0918567 4.135588 -0.08243278 -0.5030359 2.4953735 -0.017597616 1.4145901 -0.7208949

encoder.7.running_var f4 [64]
00000000: 5aba 6a40 a34b 0a40 2bdf c740 0e00 cf3f
00000010: 4a3a 8140 e906 3d40 41bc 6e41 2c52 103f
00000020: 529f 1d41 9fb5 a340 caf8 fe40 7441 0f41
00000030: e724 2740 893e 0c41 132c fd40 2b5e bc40
00000040: 0ea2 1e41 5219 8d40 7324 5e40 9563 e83f
00000050: ed8b 8241 ad0e 1541 1b18 c540 fdc3 6140
00000060: 0835 0441 96b9 9040 ae4b 4f40 177d a340
00000070: d8f1 813f a265 c440 13b2 5a40 c7f1 2141
00000080: 9b7d 0440 b9a3 2940 edd9 5041 d7c2 4940
00000090: 9459 5b41 975e fd40 ef41 3040 3dab 6041
000000a0: d6a6 d240 5967 8f41 29b0 f33f 2052 b040
000000b0: 4aaf 0240 ef51 1a40 7a11 2540 2e30 0440
000000c0: 5951 1541 5dcc aa3f 91c3 f63f f8c2 1f40
000000d0: 88b9 7740 1924 2240 219b 913f d095 ac40
000000e0: 765a 8b40 82ec 8c40 6de6 3a40 ba87 a73f
000000f0: fdd3 9740 86f8 763f 7435 9740 e774 4340
3.667624 2.1608665 6.245992 1.6171892 4.0383654 2.9535468 14.92096 0.56375384
9.851397 5.1159205 7.9678698 8.95348 2.6116273 8.765267 7.91163 5.886495
9.914564 4.409341 3.4709747 1.815539 16.318323 9.316083 6.1591926 3.5275872
8.262947 4.5226545 3.2389941 5.1090198 1.015193 6.1374063 3.4171188 10.121528
2.0701663 2.6506178 13.053205 3.152517 13.70937 7.9177966 2.7540243 14.041806
6.5828657 17.925463 1.9038135 5.510025 2.0419488 2.4112508 2.5791917 2.0654407
9.33236 1.3343617 1.9278432 2.496275 3.870699 2.5334532 1.1375467 5.3932877
4.3547926 4.4038706 2.920314 1.3088295 4.7446275 0.96472967 4.725275 3.0540102

decoder.0.weight f4 [64, 32, 3, 3, 3]
00000000: 41c9 e83b facf e43c b293 61bc 3024 65bc
00000010: 43b2 823a e648 1b3c ed81 1b3c 5f5c 97ba
00000020: 8b38 f7bc f1bc 09bd e9f8 cdbc caa5 1fbd
00000030: 5044 10bb d32d c4bc 44ce 1fbd 3c46 323c
00000040: bdb8 223d 9e6d f1bc 5f6e 56bd 897c 1b3c
00000050: 7296 ecbc 8dbf 8b3c 1610 b33c 90ca c73c
00000060: 071c d9bc 46c6 493d 853c 09bb 8222 10bd
00000070: 0199 053b 386b 5d3b 28f7 f5bc 33f4 6c3b
00000080: b3b4 59bd cc32 4db9 657d 12bd 4d1d a0bc
00000090: 1f12 223c 3ff3 0bbd 0045 2a3c 7e7a c0bd
000000a0: 421a 34bd 1138 50bd 31d7 23bd 139c 14bd
000000b0: 4e83 8b39 dc16 5bbd a8b4 eabc e383 513c
000000c0: bf5f 8bbd 6dff 223c 99f3 2ebc 3a53 7fbc
000000d0: 879a 22bd 7260 c13b 0e27 61bc 0f56 61bc
000000e0: 9620 8dbc 41e2 0fbd a4a4 dc3c 4e50 2bbd
000000f0: 9cf9 a03c 4cfa 0dbd 79e7 a3bc bc71 10bb
00000100: 22ca 4d3d 2102 c5bc 8803 48bd 937c acbc
00000110: e95f 88bc 731c 9cbc a9de 97bb ca54 53bd
00000120: a0e7 a53c 1df4 c1bc 8d55 f3bc c8c0 2cbd
00000130: ba90 fa3c 6cb9 a7bc 7c8e b9bc 2404 d7bc
00000140: 2ebf 143b 7228 18bc 2be7 0abc 0a02 3cbd
00000150: 2fc6 98bc 3dec 9ebd 3f1e 50bd a59b acbc
00000160: 2b38 22bc 04e7 aabc 3873 adbb 2f63 eabc
00000170: 5380 41bd d40a 8db9 d25a f7bc b8c4 87bc
00000180: 2ef0 a43b cdb9 ccbc a6ee 8f3c d0df 8ebd
00000190: e334 1bbd c06a 97bd 52f3 28bd 5843 b6bd
000001a0: 45c4 d2bd 0da5 e4bc 0ed8 8dbd 2543 1fbc
000001b0: c2d8 67bc 8502 143b ad24 1bbc 24c1 0ebc
000001c0: f993 03bc 4247 87bc 2d23 e7bb 835e 413a
000001d0: d364 fa3c 318e 6a3b 14c9 333d 7928 c5bc
000001e0: c87b d33c 2d47 9c3d d548 f93c 8b24 24bc
000001f0: be2d 463d f277 883b 160f c83b cc90 583d
00000200: 04f6 103d a894 0ebd ad07 0bbc 3bcc 30bd
00000210: e137 dd3c 574f 85bc 92ce b6bb 25cc 62bc
00000220: b2e9 02ba 99b4 36bc 7064 b4bb 53f5 943c
00000230: 858a b53c c446 1fbc 6074 9d3c a8a0 04bc
00000240: c881 0c3d 9088 2dbd 8409 b83c b22e a8bc
00000250: dd7a cebc 6461 b23c b146 c93b a2b3 f6ba
00000260: 2a45 0b3d a4e6 d0bb 0175 0dbd 7b5f 1b3c
00000270: fad5 09bc b291 d7bc a4cb 6dbc ba11 a73a
00000280: 2ee4 363d 3d32 fb3b 4e1d 15bc 09d1 1dbd
00000290: cf08 a9bc 52c0 60bd e54c 06bd 660d 16bd
000002a0: e298 47bd d7ce 313b 34f8 82bd a6f0 b73c
000002b0: 2c28 ce3a ae87 dcbc 1104 2fbd 7646 60bb
000002c0: a93d 32bd 2553 12bd c838 c6ba b324 b1bc
000002d0: 6ed9 99bb 3349 c7bc 77e8 82bc df41 043d
000002e0: c48d 283d a10c 383d abd7 24bd 6a03 db3c
000002f0: 58cb 663b 7c09 203d 17a6 94bc ed5b 0a3d
00000300: 03fa 80ba 023a 13bd 6ecc 22bb 5563 2abc
00000310: df7a 8c3c 040c b4bc 864c 13bd 965c 82bc
00000320: 8017 c3bb 45e2 413c 84f1 073d 5075 c2bc
00000330: 5483 11bd d733 20bb 6a28 99bc 2ad1 94bb
00000340: 8bae 59bc 8277 c33a 8350 97bc 44d6 83bc
00000350: 5d97 303c 6c95 323d 9b6b 2c3d 936e eebb
00000360: 6616 e8b8 145d e0bc d557 cb3a 8ed2 853c
00000370: 1b85 72bd 04c5 b5bb 4230 ebbb b350 8e3b
00000380: 0617 76bb bcdc e53a 7462 a8bc 6f2e a6bc
00000390: 183b 973c 13eb 9aba 3b16 d43b 2f98 333c
000003a0: 64ef 44ba 08df 043c dc23 94bc c895 83bb
000003b0: 4413 803c 0071 e93b 6fc3 5e3d 7fc8 8d3d
000003c0: aec7 a73b 8f24 4f3d 6ed1 443d c66c 67bd
000003d0: 0fbc f5bb a0bd bebc 075e b8bc a1f6 16bc
000003e0: a276 9abb d808 5dbb fa67 8c3b bcc8 59bd
000003f0: 8f49 5539 f32f 84bd ae00 b9bc bc95 f33c
0.0071040695 0.027931202 -0.013768123 -0.013985679 0.0009971339 0.00947783 0.009491426 -0.0011547914
-0.030178329 -0.033627454 -0.025143104 -0.03897647 -0.0022013374 -0.023947632 -0.03901507 0.010881003
0.03972696 -0.029471215 -0.05235135 0.009490141 -0.028880332 0.017059112 0.021858256 0.024388582
-0.026502622 0.049261354 -0.0020940613 -0.03518916 0.0020385387 0.0033785831 -0.03002508 0.0036156296
-0.053150844 -0.00019569247 -0.035764117 -0.019545222 0.009892016 -0.034167524 0.010392427 -0.093983635
-0.043970354 -0.05083472 -0.040000144 -0.036281656 0.00026609976 -0.053488597 -0.028650597 0.012787792
-0.068053715 0.009948594 -0.010678195 -0.015583808 -0.03969815 0.0059013898 -0.0137422215 -0.013753428
-0.017227452 -0.035127882 0.026933976 -0.04182463 0.019650273 -0.03466253 -0.020007836 -0.0022040447
0.050241597 -0.024048867 -0.048831493 -0.021055495 -0.016647296 -0.019056534 -0.0046346975 -0.051594533
0.020252049 -0.023675973 -0.02970388 -0.042176038 0.03058659 -0.020474158 -0.02265095 -0.026247092
0.002269696 -0.009286987 -0.008477966 -0.045900382 -0.018649189 -0.077599026 -0.050810095 -0.02107031
-0.009901087 -0.02086211 -0.005293276 -0.028611748 -0.04724152 -0.00026901683 -0.030194674 -0.016573295
0.0050335145 -0.02499094 0.017569851 -0.069762826 -0.037892234 -0.07393408 -0.041247673 -0.088995636
-0.10291342 -0.027910734 -0.06925975 -0.009720598 -0.0141508 0.002258451 -0.009469193 -0.0087130405
-0.008030885 -0.01651347 -0.007053754 0.0007376449 0.030565655 0.003579032 0.043892935 -0.02406715
0.02581586 0.07630763 0.030430237 -0.010018478 0.048383467 0.004164689 0.006105314 0.052872464
0.03539087 -0.03480974 -0.008485717 -0.04316352 0.027004184 -0.016273184 -0.0055788243 -0.013842617
-0.000499393 -0.011151456 -0.005505137 0.018183386 0.022160778 -0.009721462 0.019220531 -0.008094944
0.034303457 -0.042366564 0.022465475 -0.020530079 -0.02520507 0.021774955 0.0061424603 -0.0018821845
0.034001507 -0.0063751508 -0.03453541 0.009483214 -0.008412832 -0.02631459 -0.014513884 0.0012746372
0.044651203 0.007665901 -0.009101225 -0.03852943 -0.020634083 -0.05487091 -0.032788176 -0.03663387
-0.048729785 0.0027131343 -0.06394997 0.022453617 0.0015728525 -0.026920166 -0.042728487 -0.0034221685
-0.043515835 -0.035723824 -0.0015123123 -0.021623945 -0.004695109 -0.024326896 -0.015979989 0.032289382
0.041150823 0.04493392 -0.04024474 0.026735026 0.0035216417 0.039071545 -0.018145604 0.033779074
-0.0009840134 -0.035943992 -0.0024841088 -0.010399659 0.017148433 -0.021978386 -0.03596165 -0.015913289
-0.005953729 0.011833732 0.03318931 -0.02373758 -0.035525635 -0.0024444961 -0.018696029 -0.004541536
-0.013286243 0.0014912935 -0.018471008 -0.01609338 0.010778275 0.04359953 0.042094808 -0.007276365
-0.00011066794 -0.027388133 0.0015513847 0.016335752 -0.05920897 -0.0055471677 -0.0071773836 0.004343116
-0.0037550344 0.0017537097 -0.020554759 -0.020285813 0.018460795 -0.0011819325 0.0064723766 0.010961576
-0.00075124786 0.008109815 -0.018083505 -0.004015658 0.015634187 0.0071240664 0.0543856 0.06923007
0.005120239 0.050571974 0.04805129 -0.05650022 -0.007499225 -0.02328378 -0.022505773 -0.009214074
-0.004713849 -0.0033727195 0.004284856 -0.05316995 0.00020340666 -0.06454458 -0.022583332 0.029734485

decoder.0.bias f4 [32]
00000000: 3cb9 bcbc 6935 f3bb 60e4 d53c 110e 55bc
00000010: e461 5fbb 638b febc 2670 52bc b99a b73c
00000020: c2c8 ae3c a5f7 a23c 65dd 19bb 3f71 9a3c
00000030: f77b 03bd d87c 083d 945b ca3c d3eb fe3c
00000040: 558e 50bc cf56 2f3c 84c1 07bd 1286 613c
00000050: 6761 02bd 1809 d93c 8c18 ccbb 7c21 183c
00000060: f008 473c 2382 96bb 3997 fcb9 953a f5bb
00000070: c9d9 c83c a9a0 b6bc 927e 423c 1df8 75bc
-0.023037545 -0.0074221385 0.026109874 -0.013003842 -0.0034085447 -0.031072324 -0.012844121 0.022412645
0.021335963 0.019893477 -0.0023477909 0.018852828 -0.032100644 0.033322185 0.024701871 0.03111831
-0.012729247 0.010701849 -0.033143535 0.013764875 -0.03183117 0.026493594 -0.006228512 0.009285327
0.012148127 -0.00459315 -0.00048177855 -0.00748379 0.02451791 -0.022293406 0.011870997 -0.015012768

decoder.1.weight f4 [32]
00000000: fc3e 803f 6b72 7d3f 7332 783f a7bc 833f
00000010: c4d6 7a3f a10c 803f 903a 813f 94b1 7a3f
00000020: 970f 7e3f 6ab4 7d3f 4e51 7d3f 7d0d 823f
00000030: 7bc6 753f cb63 833f 4a6f 813f 17c0 873f
00000040: 0e07 733f f5de 723f 0c04 803f 6aba 7f3f
00000050: e0e5 7d3f a90f 7e3f e9f1 843f 5eba 833f
00000060: c706 803f e5ba 863f e001 793f dd84 803f
00000070: 1ef9 783f 5413 773f 4cbb 7c3f 1f83 803f
1.0019221 0.9900271 0.9695198 1.0291947 0.97983956 1.0003854 1.0095997 0.9792721
0.9924254 0.99103415 0.98952186 1.0160366 0.9600598 1.0264829 1.0112088 1.0605496
0.9493264 0.94871455 1.0001235 0.9989382 0.99178886 0.99242646 1.0386325 1.029125
1.0002068 1.0525786 0.97268486 1.0040547 0.9725512 0.9651387 0.9872329 1.0040015

decoder.1.bias f4 [32]
00000000: 2708 8bbc 6b2e 2fbc 6b51 d4bc 15c9 df3c
00000010: 924a efbc 8d34 d3bb c630 0b3c cbcd bebc
00000020: f3ce ccbb 6422 05bd e170 02bd 65dc 57bd
00000030: fe0d 3fbd f5cb 993b 2f8b 1cbd 8849 22bc
00000040: 7b72 87bd 3699 80bd ac04 a5bc 7657 e8bb
00000050: 709f 3bbd 54f4 43bc e00b d4bc e6aa 2e3d
00000060: 045f d0bb 65bb 8b3d d388 50bd bdb5 92bc
00000070: 7a2e 85bd a34e 4bbd 017d 56bd 4822 323d
-0.01697166 -0.010692219 -0.02591773 0.027317563 -0.029210363 -0.0064454735 0.008495515 -0.02329149
-0.006250256 -0.0325035 -0.03184593 -0.05270042 -0.046644203 0.004693503 -0.038218673 -0.0099052265
-0.06613632 -0.06279223 -0.02014383 -0.0070905043 -0.04580635 -0.011960108 -0.025884569 0.04264345
-0.006358983 0.06822852 -0.050911736 -0.017908925 -0.06503005 -0.04963554 -0.052365307 0.043489724

decoder.1.running_mean f4 [32]
00000000: 5188 eabe ea3f 1bbf 25e6 8ebe 341a 47bf
00000010: 37ad c93d 3559 dabd ff96 efbe 085a bebd
00000020: 9014 1ebe 7719 71be d4a8 713e b527 953e
00000030: 1c1d 21be f4b2 13bd 520b 2c3f 54a9 c53c
00000040: ab6e 21bd dc8e 1ebe d6fc 8fbd f77c 18bf
00000050: bf68 cbbe 4727 dcbe 5404 e63d 803c 6ebf
00000060: f815 1abf f5bd 5ebf 0709 7b3e f8ae b9bc
00000070: 9598 21be 3384 433e d840 91be bd90 5bbf
-0.45807126 -0.606444 -0.2790996 -0.7777436 0.09847491 -0.10661546 -0.46794888 -0.09294516
-0.15437531 -0.2354487 0.23599559 0.29131857 -0.1573376 -0.036059335 0.67204773 0.024128594
-0.03941218 -0.15484184 -0.070306465 -0.5956568 -0.39728352 -0.42998716 0.11231294 -0.93061066
-0.6018977 -0.870086 0.24515162 -0.02266644 -0.15780862 0.19093399 -0.28369784 -0.8576773

decoder.1.running_var f4 [32]
00000000: 37d9 ef3f 4369 df3f 718f dd3f 353f f83f
00000010: 3596 a83f 8533 233f e676 9f3f 9d6d 123f
00000020: 0037 d53e 70f4 1340 a71a 5d3f e684 ac3f
00000030: 3268 f53e 49ec 5b3f d318 5b3f d528 4f3f
00000040: 49ac b73f 5d9f 1a40 0017 583f d846 d43f
00000050: d1cc d23f 39d3 c43f 25e2 ae3f b41b 2a40
00000060: 6e26 f73f 9e67 d13f d399 c63f 5171 8e3f
00000070: 8d99 913f d47f d33f d38e df3f 3028 9e3f
1.8738164 1.7453998 1.73094 1.9394289 1.317084 0.6375049 1.245816 0.57198507
0.41643524 2.3117943 0.86368793 1.3478057 0.47931057 0.8590742 0.85584754 0.8092168
1.4349452 2.4159768 0.84410095 1.658412 1.6468755 1.537696 1.3662764 2.6579409
1.9308603 1.6359746 1.5515693 1.1128331 1.1374985 1.6523385 1.7465461 1.2356014

decoder.3.weight f4 [32, 16, 3, 3, 3]
00000000: 76db 173d 2074 e43c 94c0 76bd 995e 56bd
00000010: 2857 39bb dc9b 62bc b38d c7bd 3d66 173c
00000020: 40c3 b73c 9a13 e23c a94b 1f3b 9707 453a
00000030: f216 ee3b 66d4 8abc 2d62 c3bc 0f7c 47bc
00000040: bddd 3ebd abfc 21bd b956 0abc 885a ae3b
00000050: 43d6 4b3d 490c 00bd 2883 08bd eefb aa3c
00000060: 3c37 d3bd eb3d 6cbc eb2d 8f3d 38a9 46bd
00000070: 668f bf3c efaa 1e3d 42bf 103d 7300 843c
00000080: beb8 aebd 75e5 8dbc 0127 373c 5257 5fbd
00000090: e932 303d 3a22 f83c cdcc 02bc fed0 38bd
000000a0: 6614 a9bd 7630 b7bd 5091 31bc 8659 8bbd
000000b0: f44b f93b 9012 cabc 8ed9 163c 970a 873c
000000c0: 457f 8d3c d41d 48bd 22bc aabd d1c4 9239
000000d0: f669 53bc 0285 42bd a5a6 fa3c 3ed2 58bd
000000e0: 756c ae3c 7074 e4bb 7d48 5fbd 05f1 953c
000000f0: bdfe a63c 2b48 80bd caa7 fe3b 65c2 3e3c
00000100: 569e c63c b2a4 233d ec7d c7bc 861e 4e3d
00000110: 4991 103d 8229 88bc 3ec6 5d3c b835 183d
00000120: 76dc fcbc 39b2 953c 50ff 3bbd 0ed9 cfbb
00000130: fb9a 01bc b5b7 103d a524 1e3d aebe da3c
00000140: 5835 fabb 8716 e8bc 4b93 babc 3f8a 19bd
00000150: b08a 3fbd 99c7 953c ebc7 143d b1b0 0abc
00000160: 90ed 37bd f3f4 3ebb e6e7 55bd 1a60 72bc
00000170: 771b c83c ea40 30bc 65e9 133d dc4d 9ebd
00000180: f467 ea3c 29ca f8bc d61a a93c 3e2b 983c
00000190: ac7f 57bd 2ca3 8a3c 8846 a5bd 299d 95bc
000001a0: 7328 9abc d125 573c 5c08 8bbc ad8d 103d
000001b0: 7f37 cd3c 043c 293c c87a 89bc 567f 883c
000001c0: ae9f 4dbd a90a a6bc cbcc 723c 0c1b 603c
000001d0: 39a9 93bc aabf 533c 8b65 e6bc f917 c2bd
000001e0: 60ee 953c 62e1 08bc c1bc 283d 4b2d 2fbd
000001f0: 03e9 3d3d e2b7 a2ba cbe1 95bc e6b0 643c
00000200: 080e 4a3c f6f1 be3b b140 79bd d407 b23c
00000210: c694 fbbc 399b 653d 9fdb 4b3d 73d9 c5bd
00000220: 3634 9c3c 0f53 a0bc 29a9 84bc 6e14 11bd
00000230: 8066 12bd 5a3e 76bc c078 57bc acdb 0fbd
00000240: 2153 993c 55e1 38bd 6519 f0bc 5fcb 22bd
00000250: 2762 b5bd e00b 96bc 4f08 543c 247e 9c3b
00000260: 6779 babb 0022 64bd 95fa 713c 7a0b 3ebd
00000270: e570 42bd b69b 62bd 3215 913b 056f 99bd
00000280: e679 653c f97d d2bc c60c c93d 8565 5a3c
00000290: f769 83bb 308d 993b 2376 e4bc 0ee9 0abd
000002a0: 8580 8bbd 61ba 4bbc ef3c 32bd d0d1 2e3d
000002b0: bcb8 90bc 5ee8 8abc 6456 32bc 976e 92bc
000002c0: d185 8ebd 96e2 4dbb 4945 05bb 4a6e 83bc
000002d0: 49de 74bd d898 dfbb 25aa a4bd 5f1c 0ebd
000002e0: a838 c3bc aa86 e2bc 002c 213d 5bbe a23c
000002f0: 928f 3bbd bf59 f93c c06d 743d 9d14 2a3c
00000300: 83dc 483b c307 e8bb 6f3a 4abd d7b8 18bc
00000310: 50c7 b6bd 66aa 2b3c 4ae7 6bbc 3d6a 94ba
00000320: 6ea8 a0bc 9d65 5f3c 6a29 eabc cfa4 18bd
00000330: 1deb 02bc 10e7 2dbd c551 82bd 9f8b 8dbb
00000340: 7d8b 133d 49c8 b63c a7f8 6d3c 2032 9cbd
00000350: a118 1fbd 33db f3bc 83fb 03bc 3a19 70bd
00000360: ab5f 80bd ce48 743c ca68 993c c618 f0bc
00000370: 699e 023d c949 5ebd 0474 8fbc e2e1 be3c
00000380: 04a8 22bd c416 c0bc 04c5 773d d01a 9f3c
00000390: c0c3 f8bc 95ee ad3c 5149 c8ba b3d3 243c
000003a0: 617a 4d3d 5912 243c ebc2 3ebd 4592 753b
000003b0: 6f43 923c 91e6 fbbb 7878 ab3c 58fc 183d
000003c0: f83b 73bb 0af7 4b3d cf81 f9bc e5d4 7abd
000003d0: 1746 bd3a 8613 6e3a 248f 3fbd 8792 363c
000003e0: 41b3 51bc 2192 fe3b 1216 48ba 5459 cb3c
000003f0: 0965 30bd 00f0 0e3c f6ff 8cbd da7c 923c
0.03707453 0.027887404 -0.06024225 -0.05233631 -0.002828071 -0.013831105 -0.09743824 0.009240684
0.02243197 0.027597237 0.0024306572 0.00075160846 0.007265919 -0.016946983 -0.023850525 -0.012175574
-0.046598185 -0.039547604 -0.008443528 0.0053208508 0.049764883 -0.031261716 -0.033328205 0.020872083
-0.103132695 -0.014419059 0.0699118 -0.048501223 0.023383807 0.038737234 0.035338648 0.016113495
-0.085313305 -0.017321328 0.011178733 -0.054526635 0.0430173 0.030289758 -0.007983399 -0.045121185
-0.08255844 -0.0894479 -0.010837868 -0.068041846 0.0076079313 -0.024667054 0.0092071425 0.016484542
0.0172726 -0.04885657 -0.08336665 0.0002799393 -0.012903681 -0.047490127 0.03059704 -0.052934878
0.02129195 -0.0069718882 -0.05451249 0.018303404 0.02038514 -0.06263765 0.007771467 0.011643027
0.024245422 0.039951988 -0.024352036 0.05032208 0.035294805 -0.016621355 0.013536034 0.037160605
-0.030866843 0.01827346 -0.04589778 -0.0063430136 -0.007910485 0.035331447 0.038609166 0.026702251
-0.0076357536 -0.028331054 -0.022775313 -0.037485357 -0.046763122 0.018283652 0.03632347 -0.008464978
-0.04490429 -0.00291377 -0.05222311 -0.01479342 0.024427159 -0.010757664 0.036111254 -0.07729694
0.028614022 -0.030369835 0.02064268 0.018575307 -0.05261199 0.01692351 -0.080700934 -0.018263416
-0.018818116 0.013131575 -0.01697176 0.035291363 0.025050877 0.01032925 -0.01678218 0.016662281
-0.05020111 -0.020268755 0.014819334 0.0136783235 -0.018025028 0.012924114 -0.028124591 -0.09477229
0.018302143 -0.008354517 0.041195635 -0.042767804 0.046364795 -0.001241442 -0.018296143 0.0139581915
0.012332447 0.005827184 -0.06085271 0.021732248 -0.03071059 0.056056235 0.049769994 -0.09660616
0.019067865 -0.019570855 -0.016193943 -0.035419874 -0.035742283 -0.015029514 -0.013151348 -0.035121605
0.018716397 -0.04513677 -0.029308984 -0.03974473 -0.08856612 -0.01831621 0.012941434 0.0047757793
-0.005690742 -0.055696487 0.014769216 -0.046397664 -0.047470946 -0.05532428 0.0044275755 -0.074918784
0.014006114 -0.025694834 0.098168895 0.013329868 -0.0040104347 0.0046860203 -0.027888363 -0.033913665
-0.068116225 -0.012434573 -0.043515142 0.04268056 -0.017666213 -0.016956504 -0.010884855 -0.017874999
-0.06959117 -0.0031415573 -0.0020335487 -0.0160438 -0.0597823 -0.0068236403 -0.08040265 -0.034695026
-0.023830727 -0.027652103 0.039348602 0.01986616 -0.045791216 0.030438302 0.05967498 0.010380891
0.0030649013 -0.0070810034 -0.049372133 -0.009321413 -0.089247346 0.010477638 -0.014398405 -0.0011323165
-0.019611564 0.013635066 -0.0285842 -0.03726655 -0.007990626 -0.042456686 -0.063632526 -0.0043196226
0.0360217 0.0223123 0.014524615 -0.07626748 -0.038841847 -0.029767608 -0.008055571 -0.058617808
-0.06268247 0.014909936 0.018726725 -0.029308688 0.031889353 -0.054269586 -0.017511375 0.023301069
-0.039711013 -0.023448355 0.060490623 0.019421965 -0.030366778 0.021231929 -0.0015280639 0.010060239
0.050165538 0.01001414 -0.046572607 0.0037471217 0.01785442 -0.0076873978 0.020931467 0.03735003
-0.0037114602 0.04979614 -0.030457405 -0.06123819 0.0014440444 0.0009081889 -0.04676737 0.011143333
-0.012799085 0.0077688848 -0.0007632683 0.024822868 -0.043065105 0.008724213 -0.06884758 0.0178818

decoder.3.bias f4 [16]
00000000: 34ea aa3c 25cd 10bd 991b e53b b454 143c
00000010: c67c 2c3d f1e4 313c 9537 40bd 150e 1f3c
00000020: e54e bb3b 892a d0bc 0f30 0dbd 0021 59bc
00000030: be7f d2bc 438a 063d 2e7b 0ab9 8542 2ebd
0.02086363 -0.03535189 0.0069918153 0.009053398 0.04211118 0.010857807 -0.046928007 0.009707947
0.005716192 -0.025410907 -0.03446966 -0.013252497 -0.025695678 0.0328467 -0.00013206594 -0.042543907

decoder.4.weight f4 [16]
00000000: 6f96 753f c85f 7c3f ee7d 7f3f 4dad 7c3f
00000010: 4ffb 7d3f e3de 7b3f e71a 783f 108d 823f
00000020: 068d 7d3f cb9e 763f a2c9 803f ca87 7a3f
00000030: 8bf7 763f 5552 7c3f 41db 7d3f 4d18 7d3f
0.9593267 0.9858365 0.9980153 0.98701936 0.9921159 0.98386973 0.9691605 1.0199299
0.9904331 0.9633605 1.0061533 0.9786345 0.9647147 0.9856313 0.9916268 0.98865205

decoder.4.bias f4 [16]
00000000: d9b7 c63b 20d3 993c f733 25bd ef02 4dbd
00000010: bc4b 76bd 98c9 6dbb e9fa 913c 7fd7 743d
00000020: 1bab 0dbd df01 5ebd 30fe 323d cc23 91bd
00000030: 7329 d7bc b06f 4fbd cf1d 8c3d 0ba8 77bd
0.006064397 0.01877743 -0.04033276 -0.050051626 -0.06013082 -0.003628349 0.017819839 0.059775826
-0.034587007 -0.054201003 0.043699443 -0.07086906 -0.026264882 -0.050643623 0.06841623 -0.060462993
