models/cae_motion.pth (torch, 754997 bytes, 27 tensors)

encoder.0.weight f4 [32, 1, 3, 3]
000000 87 f0 6d be 98 66 3f 3e ec 57 98 bd 30 ed c0 be
       -0.23236285 0.1869148 -0.07438645 -0.3768096
000010 44 d0 98 be bb b1 a6 3e aa e5 4c 3e c4 e2 7d 3d
       -0.29846394 0.32557473 0.20009485 0.06198384
000020 6c 77 ae be 2b e0 7e 3d 70 fa 2f be 90 84 45 be
       -0.34075487 0.062225502 -0.17185378 -0.1928885
000030 3c 79 a2 be 96 2e 1f bd f6 84 dc 3d cb 15 8e bd
       -0.3173312 -0.038862787 0.10767548 -0.069377504
000040 23 a5 64 be 50 cc c0 3d 95 d1 43 bd 81 f7 04 3e
       -0.2232862 0.094139695 -0.047807295 0.1298504
000050 6c 03 c5 bd b0 3b 94 3d 02 f5 a0 3e b8 f2 2d 3e
       -0.09619793 0.07237947 0.31436926 0.16987121
000060 17 53 b6 bd 04 97 61 be 3e 7c 36 bd d4 10 36 be
       -0.08902567 -0.22030264 -0.04455208 -0.17779857
000070 0a 4d 04 3e 1e 95 5c be ff 6a 29 3e af ff f4 bd
       0.12920013 -0.21541259 0.16544722 -0.1196283
000080 32 20 85 3e f0 18 53 3d 40 1e 39 3e 52 53 0b 3e
       0.26001126 0.051537454 0.18077946 0.13606003
000090 27 2c 98 3d 6a 2a d3 bd c9 6d 82 3e c1 af 40 3e
       0.074302964 -0.10310824 0.25474384 0.18817045
0000a0 3a af 67 3e 9f a7 88 3e 7c 57 99 bd 4d 99 d4 3c
       0.22625437 0.26690385 -0.074873894 0.025952006
0000b0 c2 c3 c4 bd 23 7f 6d 3e 60 69 1c 3d f0 31 18 3e
       -0.0960765 0.2319303 0.03818643 0.148628
0000c0 74 be 85 be c0 99 af 3c 38 14 6d 3e e3 93 55 3e
       -0.26121867 0.021435618 0.23152244 0.20857196
0000d0 be 2d 2a be eb cd 7e 3d 71 79 a3 3d bc f3 c0 bd
       -0.16619012 0.062208097 0.079821475 -0.09421489
0000e0 22 41 5a 3e 13 22 24 be 57 5c 99 be 3d fb 80 3e
       0.21313909 -0.16028623 -0.29953262 0.2519168
0000f0 b5 84 d5 3d e7 af ac bc 0d 50 57 3e bf b1 8f be
       0.104257025 -0.02107997 0.2102663 -0.28065297
000100 00 97 f8 3b 06 1e 12 be de 32 8c be e6 61 8c 3d
       0.00758636 -0.14269266 -0.2738256 0.0685461
000110 7a 1a 80 be 7c 71 96 3e 63 a4 8b be 1b 91 cf bd
       -0.250202 0.29383457 -0.27273855 -0.101350985
000120 25 de f5 3c dd 2b e5 bd eb cd af bd e7 6f 2a 3d
       0.030013153 -0.11190007 -0.085841976 0.041610625
000130 44 26 ba 3d 7f 0f 85 3e 64 e6 c7 3c 9e 28 68 3e
       0.0908933 0.25988385 0.024401851 0.22671744
000140 4e cf f6 bc ea 75 4c bd a1 89 9f 3e 39 aa 1f be
       -0.030128147 -0.04991714 0.3115969 -0.15592279
000150 5e 11 72 bd 26 a2 59 3e 3a 18 5a be 65 d2 d0 3b
       -0.059098594 0.21253261 -0.21298304 0.006372737
000160 a3 5c a9 3e d1 68 1e 3e 27 64 49 be d8 7d b9 3d
       0.3307849 0.15469672 -0.19667111 0.09057206
000170 26 4d 71 be 2a 5d 8a bd 53 75 60 bd 02 76 29 3e
       -0.23564586 -0.06756051 -0.05479939 0.16548923
000180 9e 13 9b be 40 37 32 be 19 21 01 be e6 96 2d be
       -0.30288404 -0.17403889 -0.12610282 -0.16952094
000190 66 c8 75 3c f8 b5 ca 3e 60 b0 87 3e 7f 9c 4c be
       0.015001392 0.39591956 0.2650175 -0.19981574
0001a0 3d f0 bc 3d e4 0b fd bd c1 b1 33 3b 39 82 46 3e
       0.09225509 -0.123557836 0.0027419182 0.19385614
0001b0 fc 49 65 3e 46 ee 9b 3b ec 8a 5d 3e d6 0a 85 3e
       0.22391504 0.004758629 0.21635026 0.2598483
0001c0 fc 99 bd 3e 1d 0b 61 3e b1 1b 42 be ef a9 bc 3e
       0.37031543 0.21976896 -0.18955876 0.368484
0001d0 b1 64 06 be 6d d4 fd 3d 1e 53 84 bd 5e 5b 85 3e
       -0.13124348 0.123940326 -0.06461166 0.2604627
0001e0 c0 16 9e 3e f8 47 0f be 68 f7 fd bd ce a0 f7 bd
       0.30876732 -0.13992298 -0.124007046 -0.12091218
0001f0 5f 12 22 3e 02 3a 42 be 6a 97 3b be 6f d9 03 3e
       0.1582732 -0.1896744 -0.18319479 0.12875913
000200 3a 70 58 3e 4a be 5b be fc 74 36 be 7c 6c 00 be
       0.21136561 -0.21459308 -0.17818063 -0.12541384
000210 41 14 ae bd 39 74 78 bd 33 6d a3 3d d2 39 3e 3e
       -0.08499957 -0.060657714 0.079798125 0.18576744
000220 dd 36 21 3e de de 83 3e 94 e3 49 3e 30 e2 21 be
       0.15743585 0.25755972 0.1971572 -0.1580894
000230 1b d9 86 3e 60 dd 64 3e 02 98 b8 3e 86 e8 77 3e
       0.26337513 0.22350073 0.36053473 0.24209794
000240 cd fd aa be 1e 56 40 be 70 da 50 3e 95 03 66 be
       -0.3339676 -0.18782851 0.20395827 -0.22462304
000250 b5 32 26 3e de e2 62 3d d6 6e 5c be 28 7b 33 bd
       0.1623028 0.05539214 -0.21526656 -0.043818623
000260 78 86 8d be 56 67 7d be 7b 25 83 3e c6 25 d7 bd
       -0.27641654 -0.24746451 0.25614533 -0.105052516
000270 13 b8 65 3e ef 9c a4 be 56 a3 01 3e b0 e0 47 be
       0.224335 -0.3215098 0.12659964 -0.19519305
000280 60 fb a0 3d 1b 64 35 be 21 06 7b be ff 18 e0 bd
       0.07860446 -0.17713968 -0.24514057 -0.109422676
000290 d5 9a 2f be af 75 03 be 51 bf 89 be 33 3e 86 bd
       -0.17148907 -0.12837861 -0.26903775 -0.06554832
0002a0 19 75 66 be 1c ab de 3d 93 50 0d 3e 1c e2 99 3c
       -0.22505607 0.1087248 0.13800268 0.018784575
0002b0 d8 7a 97 3d 83 92 ed bd f1 9d 9e 3d bc 78 4d 3d
       0.073964775 -0.116002105 0.07744969 0.05016397
0002c0 64 49 67 3e b2 22 3c 3e c5 55 78 3e 22 6b 4a 3e
       0.2258659 0.1837261 0.24251468 0.1976743
0002d0 d2 a6 84 be 42 c8 87 3e 0d b5 8e 3e 2a 40 49 bc
       -0.25908524 0.26519972 0.27872506 -0.012283364
0002e0 99 39 8b be b8 52 1a be cf 1d 1b be 4d 16 2f bb
       -0.2719238 -0.15070617 -0.1514809 -0.0026716173
0002f0 06 1c 50 be 89 ff 88 be a9 3f 10 3e a3 6f 66 3c
       -0.2032319 -0.26757458 0.14086784 0.014064702
000300 84 e0 09 bd c0 a1 21 be 4d c0 cf 3d 9f 4a 4e bd
       -0.03366138 -0.15784359 0.101441 -0.050364133
000310 df 97 2f 3e e0 bd 57 be a2 66 1a bd 9c 84 28 3e
       0.17147778 -0.21068525 -0.037695535 0.16456836
000320 7c 55 b3 bd 96 71 5e be 17 8d 9e bd e1 5f fb bd
       -0.08756539 -0.21723017 -0.077417545 -0.12274147
000330 34 59 a8 3d 29 34 8c be 58 77 20 be 72 a5 89 3e
       0.08220139 -0.27383545 -0.15670526 0.26884037
000340 d4 26 9e be 7e 7a 44 bd 77 e7 9d be ba 8e 30 be
       -0.30888999 -0.04796838 -0.30840656 -0.17241946
000350 89 e5 89 3e cc 8f 93 3e 45 1d c7 bd a7 07 88 bc
       0.26932934 0.28820646 -0.097223796 -0.016605211
000360 02 49 90 be b8 c1 5b 3e a0 80 07 3e f8 2f 82 3e
       -0.281807 0.21460617 0.1323266 0.25427222
000370 de a5 29 3e 76 36 4f bd ab 07 f7 bc 40 50 d3 bc
       0.1656718 -0.050589047 -0.030155024 -0.025795102
000380 92 c5 a5 be f8 81 34 3e 1c 9e f5 bc 86 eb ba be
       -0.32377297 0.17627704 -0.029982619 -0.36507815
000390 97 5d a2 bd 58 d0 a1 be 80 42 8a be 41 b4 8f 3d
       -0.07928007 -0.31604266 -0.2700386 0.070168026
0003a0 88 dc 33 be 5f f2 3b 3e e6 4e 93 3e 08 8c a9 be
       -0.17564595 0.18354176 0.28771132 -0.33114648
0003b0 53 22 0a 3e 4e 34 3b be af 80 ba 3d eb 6b 34 3d
       0.13489656 -0.18281671 0.09106576 0.04404823
0003c0 74 71 7b 3e a7 14 95 3e dd 1a 76 be f8 0b 8b be
       0.24554998 0.2911732 -0.24033685 -0.2715757
0003d0 87 25 d2 bd d3 91 99 3d 1e 69 1b 3a e5 00 5b 3c
       -0.10261064 0.07498517 0.00059284444 0.0133669125
0003e0 23 3c 71 3d 29 67 ce 3d 5a e0 0e 3d b0 7e 0b be
       0.05889524 0.1007827 0.034881927 -0.13622546
0003f0 d6 ea a7 3d 00 1d 0a 3c 30 9a 01 be 2b 94 50 bd
       0.08199088 0.008429766 -0.12656474 -0.050922554

encoder.0.bias f4 [32]
000000 c2 65 89 3e b4 87 8d be da 4e 1b be 55 96 2e 3e
       0.26835448 -0.27642596 -0.15166798 0.17049535
000010 e6 b8 6b 3e a6 f9 68 be e3 c8 34 be fa 4a a8 be
       0.23019752 -0.22751483 -0.17654757 -0.32869703
000020 21 3d b6 bd d5 71 de 3d eb 93 3b 3d a0 1d 36 3d
       -0.08898378 0.108615555 0.045795362 0.044461846
000030 3f 99 08 3c e7 71 42 3e aa 2e a6 3c 17 44 32 3e
       0.008337318 0.18988763 0.020285923 0.17408787
000040 45 29 5e 3d 20 21 73 be a0 c2 49 bd 77 21 fb bd
       0.054238576 -0.23743105 -0.049257874 -0.12262242
000050 d5 01 69 3d c9 3f 5e 3e 6d 85 aa 3e c2 04 8c bd
       0.056886513 0.2170402 0.3330492 -0.06836845
000060 76 88 72 be 34 30 ac 3d cd f6 5a be 90 d7 4b 3e
       -0.23684868 0.084076315 -0.2138321 0.1990645
000070 fb be 4c be 72 4b 37 3e a9 8e 2d be 05 18 ce 3d
       -0.19994728 0.17899874 -0.16948952 0.10063175

encoder.2.weight f4 [32]
000000 b3 1d 5e 3f 00 00 80 3f a9 df 7d 3f 12 10 73 3f
       0.8676407 1.0 0.99169403 0.94946396
000010 ab c1 6d 3f 00 00 80 3f b6 4d 7c 3f 00 00 80 3f
       0.9287364 1.0 0.9855608 1.0
000020 80 52 76 3f 3f 96 66 3f ca a5 7e 3f 04 8f 55 3f
       0.96219635 0.9007301 0.99471724 0.8342135
000030 6f 45 6f 3f 2c f9 58 3f da 3b 6d 3f 30 9a 67 3f
       0.9346532 0.84755206 0.9266945 0.90469646
000040 28 8b 78 3f 00 00 80 3f 58 d6 7d 3f 87 19 82 3f
       0.97087336 1.0 0.9915519 1.016404
000050 95 e5 6b 3f 92 a2 6d 3f 09 4d 65 3f 52 3d 69 3f
       0.9214719 0.9282619 0.8957067 0.9110919
000060 00 00 80 3f 5c ea 61 3f d8 eb 7d 3f 1b b7 60 3f
       1.0 0.8824823 0.99187994 0.87779397
000070 00 00 80 3f 10 08 7a 3f cd 17 7a 3f c7 fc 85 3f
       1.0 0.9766855 0.9769257 1.0467767

encoder.2.bias f4 [32]
000000 99 2d 8b 3d 3b c0 37 3e 08 2b 34 3e a2 f0 ed bd
       0.067958064 0.17944424 0.1759454 -0.11618163
000010 34 67 91 bc 97 b0 34 be bb 10 2e be 9c 54 38 3e
       -0.017749406 -0.17645489 -0.1699857 0.18001026
000020 54 8f 07 3e 64 a6 d1 bd c3 49 13 3e 52 70 4f 3c
       0.13238269 -0.102368146 0.14383607 0.012661057
000030 e5 54 7b bd 31 6d 34 3d b0 d6 a2 3d 91 cd 94 bc
       -0.06136026 0.044049446 0.07951105 -0.018164428
000040 7b 82 ea 3d 0a 11 3b be 6a 16 2d be 1a af a8 3d
       0.114506684 -0.18268219 -0.16903082 0.08236523
000050 09 d0 a7 3d 17 ec e1 bc 7f 36 d6 3d 33 de f9 bc
       0.081939764 -0.027578397 0.10459613 -0.03050146
000060 c4 17 3b be f1 51 05 3e 9c 69 46 3e 58 1c e0 3b
       -0.18270785 0.1301954 0.19376224 0.0068393163
000070 c5 63 3e 3e 12 83 b5 bd d4 eb 2b 3e 91 c9 ce 3d
       0.18592747 -0.0886289 0.1678918 0.100970395

encoder.2.running_mean f4 [32]
000000 5a 86 88 3e 00 00 00 00 04 00 00 00 4f e2 2f 3e
       0.26665002 0.0 6e-45 0.17176174
000010 69 07 6e 3e 00 00 00 00 58 8c fc 30 00 00 00 00
       0.23245014 0.0 1.8375301e-09 0.0
000020 14 ba 26 35 d1 c7 e1 3d bd 48 31 3d 84 f0 3b 3d
       6.21106e-07 0.1102444 0.04328226 0.04588367
000030 92 dd 4a 3c c6 2b 43 3e a6 37 9f 3c b9 97 37 3e
       0.012381928 0.19059667 0.019435715 0.17928971
000040 b3 8f 54 3d 00 00 00 00 04 00 00 00 51 99 7c 36
       0.051894855 0.0 6e-45 3.7640168e-06
000050 81 f7 62 3d 97 61 5d 3e fd 64 a9 3e 9e 43 c6 34
       0.05541182 0.21619259 0.3308486 3.6929572e-07
000060 00 00 00 00 c5 67 a7 3d 04 00 00 00 22 2f 4b 3e
       0.0 0.08174089 6e-45 0.19842198
000070 00 00 00 00 99 fe 39 3e 03 98 a2 35 e0 4a c9 3d
       0.0 0.18163528 1.2114182e-06 0.098287344

encoder.2.running_var f4 [32]
000000 fa 77 4e 38 04 00 00 00 04 00 00 00 4d f7 df 37
       4.9225964e-05 6e-45 6e-45 2.669883e-05
000010 65 cf 76 38 04 00 00 00 ad 7b 15 2d 04 00 00 00
       5.884412e-05 6e-45 8.497131e-12 6e-45
000020 6a b2 47 32 41 48 77 38 68 96 4d 38 0c f2 39 38
       1.1623891e-08 5.895668e-05 4.9015885e-05 4.433286e-05
000030 ee fb 35 39 26 a6 bd 37 e6 00 60 37 f5 8d 77 39
       0.00017355356 2.2607925e-05 1.335165e-05 0.00023608639
000040 5c a2 75 38 04 00 00 00 04 00 00 00 94 5e f2 33
       5.856376e-05 6e-45 6e-45 1.1286207e-07
000050 b8 11 15 38 3d 74 93 37 6f 65 59 38 54 22 07 32
       3.554087e-05 1.7577893e-05 5.18313e-05 7.8658395e-09
000060 04 00 00 00 c7 af 9e 38 04 00 00 00 b9 36 3e 37
       6e-45 7.566768e-05 6e-45 1.1337624e-05
000070 04 00 00 00 3a 28 a9 38 20 47 40 33 19 6d 65 38
       6e-45 8.066041e-05 4.476817e-08 5.469946e-05

encoder.3.weight f4 [64, 32, 3, 3]
000000 91 77 09 3c b2 62 8d 3c 80 9b cf bc 53 8b 06 bc
       0.008390323 0.017258976 -0.025342703 -0.008211928
000010 1c 7f 9d 3d 84 c3 fb bc 63 e3 87 bb 10 5d 25 3d
       0.0769026 -0.030732878 -0.0041469797 0.040371954
000020 61 76 81 bc 8f 93 a1 bd 8c 97 07 be 38 16 2c be
       -0.015803518 -0.07889473 -0.13241404 -0.16805351
000030 d3 3c 36 be e3 2f f3 bd 5c 4d 3e be 8d e6 37 be
       -0.1779664 -0.11874368 -0.18584198 -0.17959042
000040 c1 b1 0a be cc 86 09 be 96 af 00 be 97 50 29 be
       -0.1354437 -0.13430327 -0.1256698 -0.16534649
000050 bb 3b 23 be 6a 01 d6 bd 97 52 09 be e7 f3 43 be
       -0.15940754 -0.104494885 -0.13410412 -0.1913601
000060 c0 24 3e be 3f 01 0b be 51 3f e8 bd 23 70 1b bd
       -0.18568707 -0.13574694 -0.11340202 -0.03794874
000070 77 03 78 3b 03 0b c8 bc 64 6d da bb ba 6b 9c 3b
       0.0037843862 -0.024419313 -0.0066658724 0.004773584
000080 76 a2 61 bc 8a 24 5e 3d 75 64 82 bd eb 5c 0e 3d
       -0.013771644 0.054234065 -0.06366817 0.034756582
000090 57 14 c1 bc 88 f6 ea 3b e6 86 18 bd 99 1b 66 bd
       -0.02356927 0.007170502 -0.037238024 -0.056178663
0000a0 25 eb 92 bd 05 73 30 bd 12 f0 aa 3a fa ca 15 bc
       -0.071737565 -0.04307844 0.0013041517 -0.009142632
0000b0 ec 6f 3f bb 39 10 fe 3d 3b 43 18 3e e7 36 21 3e
       -0.0029210998 0.12405438 0.14869396 0.157436
0000c0 a8 27 00 3e bb ba 10 3e de c8 16 3e 05 9c 0b 3e
       0.12515128 0.14133732 0.14725062 0.13633735
0000d0 6c 23 9d 3d 9d 8d ee 3d f8 57 16 3e 7b 96 e7 3d
       0.07672772 0.11648104 0.14681995 0.11307999
0000e0 26 9f 3d 3e 29 ce ca 3d af 2e a2 3d 86 05 58 3d
       0.18517742 0.09902603 0.079190604 0.052739643
0000f0 40 6a 02 3e 0b e5 8a 3d 8b aa a5 3d 3d 60 df bd
       0.12735844 0.06781968 0.08089169 -0.10907028
000100 e2 3e e6 bd d4 b7 34 be bd 95 f2 bd 92 7c 22 be
       -0.11242463 -0.1764825 -0.118449666 -0.15867832
000110 4d 36 d4 bd 08 eb b7 bd 22 09 df bd f1 b9 2f be
       -0.103619196 -0.089803755 -0.10890414 -0.17160775
000120 d4 1e f9 bc 3e ad 9a bc 74 be 95 bd cc f3 a2 bd
       -0.030410208 -0.018881436 -0.07311717 -0.07956657
000130 4c c6 6a bd 09 04 95 bd fb bc 87 bd 55 0e 2f 3b
       -0.057318017 -0.0727616 -0.06627842 0.0026711423
000140 8d eb 4d bc 1f 16 91 3d fc 7b 58 bd e7 ed 5b bd
       -0.012568367 0.070842974 -0.052852616 -0.05369368
000150 ae cf 6e 3d f5 7d 17 3d 48 ee 4c bd 1f 3b 32 3d
       0.058303528 0.036985356 -0.05003193 0.043513414
000160 c0 56 83 3c 49 9d 47 3c e4 3a 59 3a 98 7c 50 bc
       0.016032577 0.012183496 0.00082866685 -0.012725018
000170 7d 1b 8b 3c 39 0f 12 3c 9e 11 41 3d 0a f4 0f bd
       0.01698088 0.008914762 0.04713594 -0.035144843
000180 78 f2 3f bd 5a b6 ff bc f6 b6 2e 3d 4a 41 d7 bb
       -0.046862096 -0.031214882 0.042654954 -0.0065690624
000190 8e c0 5b bd dc 97 57 3d 52 ac a6 bc 0b 54 52 bd
       -0.05365043 0.05263506 -0.02034584 -0.05134968
0001a0 0a fb d5 bc f4 74 b6 bc 91 cb f7 3c 1e 34 07 3d
       -0.026120681 -0.022272564 0.030248435 0.033008687
0001b0 7b cf ec 3c 6d a7 1c 3d fa 62 cf bc e2 91 89 3c
       0.028907528 0.038245607 -0.02531575 0.016793195
0001c0 15 3f a1 bd 88 d4 ef bc f6 81 4e bd 40 99 3b 3b
       -0.0787336 -0.029276147 -0.05041691 0.002862528
0001d0 49 5e 14 bd 7f 94 44 bd 98 10 2d 3c cd ef ce 3c
       -0.03622273 -0.04799318 0.010563038 0.02526083
0001e0 ba 78 14 3d 33 35 c1 3c 90 76 ec bc be 91 d1 3c
       0.036247946 0.023584938 -0.028865129 0.02558219
0001f0 3c 0f 1e 3c ac 8b 8f bd 7c 2a 89 bc 2d ae 76 bc
       0.009647187 -0.07009062 -0.016743891 -0.015056175
000200 a3 af 25 bd 88 9e 14 bc e7 ec b6 bc 93 34 f3 3c
       -0.040450703 -0.009071 -0.02232976 0.029688155
000210 91 ff 43 3d 89 56 e9 bc 5e 1e 32 bc fd 68 9a 3c
       0.04785115 -0.028483646 -0.010871498 0.01884889
000220 90 ed 6a bd 51 f4 13 bd 59 8a ab bb 2a ac 41 bd
       -0.057355464 -0.03612167 -0.005234998 -0.04728333
000230 85 37 4b bc 43 f5 26 bd 8e 39 58 bd 39 42 cf 3c
       -0.012403374 -0.040761244 -0.052789263 0.025300132
000240 26 59 2c bd fb c0 8a bc 47 f3 7d bd 47 f6 d3 bc
       -0.042077206 -0.016937723 -0.061999585 -0.02587427
000250 8a df b2 3c e2 e0 2b 3d b2 8a d9 ba c7 22 d8 bc
       0.021835107 0.04196251 -0.001659712 -0.02638377
000260 65 fd 99 3b 1e 79 ad 3d 88 13 3b 3e f7 a5 f5 3d
       0.0046993964 0.08470367 0.1826917 0.11994546
000270 42 96 e2 3d ab 3b 9d 3d 17 07 e1 3d 0e 04 01 3e
       0.11063816 0.076773964 0.109876804 0.12599203
000280 6b de 16 3e ec 2e e6 3d 8c a1 3d 3e 85 a8 36 3e
       0.14733283 0.112394184 0.18518656 0.17837723
000290 63 b0 05 3e 6d c8 0b 3e 77 b4 c0 3d bb f3 8a 3d
       0.13055567 0.13650675 0.09409421 0.06784769
0002a0 1b 00 e1 3d 0c ed c7 3d 5f 74 10 3e 9c 5d 8d bd
       0.10986348 0.0976201 0.14106892 -0.0690262
0002b0 cb c7 1b bd be ca aa bd c4 b0 59 bd 82 f3 52 bd
       -0.038032334 -0.08339451 -0.053147092 -0.05150176
0002c0 cc 24 84 bc 67 d5 62 bd dd 16 ab bd a0 0f 96 bc
       -0.016130827 -0.055379298 -0.0835397 -0.018317997
0002d0 78 38 94 3c cc 3f 0b 3d a8 e2 db 39 f7 51 c6 bc
       0.018093333 0.03399639 0.00041939807 -0.024209006
0002e0 81 26 f2 3c 5d 76 12 bd 00 23 de bc aa 86 41 3d
       0.029559376 -0.03575741 -0.027116299 0.047247566
0002f0 3a a0 c5 3c 50 33 ac 3a 7f a7 44 3d 71 06 0d bd
       0.024124254 0.0013137851 0.0480113 -0.03442997
000300 89 27 5d 3d 87 21 35 bc 4f 59 11 bc 6d 70 0f bd
       0.05399278 -0.011055357 -0.0088713905 -0.035019327
000310 6d a6 b9 bb ff 64 05 3c 2b c9 5e 3d 0e 5c 03 bd
       -0.0056655915 0.008141755 0.054391067 -0.032070212
000320 32 f9 b9 3c 3c 49 1c 3d 83 b7 88 3d e7 c7 90 3c
       0.022701833 0.03815578 0.06675627 0.017673446
000330 bf 55 8a bc b4 aa ca b9 b9 6c 1c bc 30 72 90 bb
       -0.01688659 -0.00038655626 -0.009547406 -0.0044081435
000340 60 50 7e bc 2e bf eb 3c ef 8a 0a 3d 11 72 e7 3c
       -0.015522093 0.028777685 0.033823904 0.028252633
000350 33 f0 ab 3b 8c 2b 08 bd fd a4 12 bd 30 89 91 3b
       0.00524714 -0.033244655 -0.035801876 0.004441403
000360 5e 97 1a 3e 48 0f 2d 3e a2 f4 c4 3d ef 49 c7 3d
       0.15096804 0.1690036 0.096169725 0.097308986
000370 88 f4 04 3e 1d db af 3d 88 ce 2b 3e 69 b8 38 3e
       0.12983906 0.085867144 0.16778004 0.18039097
000380 da 7c 2c 3e db 47 96 3c b5 44 02 bd 6a 28 88 bc
       0.16844502 0.01834481 -0.031803805 -0.016620833
000390 38 6f 66 3d b9 9c a6 bc 3a 6e 2e 3d ff 43 05 3c
       0.05625841 -0.020338403 0.04258559 0.008133887
0003a0 9f 2c f2 3c 34 34 16 3d 75 7c 23 be 99 3b e4 bd
       0.029562293 0.03667088 -0.15965445 -0.1114418
0003b0 c3 65 dc bd 3b dd c0 bd 72 49 96 bd 10 75 c5 bd
       -0.10761597 -0.09417196 -0.07338227 -0.096414685
0003c0 a6 90 14 be e4 c4 32 be 4d e8 e0 bd 8a be 03 3d
       -0.14508304 -0.1745792 -0.10981808 0.032164134
0003d0 89 2d bb 3b 09 6b e9 3c 51 90 03 3d 64 f1 9e bc
       0.0057122153 0.028493421 0.032120053 -0.019402213
0003e0 5a f7 2e 3b cd 8b 8a 3d 6f ed d1 3c e0 8c c9 3c
       0.0026697726 0.06764946 0.025625912 0.024603307
0003f0 f3 04 0d be ed 9c f3 bd f0 45 ba bd 19 4c 1a be
       -0.13771419 -0.118951656 -0.09095371 -0.15068091

encoder.3.bias f4 [64]
000000 1b a4 32 bd 07 70 38 be 5d 74 96 bd 51 3b ba bd
       -0.043613534 -0.18011485 -0.07346413 -0.09093345
000010 65 38 4f 3d 94 85 e3 bc 8d cb 2e 3d 6d ec 17 be
       0.05059089 -0.027773656 0.04267459 -0.14836283
000020 f6 c5 59 bd cb 0d 96 bd 20 b9 67 3c 3f 84 06 ba
       -0.053167306 -0.073268496 0.014143258 -0.00051314005
000030 36 16 9a bd de 42 9c bd 07 55 f4 bd 8b 7a 0b 3d
       -0.07523768 -0.076299414 -0.1193028 0.034052413
000040 61 01 c2 bd 0e b1 e3 bd ea b5 d1 bd 59 e5 f3 bc
       -0.09472919 -0.11117755 -0.102397755 -0.029772447
000050 ee 04 a9 3d 25 01 bb bc d1 22 e8 3d 53 c0 79 3c
       0.082528934 -0.022827694 0.11334766 0.015243608
000060 3b ac c3 bd 19 9d 79 bd 16 b8 d2 3d c6 b7 89 bd
       -0.09554335 -0.060940836 0.10289018 -0.06724505
000070 e0 3a d7 3c 9d 66 36 3d e7 3b 16 be 86 d5 ca bc
       0.026273191 0.044531453 -0.14671288 -0.024760019
000080 92 13 8a bd dc 64 06 bd 70 c2 93 bd a4 fd ce 3d
       -0.06742014 -0.03281103 -0.072148204 0.10106972
000090 4b fa 9c bd bf 0e 2a bd 9c e7 97 bc f6 81 0e be
       -0.07664927 -0.04151797 -0.018543057 -0.13916764
0000a0 87 87 88 bd 03 6d 00 be fb 34 8f bd 58 80 d8 3d
       -0.06666475 -0.12541585 -0.06992527 0.10571355
0000b0 5b 7e 03 be 45 8d b2 bc e6 8e 98 bd 20 54 04 bc
       -0.1284117 -0.021795878 -0.07449131 -0.008076698
0000c0 13 84 48 bd 70 90 d8 bd ef 01 ec bd 63 83 c3 3c
       -0.04895408 -0.10574424 -0.11523806 0.023866361
0000d0 b1 50 bc 3d 2a bf 12 bc 80 67 67 3d 17 cf 52 bd
       0.09195078 -0.00895671 0.05649519 -0.051467028
0000e0 d3 8a 9f bd 54 7b 90 bc b3 3a f8 bd cb d5 de bd
       -0.077901505 -0.017636932 -0.12120571 -0.108806215
0000f0 9a cb 74 bc 97 ff 72 bc e9 1d 3a bd db f4 11 bd
       -0.0149411205 -0.014831445 -0.04543868 -0.035633903

encoder.5.weight f4 [64]
000000 e8 5e 75 3f 8c 62 82 3f 01 8e 6b 3f 27 53 81 3f
       0.9584794 1.0186324 0.92013556 1.0103501
000010 b2 80 80 3f fe 2c 84 3f 1d 43 81 3f ce e6 75 3f
       1.0039275 1.032623 1.0098606 0.96055305
000020 94 1d 84 3f 68 55 6e 3f 3a 3c 76 3f 67 31 66 3f
       1.0321527 0.9309907 0.9618565 0.8991913
000030 e5 35 66 3f 38 85 73 3f e4 5e 6c 3f 9b 9d 6f 3f
       0.89925987 0.9512515 0.9233229 0.9359986
000040 16 1c 6e 3f 92 69 7c 3f 84 b6 75 3f cb e6 77 3f
       0.93011606 0.9859859 0.9598162 0.9683654
000050 c1 07 7f 3f f9 ea 78 3f c6 5d 7e 3f 9b cd 70 3f
       0.99621207 0.9723354 0.99361837 0.9406373
000060 43 44 6e 3f 2d 7c 61 3f ae e6 81 3f 35 bd 7e 3f
       0.9307291 0.880801 1.0148523 0.99507457
000070 f7 62 68 3f e6 97 6b 3f b2 48 6f 3f a5 10 71 3f
       0.9077601 0.92028654 0.934703 0.9416602
000080 82 7b 7c 3f 4a 79 6c 3f e9 72 7b 3f 93 85 87 3f
       0.9862596 0.9237257 0.98222214 1.0587639
000090 e3 99 6c 3f 50 77 78 3f 66 f8 6f 3f 00 42 77 3f
       0.9242231 0.97057056 0.937384 0.96585083
0000a0 59 0e 6e 3f c4 ad 66 3f 5a 0a 68 3f c3 c6 6f 3f
       0.9299064 0.90108895 0.90640795 0.9366266
0000b0 fb c8 6f 3f 3f 62 69 3f f6 b6 6a 3f 9b 5d 61 3f
       0.93666047 0.91165537 0.91685426 0.88033456
0000c0 7e ad 6a 3f c6 ed 62 3f 4f 9e 59 3f 8a a7 61 3f
       0.9167098 0.88644063 0.85007185 0.8814627
0000d0 1d db 7c 3f 7b 39 76 3f f3 d4 74 3f e0 b9 81 3f
       0.9877184 0.9618146 0.95637435 1.013485
0000e0 16 3c 69 3f b0 b0 5f 3f 4f 68 80 3f e5 09 82 3f
       0.9110731 0.8737898 1.0031832 1.015927
0000f0 f6 22 68 3f b7 b6 77 3f 56 a4 70 3f 96 5f 5c 3f
       0.90678346 0.96763176 0.94000757 0.8608335

encoder.5.bias f4 [64]
000000 ac 52 5d be 8c ae 84 be f0 9e 0f be 48 52 1d be
       -0.21613568 -0.2591442 -0.14025474 -0.15363419
000010 9f 22 81 be 0c 64 de bd 2e 28 74 be 6f b3 b7 bd
       -0.25221726 -0.10858926 -0.23843452 -0.08969771
000020 59 aa 80 bd 65 93 b9 3a 3b 5c 00 be a8 07 cf bd
       -0.06282491 0.0014158307 -0.12535183 -0.10108882
000030 e3 d5 03 be 9f 8c a3 bc 9e 6e 1a be 96 2c 33 be
       -0.1287456 -0.019964514 -0.1508126 -0.17497477
000040 1d 4f 72 bd 40 13 b1 bd a5 db 9a bd 91 aa fc bd
       -0.05915748 -0.0864625 -0.07561425 -0.123372205
000050 39 33 22 be 5b 96 c5 bd 4e 08 82 be 05 dc b2 bd
       -0.15839852 -0.09647819 -0.2539696 -0.08733372
000060 df 27 ea bd f7 14 8e bd b9 4e 80 be d9 87 63 3e
       -0.11433386 -0.069375925 -0.2506006 0.2221979
000070 c9 ed 9d bd 82 f4 36 be 66 71 dd bd d3 c1 e8 bd
       -0.077113695 -0.1786671 -0.10812645 -0.11365094
000080 ab 4e 11 be 67 c7 df bd 07 7c d1 bd 7d d6 72 bd
       -0.14190166 -0.10926705 -0.102287345 -0.059286583
000090 56 0c b6 bc fe d5 13 be e8 1c e9 bc 5f 9d ab bd
       -0.02222268 -0.144371 -0.028456166 -0.083796255
0000a0 d6 6e 1b be 55 e9 19 be 5f 56 f8 bd ff 70 75 be
       -0.15179 -0.15030415 -0.12125849 -0.23968886
0000b0 dc 75 21 be e2 45 cc bd f2 b5 73 bd 0b 8c 99 bd
       -0.15767616 -0.099742666 -0.05949969 -0.07497414
0000c0 dc e9 a5 bd c2 1b e1 bd a5 da 11 be 5c 3f 22 bc
       -0.08101246 -0.109916225 -0.14243563 -0.009902801
0000d0 48 d3 34 be 2a 63 27 3e f2 45 65 be e3 f5 a2 bd
       -0.17658722 0.16346422 -0.22389963 -0.079570554
0000e0 65 f9 3b be 57 87 12 be 2e af 23 bd 8a 25 26 be
       -0.18356855 -0.1430944 -0.039961986 -0.16225258
0000f0 91 b8 4c be 36 5c 8a bd 8e 46 cb bd 4f 25 ab bd
       -0.19992281 -0.06755869 -0.099255666 -0.083567254

encoder.5.running_mean f4 [64]
000000 05 25 a4 33 04 00 00 00 46 a5 89 3c 04 00 00 00
       7.643579e-08 6e-45 0.016802441 6e-45
000010 af 72 16 40 98 f4 fa 32 a3 37 ff 3f aa 9c 6d 39
       2.3507497 2.9215059e-08 1.9938854 0.00022660443
000020 16 b9 9e 3c 04 00 00 00 1e 4c 8f 3f 47 9a 5e 3c
       0.019375365 6e-45 1.1195104 0.013586587
000030 2a 27 d3 36 58 9b 8c 3c c2 7b a5 32 35 e0 0b 40
       6.2928493e-06 0.017163917 1.9264807e-08 2.1855595
000040 1f ad f4 32 aa cb 86 3b aa ff 26 3d 3f 1a dd 39
       2.8484065e-08 0.004113634 0.040771164 0.0004217196
000050 ae 5b 1e 40 db e9 00 3d 91 08 09 40 5c e6 02 3c
       2.4743457 0.031473022 2.1411479 0.007989492
000060 04 00 00 00 b8 f4 b3 34 05 ca 0d 40 dd 6f 55 3b
       6e-45 3.3519404e-07 2.2154553 0.0032567896
000070 05 d1 77 3b 13 64 a5 3e 8e f5 58 3a b2 7f aa 37
       0.0037813794 0.32302913 0.00082763366 2.0325042e-05
000080 36 17 f8 18 04 00 00 00 18 da 7b 36 06 80 34 40
       6.4129935e-24 6e-45 3.7528862e-06 2.820314
000090 d9 93 2f 34 04 00 00 00 04 00 00 00 04 00 00 00
       1.6351932e-07 6e-45 6e-45 6e-45
0000a0 4a 52 9f 3c 4a 99 22 32 77 16 ec 33 f9 88 0e 40
       0.019448418 9.464495e-09 1.0993693e-07 2.2271101
0000b0 04 00 00 00 dd da 3e 3c a2 11 03 3e fb 99 bd 33
       6e-45 0.011648861 0.12799695 8.829007e-08
0000c0 34 43 8d 3e ce 63 5e 3b 06 a0 c7 3c dc 3a 0c 3d
       0.27590334 0.0033934 0.024368297 0.03423582
0000d0 5c 84 01 40 9e 6e 33 3c bd 20 22 40 0e dd a8 31
       2.0237036 0.010951666 2.5332482 4.9145745e-09
0000e0 3f 64 e4 35 3e d3 c7 33 f1 9c 73 33 e1 d8 cf 34
       1.7016499e-06 9.305084e-08 5.6720584e-08 3.8714555e-07
0000f0 1b 7d 19 3e 60 35 bb 3f 04 00 00 00 19 60 20 3e
       0.1498913 1.4625664 6e-45 0.15661658

encoder.5.running_var f4 [64]
000000 ec 1e 04 32 04 00 00 00 24 8b 71 3d 04 00 00 00
       7.690442e-09 6e-45 0.058970585 6e-45
000010 3e 9b 99 3e ad a6 2f 31 68 7c cd 3e 45 16 b9 39
       0.30001253 2.5560596e-09 0.40133977 0.00035302542
000020 a8 74 aa 3d 04 00 00 00 e7 1c 25 3f 32 91 0c 3d
       0.08323032 6e-45 0.64497226 0.034318157
000030 ae 49 17 37 05 8f 1a 3d 8d 0c 5b 31 9f 8a c4 3e
       9.017456e-06 0.03773405 3.1875829e-09 0.3838701
000040 38 47 36 32 fa fd 48 3c 6d 41 ce 3d ea b0 21 3a
       1.06099876e-08 0.012267584 0.10071073 0.0006168025
000050 6b eb 0d 3f e5 04 e2 3d 02 24 8f 3e 02 53 c9 3c
       0.55437344 0.1103609 0.2795716 0.024575714
000060 04 00 00 00 0b f5 82 33 33 7c fb 3e 81 72 9f 3b
       6e-45 6.09817e-08 0.49118194 0.004865945
000070 58 10 1e 3c 89 c2 18 3f 49 a7 b4 3a 00 ed 7c 37
       0.009647451 0.5967184 0.0013782765 1.5075551e-05
000080 b5 6e 38 17 04 00 00 00 87 28 40 36 c0 1a a0 3e
       5.959334e-25 6e-45 2.863382e-06 0.3127041
000090 a3 50 2a 33 04 00 00 00 04 00 00 00 04 00 00 00
       3.9654548e-08 6e-45 6e-45 6e-45
0000a0 e2 39 85 3d 0c 72 0f 30 9f 56 e0 31 af 4f 06 3f
       0.06505181 5.218517e-10 6.5291057e-09 0.5246534
0000b0 04 00 00 00 6d f5 04 3d 28 7f 0b 3f b1 90 83 32
       6e-45 0.03246062 0.544909 1.5316205e-08
0000c0 8f 21 c1 3f 71 d9 e3 3b f1 ab 6d 3d cb 8d b8 3d
       1.5088366 0.0069534113 0.058025304 0.0901142
0000d0 95 8e 0e 3f ea 00 a2 3c 6a 06 a4 3e ac 47 4d 2f
       0.5568631 0.019775826 0.32036144 1.8670104e-10
0000e0 58 c5 74 35 88 b4 70 31 ee 85 25 32 5b 66 8a 33
       9.1184256e-07 3.5027217e-09 9.634716e-09 6.444744e-08
0000f0 cc b9 1e 3f 77 2d b4 3e 04 00 00 00 69 f5 26 3f
       0.62002254 0.35190937 6e-45 0.65218216

encoder.6.weight f4 [128, 64, 3, 3]
000000 6b 3c eb bc ff 39 6b bc fe 0b 8a bc 33 50 85 3c
       -0.028715333 -0.014357089 -0.016851421 0.016273594
000010 85 24 42 3d 98 18 72 3d e9 24 39 3d e0 4b 09 3d
       0.04739811 0.059105486 0.045201216 0.033519626
000020 72 7a a7 3c e4 c1 8d bc 84 bc 22 3b 6f e8 59 bc
       0.020444129 -0.017304368 0.0024831602 -0.013300045
000030 29 0d d4 3c 1b ee 20 3d 63 ab d3 3c d1 cc da 3c
       0.025885182 0.039289575 0.02583856 0.026708992
000040 4b 87 37 3d 1a eb 34 3d 1c e9 f5 bc 4c f5 d4 bc
       0.04480676 0.044169523 -0.030018382 -0.025995873
000050 5e 84 73 3c 7a 8c 0d 3d 6d 77 26 3d 3f af 7c bc
       0.014863102 0.034557797 0.040641237 -0.015422641
000060 d5 18 e5 3b 0a c0 77 bc 1b a9 7a 3c a5 c7 94 3c
       0.0069914856 -0.015121469 0.015299107 0.018161604
000070 48 fb c4 bb 08 d2 89 3c af e2 8a bc 71 b3 19 3c
       -0.0060114004 0.016823784 -0.016953794 0.009381161
000080 3f 5e 81 bc c6 2f 3b 3d 4f 27 ec 3c 2b b1 18 3d
       -0.01579201 0.045699857 0.028827338 0.037278336
000090 5c e2 46 3c c4 11 aa 3c 2d 3f b2 ba f1 ef 9d 3c
       0.012138929 0.020760424 -0.001359915 0.019279452
0000a0 fe e2 35 bc 02 2a 48 3d c8 1f 17 3c d6 e1 85 3c
       -0.011101482 0.048868187 0.009223886 0.016343039
0000b0 e7 9b 1d 3c 8e 0d dd 3c 11 55 48 3c 5d 22 a1 bc
       0.00961969 0.026984002 0.012227313 -0.019669706
0000c0 71 17 d5 3c f5 70 67 3d 7f 3c 95 bc 28 dd 45 3d
       0.026012154 0.05650421 -0.018217323 0.048306614
0000d0 4b 26 50 3b 3d 8f f9 3c 0c 90 1f 3b 5c c8 8a bc
       0.0031761106 0.03046381 0.0024347333 -0.016941242
0000e0 f0 48 07 3c 74 14 dc 3c 6d c5 ac 3c b7 e0 df 3c
       0.008257136 0.026865222 0.021090234 0.027328832
0000f0 61 f1 0c bb 2c b0 3a bc 07 0b 2e bc 9a fb c6 bc
       -0.0021506178 -0.011394542 -0.010622746 -0.024289895
000100 8d ac 59 bb 8a 96 a3 bc 86 e7 b9 bc 6a 60 40 3b
       -0.003321442 -0.019969244 -0.022693407 0.0029354342
000110 ec e9 9e bc 4b 9b de bc dc e1 75 bc ea 93 85 bc
       -0.019398652 -0.027173659 -0.015007462 -0.016305882
000120 3b c2 9e b9 02 d9 9a 3b 74 da 2d 3d 98 d2 f3 3c
       -0.0003028082 0.0047255764 0.04244466 0.029763505
000130 8f 74 85 3d 93 c8 df bc 95 70 c5 bb 53 eb 11 bc
       0.065163724 -0.02731732 -0.0060253837 -0.008906203
000140 5e d0 83 bc 08 08 f2 bc a1 67 01 bd 1a 2a 5d bb
       -0.016090568 -0.029544845 -0.03159297 -0.0033747018
000150 8b 98 30 bc 6d 0d db bc 6c bc 0e 3c da 67 54 bc
       -0.010778557 -0.0267398 0.008711915 -0.012964213
000160 2b e9 9e 3c 19 f6 b6 bb bb 0a 43 3c 9d d7 1a 3c
       0.019398293 -0.0055835363 0.011904414 0.00945082
000170 a0 f0 27 bb 68 ef d9 3b 5e 20 00 3d 6e c2 ad 3c
       -0.0025625601 0.006650854 0.031280868 0.021210875
000180 71 69 88 bc b6 91 b7 bc 61 b3 da 3c 0b de 9c 3c
       -0.01665184 -0.022408348 0.026696863 0.019148847
000190 b7 23 c6 bc 71 4b e3 bc f9 25 38 3c 32 bf d6 bc
       -0.024186952 -0.027745934 0.011239522 -0.026214216
0001a0 6c 8e 08 3d 0e dd df 3c 3c 0e 01 3d e2 c6 18 bd
       0.03333895 0.027327087 0.031507716 -0.037299044
0001b0 e6 40 2f 3c 20 9e 05 bb c4 27 e4 3c b3 79 f6 3c
       0.010696625 -0.002038844 0.027850993 0.030087328
0001c0 99 c2 e8 3b ca 9c 13 3a 03 c0 0f 3d 05 db 1d bc
       0.007103276 0.00056309684 0.035095226 -0.009634738
0001d0 0b f0 d9 bc 71 7e ef 3a 13 28 53 3c 39 98 d1 3c
       -0.02660372 0.0018271935 0.012887972 0.02558528
0001e0 ce d5 44 3c ae ae f8 bc 08 fa af 3c 1f 6b b7 3c
       0.012013866 -0.030356731 0.021481529 0.022389947
0001f0 89 5f fa 3b 81 4d 7c bc 80 00 7f bc 03 86 ec bc
       0.007640783 -0.015399338 -0.015564084 -0.028872496
000200 97 97 f3 3c bd ee 2f bc 25 64 d8 3a be f2 e7 ba
       0.02973537 -0.010738072 0.0016509338 -0.0017696244
000210 1b df d6 3c da 2f 4a bc df 58 02 bc dd 23 49 3d
       0.026229432 -0.01234051 -0.007955759 0.049106468
000220 2f eb 26 3d 85 c7 8d 3c e7 33 8d 38 fe 36 3a 3d
       0.040751632 0.017307052 6.7330715e-05 0.0454626
000230 b6 67 27 bc d7 0a f0 36 7d a3 28 3c 76 58 26 bc
       -0.010217598 7.1538193e-06 0.010292885 -0.010152927
000240 20 ae 5e 3c 42 d7 30 bd 91 ad b1 3c 3f f3 b2 3c
       0.013591319 -0.043174036 0.021689208 0.021844504
000250 7f 67 36 3d 1f 7e 06 3d 77 8a 91 bc 75 26 8f 3b
       0.044532295 0.032835122 -0.01776622 0.004368598
000260 dd f8 bb 3b b2 e5 7c bc 9d e9 d3 bc bd 8d 1f 3c
       0.005736454 -0.015435623 -0.025868231 0.009738383
000270 8d dd 74 bb a3 a8 92 3d 7b 6f 36 3c 05 8f cf bc
       -0.00373635 0.07161071 0.011134977 -0.025336752
000280 4e a2 cf 3c 39 9b 5a b9 f6 f9 c8 3b f7 c9 01 3d
       0.025345948 -0.00020847925 0.0061333133 0.03168675
000290 6c 7c 11 bd ac e7 b8 bc ca 78 bd bc 37 bc 8a bc
       -0.03551905 -0.022571407 -0.023128886 -0.016935451
0002a0 dd 1f 3f 3c 19 22 eb 3c 04 9f 34 3c 0a c1 22 bc
       0.011665312 0.028702782 0.01102424 -0.009933719
0002b0 00 61 49 3c dd c4 21 3d 42 65 2a bc 5a 6f 6c 3d
       0.012291193 0.039494384 -0.010400118 0.05772338
0002c0 ac 17 98 bc e6 24 0c 3d 45 9e 65 3c 26 36 84 ba
       -0.018565975 0.034214877 0.014014785 -0.0010086938
0002d0 84 db 06 3d 12 14 81 bb ab 2a 3f 3c 35 39 83 3d
       0.03292419 -0.00393916 0.011667888 0.06407396
0002e0 71 00 79 3c f8 fa e8 3c 4a 89 37 3c 0e 4d 26 3c
       0.015197859 0.028439984 0.011202166 0.010150207
0002f0 60 1a 69 bd 43 66 68 3c 8f c8 9e bc 74 fd 16 3d
       -0.05690992 0.014184537 -0.019382743 0.036862805
000300 1f b6 1a bc 53 e0 bf bc e1 65 c6 3c 7c 3c 27 3d
       -0.009442835 -0.023422396 0.024218502 0.040829167
000310 46 e2 1e 3c 25 c3 ea 3c 04 42 4f 3d 29 71 30 bb
       0.0096975025 0.028657505 0.050600067 -0.0026922917
000320 cf 0e 7b 3c 3c 75 7d 3c 21 b8 db 3a be 83 03 bd
       0.015323355 0.015469845 0.0016763249 -0.03210806
000330 52 ed d8 bc 65 9f 7b b8 ad 41 ec 3c 5b cf 05 bd
       -0.02648035 -5.999151e-05 0.02883991 -0.032668453
000340 bf 08 bb bc 33 3b 6d 3c 6d d6 3a 3c 85 95 82 3b
       -0.022831319 0.014479446 0.011403662 0.0039851093
000350 12 f6 57 bb b8 73 d1 bc f6 3e e9 3c 03 39 07 3d
       -0.0032953066 -0.025567874 0.028472405 0.033013355
000360 42 94 5d bc ed 74 68 3b 52 16 ee bc 7d ef 47 3d
       -0.013524117 0.0035470084 -0.029063378 0.04881238
000370 05 fb 8e 3c 25 03 1c 3d 73 15 22 bc 1e e7 07 3d
       0.01745368 0.038088936 -0.009892809 0.033179395
000380 66 4f 08 3c 6a d0 a4 bc 4c 00 69 bb 6f 1d bc bc
       0.008319711 -0.02011891 -0.0035553155 -0.022963254
000390 1e 87 7f bb 8c ae 17 bd 5f 11 b8 bc b2 78 fc 3b
       -0.0038990448 -0.037031695 -0.02246922 0.0077048177
0003a0 bf 4d 1e bc 67 ca 03 3b fc 83 2f 3d fa bd ab bc
       -0.009662091 0.0020109655 0.04285048 -0.020964611
0003b0 35 81 a5 3b b5 67 f3 bb f3 13 4b 3d 9f b8 45 3d
       0.005050803 -0.0074281343 0.049579572 0.04827177
0003c0 c5 3f 15 bb 8f ae 2a bd 85 99 4a bd e2 fb d2 bc
       -0.0022773605 -0.04167038 -0.049462814 -0.025754873
0003d0 8a df b8 3c c6 cb b2 bc 99 51 2b bc f1 31 00 bc
       0.02256753 -0.021825682 -0.010456466 -0.007824407
0003e0 b1 8d 81 bd de 01 1c bd ee 3a 5a bc 10 38 c4 3b
       -0.063258536 -0.03808772 -0.013319714 0.0059881285
0003f0 e0 a8 18 3d 81 13 ce 3c 82 a2 06 3c 54 38 a2 bc
       0.037270427 0.025155785 0.008217456 -0.01980225

encoder.6.bias f4 [128]
000000 c2 e5 17 bd c2 d9 e8 bd c2 a4 0b be da e0 3f be
       -0.03708435 -0.11369659 -0.13637069 -0.18738118
000010 08 77 b4 bd ed e3 45 3c a9 9f 6b 3c b8 2c b2 bd
       -0.08811766 0.0120782675 0.014381328 -0.08699936
000020 91 76 11 bc 21 a1 b7 bd 6b 9d 11 be 58 63 fe 3c
       -0.008878366 -0.0896628 -0.14220206 0.03105323
000030 ca ea b1 bc fc 48 9c bd 23 22 11 be 43 aa d9 bd
       -0.021718401 -0.07631108 -0.14173178 -0.10628178
000040 b4 96 30 3d 7b a9 6c bd 4e b4 f4 bd 8d b0 ab bd
       0.04311247 -0.057778817 -0.11948453 -0.08383284
000050 93 d4 7e bd b1 a1 09 3b cc c9 47 bd 84 6d 1f bd
       -0.062214445 0.0021000917 -0.048776433 -0.0389228
000060 17 6c 5a 3d 59 da 07 be cc 02 89 bc 98 17 2c bd
       0.05332574 -0.13266887 -0.016724966 -0.04201469
000070 d0 cd ff bd b1 31 2c bd 67 7c a5 bd 4b 70 63 bc
       -0.124904275 -0.042039577 -0.080803685 -0.013881753
000080 a2 43 14 3e 0a 6f 22 bd 29 60 2a be e2 b2 8c bc
       0.14478925 -0.039656676 -0.16638245 -0.017175142
000090 08 62 89 bd 99 b7 f0 3c e3 af 2f be 72 e9 e5 bd
       -0.06708151 0.029384421 -0.17156939 -0.11226167
0000a0 e9 e8 8e bd b5 38 20 bd 6b d0 be bd 5f b9 1e be
       -0.06978018 -0.03911658 -0.09317096 -0.15500401
0000b0 c7 06 05 be fb 93 1c be 56 f6 e6 bd 2e d7 10 be
       -0.12990867 -0.15290825 -0.112774536 -0.14144585
0000c0 0f 7f 5d bd 91 c1 0e 3d b1 22 0c bd ed b0 e6 bd
       -0.05407625 0.034852568 -0.03421277 -0.11264215
0000d0 69 b2 2b 3d 95 d6 b7 3b dd 18 13 3b fe e3 cc bc
       0.041918192 0.005610297 0.002244524 -0.025011059
0000e0 3e d0 e2 3c e4 3e c8 3b 0d 62 86 3d 85 43 90 3b
       0.027687188 0.006111013 0.065616705 0.00440258
0000f0 c2 b5 92 bc 2a 9e 97 bd 3d 94 e9 bc b6 1a dc 3c
       -0.017908935 -0.07403214 -0.028513068 0.026868206
000100 00 07 9c bd a5 88 25 bd aa ee e3 3c ad c1 df bc
       -0.07618523 -0.040413518 0.027823765 -0.027314031
000110 7f d6 8d bc 15 b3 80 bc 6e cf 14 be 2e 43 1a be
       -0.017314194 -0.015710393 -0.14532253 -0.1506469
000120 bf 73 f7 bc 17 19 f4 bc 9a b4 80 bd 6c 49 14 bd
       -0.03020656 -0.02979712 -0.06284447 -0.036202833
000130 e6 de 41 bd f4 8b e0 bc ff 4c 38 be 35 6a e3 bd
       -0.047331713 -0.027410485 -0.17998122 -0.11104242
000140 14 73 3b 3c 68 07 dc bd 51 1a 68 bc df 0a 16 be
       0.011441011 -0.107436 -0.014166431 -0.14652584
000150 a2 43 ab bc 93 c2 b8 bd f6 5e 5b bd 70 af dc 3c
       -0.020906273 -0.09021487 -0.05355736 0.026939124
000160 2c 8b 82 bd 47 c4 ea bc 75 8f 77 bd 4e d9 fa bd
       -0.06374201 -0.028658045 -0.060439546 -0.12248479
000170 48 3c 00 be 53 64 4d 3d 6f 17 1f bd 7d 41 2e bd
       -0.12522995 0.050144505 -0.038840707 -0.042542923
000180 47 7f 84 3c 8c c3 87 3d 0e 45 89 3b f2 ef ce bd
       0.016173972 0.066290945 0.00418914 -0.1010436
000190 e9 85 16 bd 9c f6 d3 bd 42 44 b8 3c 53 ae 2c be
       -0.0367488 -0.103497714 0.022493485 -0.16863374
0001a0 83 f4 10 bd ee 2d 97 bc 11 fa b7 3c fb a7 d1 3c
       -0.035389435 -0.018454518 0.022458108 0.025592795
0001b0 ca 28 e4 bd 2b 0b 22 3d 5d f4 a6 3c e2 e3 f0 3c
       -0.111405924 0.03956143 0.020380193 0.029405538
0001c0 69 1b ce bb 4a 5c 10 be 57 29 81 3d 5d 3d 81 bd
       -0.0062898886 -0.14097705 0.06306713 -0.06310532
0001d0 b9 fd 1a bd 32 e5 30 be 9f 1b 21 bd 6a 7d 09 3b
       -0.037839625 -0.17274931 -0.039332982 0.0020979294
0001e0 26 03 d1 bd 22 4d eb 3a 61 c2 0e bd d0 90 88 bd
       -0.10205679 0.0017952065 -0.034853343 -0.06668246
0001f0 67 e3 fd bd fd d0 95 3d 27 47 fb bd 06 8d 71 3b
       -0.12396889 0.07315252 -0.122694306 0.0036857738

decoder.0.weight f4 [128, 64, 3, 3]
000000 17 57 82 3c 9e a0 01 bc 81 b9 fd bc 28 2a 90 3d
       0.015910668 -0.007911829 -0.030972244 0.07039291
000010 24 27 fa 3d d6 4c 3c 3d ee e7 42 bd 5f 50 18 bd
       0.12214497 0.045971714 -0.047584467 -0.037186023
000020 23 70 14 3c 96 2f 8e bb 93 5c 96 bc 34 9e 2b 3c
       0.009059939 -0.004339169 -0.01835469 0.01047473
000030 19 a7 e9 bc d4 7f be 3c b1 27 02 bc 8b ad 12 bd
       -0.028522061 0.023254313 -0.0079440335 -0.035810035
000040 5f 37 a2 bc 9f 07 09 bd 0a 0d 9e 3b 50 3b c7 bc
       -0.019801794 -0.033454534 0.0048233317 -0.024320275
000050 5b 74 c5 bc 6a 23 63 3c 34 4a c9 bc 36 7f 23 bd
       -0.024103334 0.013863424 -0.024571516 -0.03991624
000060 5b 42 03 bd 65 73 3b 3d f2 96 95 bc 3d e4 09 bd
       -0.032045703 0.045764346 -0.018260453 -0.03366493
000070 41 23 3a 3b 21 12 8a bc 95 18 a7 bc f5 56 b9 bb
       0.002840236 -0.016854348 -0.020397464 -0.005656118
000080 b3 de 42 bd 10 21 c4 3a 90 72 6a bb 89 eb 1d bc
       -0.047575664 0.0014963467 -0.003577385 -0.0096386755
000090 fc cc 15 bd 5b a5 de bb 3e 0c f0 bc 2c 17 41 3c
       -0.03657244 -0.0067946143 -0.029302713 0.01178531
0000a0 31 11 3f bd 99 9a 81 bc 59 b6 ba bc 69 02 2a bc
       -0.046647254 -0.015820788 -0.022792028 -0.010376551
0000b0 6d 1e aa bc 69 74 c1 3c a8 01 f5 3c 42 b5 12 bb
       -0.020766461 0.023615079 0.029908016 -0.002238587
0000c0 22 03 98 3c 29 12 ca bc 06 6e e6 3c ab dc a8 bc
       0.018556181 -0.024666863 0.028128635 -0.020613035
0000d0 ca ef 52 bd 12 c3 7e bd 28 b0 b4 bc 6d 7b d6 bc
       -0.051498212 -0.062197752 -0.022056654 -0.0261819
0000e0 53 99 c3 bc 21 1c 46 bc eb fd b1 bc 2b 26 e4 bb
       -0.023876822 -0.012091667 -0.021727523 -0.006962558
0000f0 ab e6 20 bc ef d4 d9 bc f9 2f 56 bc 16 f4 8e bc
       -0.0098206205 -0.026590792 -0.013072961 -0.017450374
000100 3b 25 7c 3c 2c 5e 5a 3b e4 f8 c2 bc f2 f9 be bc
       0.015389736 0.003332029 -0.02380032 -0.023312543
000110 ed 48 84 bc c8 d1 c7 bc 95 18 d5 3c be a5 ea 3c
       -0.016148055 -0.024392024 0.026012698 0.028643485
000120 10 5b ec 3c 56 a4 25 3c a9 e0 1d 3b ec 13 1b bd
       0.028852016 0.0101099815 0.0024090207 -0.037860796
000130 6a 6d e6 bc 5b db de 3b 17 16 e4 bb e7 68 88 bc
       -0.028128345 0.0068010516 -0.006960641 -0.016651584
000140 2b 5e 67 3b ef e6 56 3c 36 73 48 bd 3f d1 8a 3c
       0.0035303931 0.013116582 -0.048938 0.01694548
000150 a8 bb ba 3c 9b be 00 bd 18 0f db 3c 8d 38 e2 3b
       0.02279456 -0.031431776 0.026740596 0.006903714
000160 5d 7e 90 bc b8 15 f9 3c 23 12 84 bc e8 99 0e bd
       -0.01763838 0.030405864 -0.01612193 -0.034814745
000170 a7 50 c8 3c e6 d4 fe 3c a3 ec 69 3c 98 4b 36 bd
       0.02445252 0.031107377 0.01427761 -0.044505686
000180 b9 57 fc b9 66 a1 de 3b c0 c5 b1 b9 e2 ea 48 39
       -0.00048130544 0.0067941425 -0.00033907406 0.00019160987
000190 5e 94 9e bb ee 72 17 bd 69 aa 0a bd 0d dd 6b 3b
       -0.004839464 -0.03697484 -0.033853922 0.003598991
0001a0 96 31 8e 3b f0 1e 3d 3c d4 e9 9c bc b1 00 50 bc
       0.004339407 0.011543021 -0.019154467 -0.012695477
0001b0 c9 df 10 bd cc 1e d3 bc 78 ce 87 bb 4a 4d 63 bc
       -0.03536967 -0.025771521 -0.004144486 -0.013873408
0001c0 a8 f4 cc bc 5f b0 23 3d fd 1b ed 3c ba 2e 93 3c
       -0.025019005 0.039963122 0.02894401 0.017966617
0001d0 8e 2e d2 3c 2a a0 8e 3c c3 0c c3 3c 7b 5d c2 bc
       0.025656965 0.017410357 0.023809796 -0.023726216
0001e0 55 e7 6a bc 69 a0 16 bd 7e 19 0b bd 8f 78 9f bc
       -0.01433738 -0.036774073 -0.033959858 -0.019466667
0001f0 b9 3b 71 3c 2a 02 e8 3c a5 5b 16 3c 2e 3b 0c 3c
       0.014723712 0.028321344 0.009177123 0.008559031
000200 90 80 8c bc 56 b0 24 bc f8 da 57 3b fe de 9f 3c
       -0.017151147 -0.010051807 0.0032936912 0.01951551
000210 1e ef 9b 3c b2 15 48 bc ad b9 6b 3d 24 05 55 bc
       0.019034918 -0.012212204 0.05755012 -0.013001714
000220 b2 e0 4f bc 80 f1 67 bc 75 77 89 b9 b4 27 d7 3b
       -0.012687849 -0.014156699 -0.0002621968 0.0065660123
000230 f5 8b 1f bd e9 62 57 3c 77 4b a1 bc c2 eb 13 3d
       -0.038951833 0.013146141 -0.019689305 0.036113508
000240 c3 54 b2 3c 0c 9d b7 ba 2e fb 4a bb 62 37 23 bd
       0.021768933 -0.0014008596 -0.0030972469 -0.03984774
000250 0a a0 7a bd 4d 6a f7 3c 08 ea 3a 3c 8a 1d df 3b
       -0.06118778 0.030202055 0.011408336 0.0068089413
000260 81 37 75 3d 92 53 67 3c 9a f2 2b 3b 4c e5 4f 3c
       0.059867386 0.014119046 0.002623713 0.012688946
000270 19 12 b1 3c 27 a6 35 bd 11 da df bb bc ff 2e bd
       0.021615075 -0.04434791 -0.0068314155 -0.042724356
000280 8d 3e a0 3c c9 87 27 bd 1c f3 3e bd 5e a0 00 bd
       0.019561077 -0.04090098 -0.046618566 -0.031402938
000290 66 57 f1 3c ac e9 49 bc b9 24 ec 3c 61 fa 11 3d
       0.02946062 -0.012323778 0.028826104 0.03563917
0002a0 d8 6f 46 bd e0 00 a0 bc 9b 4f 14 bd 70 31 55 3c
       -0.048446506 -0.019531667 -0.03620873 0.013012275
0002b0 8b 95 74 3b c5 55 ef bc ac 09 48 bd f7 fc 9d 3c
       0.003732058 -0.029215703 -0.04883735 0.019285662
0002c0 05 a2 8d 3c af c1 ab ba dc 14 2e 3d 32 88 bd bc
       0.017289171 -0.0013103987 0.04250036 -0.023136232
0002d0 ef 39 8a bc 57 36 85 bc 4e a5 47 bd 3f e3 d9 bb
       -0.016873328 -0.016261263 -0.04874163 -0.0066494043
0002e0 3f 10 1f bd 97 d2 85 bc 63 5d 1d bd d3 bd df bc
       -0.038833853 -0.016335769 -0.03841914 -0.027312195
0002f0 18 42 6d bc 8a 3e 1a bd a5 2e 08 bd 3f 79 9f 3b
       -0.01448109 -0.0376573 -0.03324761 0.0048667486
000300 f9 8e 25 bd 32 7a 5f b8 c1 45 54 3c 19 be 09 3d
       -0.040419552 -5.3281146e-05 0.012956084 0.033628557
000310 af ef 8d 3b a3 78 37 bd db 3f e7 3c 11 44 7b bc
       0.004331551 -0.044792783 0.02822869 -0.0153360525
000320 a4 f3 f5 bc 39 32 60 bc 1b b2 eb bc ec ac d6 3c
       -0.030023403 -0.013683849 -0.02877145 0.026205502
000330 3d 81 5f 3a 09 cd 81 bc ca 9f 5f 3d 68 c5 0a bc
       0.0008526033 -0.015844839 0.054595746 -0.008469917
000340 11 d9 0a bd bc 69 e6 3c 0c bb 87 3c 31 d5 21 bd
       -0.033898417 0.02812659 0.016568683 -0.039509956
000350 93 1b c2 bc b7 3f f7 3c 18 66 da 3c 10 02 2c bd
       -0.023694789 0.030181749 0.02666001 -0.041994154
000360 59 83 38 3d 1b 7b 8f bc 3e a4 b0 39 bf 60 7e bc
       0.045047138 -0.017514756 0.00033691706 -0.015525996
000370 ae 26 22 bd 77 a8 e1 bb 8d fe c5 bc f2 0e e1 3c
       -0.03958767 -0.0068865377 -0.02416923 0.027472947
000380 8f c5 13 3d 62 3e 36 bd 3b 02 da 3c aa 6d a0 bc
       0.03607708 -0.044493087 0.026612392 -0.019583542
000390 1d f9 f0 3c 8d 05 10 bc 91 17 85 3c 86 b0 b4 bc
       0.029415661 -0.008790386 0.016246589 -0.02205683
0003a0 b3 5b 5c bc 78 9d 32 3d a6 ab 7c bc f0 cf 8b 3b
       -0.013449597 0.043607205 -0.015421784 0.0042667314
0003b0 6f 5b a0 3c 13 63 28 bc d3 8f 09 bd a3 21 2a bc
       0.019574849 -0.010277527 -0.033584427 -0.010383996
0003c0 75 24 cf bc a5 fa 95 3c 8a 61 50 bd ab 51 f9 bb
       -0.025285939 0.018307993 -0.05087427 -0.0076086125
0003d0 87 27 cf bc 86 38 a3 bc 67 ec e2 bc ac 64 e0 3c
       -0.025287403 -0.019924413 -0.027700616 0.027391754
0003e0 86 3d 96 bb 53 c6 bb bc c8 68 08 3c a6 21 51 3b
       -0.004584971 -0.022921717 0.008325763 0.0031910925
0003f0 dd 19 71 bc e9 4d f3 3c ad 3a e5 bb 01 68 2a 3b
       -0.014715639 0.029700236 -0.00699552 0.0026001933

decoder.0.bias f4 [64]
000000 b5 18 41 bd 6e 7a 4d bc 7c 1d f1 bc 8b b3 3b bc
       -0.047142703 -0.012541397 -0.029433005 -0.011456381
000010 74 72 f0 3c 3b 32 f5 bc 75 ae 45 bc 83 ba 0b bd
       0.02935145 -0.029931178 -0.01206552 -0.03411342
000020 68 e7 57 bd 87 93 01 3d 65 22 aa 3b bc e3 a9 bc
       -0.05271092 0.031634834 0.0051920884 -0.020738475
000030 cf 71 49 bd d4 00 0d 3d 54 ef 05 bd e5 7a 55 bd
       -0.049180802 0.034424618 -0.032698944 -0.052119154
000040 96 8c 5f 3c 13 6a 31 bc 3e 50 28 bd d5 e1 96 bc
       0.013644358 -0.010828513 -0.04109215 -0.018418232
000050 b6 64 0a bc 66 03 b8 bd 5d 95 06 3d c7 54 1d bd
       -0.008446863 -0.08985023 0.032857288 -0.038410928
000060 7b 2d c4 3c b2 cb 22 bd 5c 0c 55 bd ff 7c 2b bd
       0.023947468 -0.03974504 -0.05201374 -0.041867252
000070 a7 6f e2 bc 12 15 51 bd 1b 55 f6 bc ee 65 03 bd
       -0.02764113 -0.051045485 -0.030069878 -0.03207963
000080 7b ba 2e 3c 6e 55 ca bc 01 4f 36 bc 9d ab a6 3c
       0.010664578 -0.02469894 -0.011127234 0.020345503
000090 ca ac 92 bc 9c 00 d6 3c 1a 74 0c bc c8 6a 93 bc
       -0.017904658 0.026123337 -0.008572603 -0.017995253
0000a0 f1 e2 98 bb da 74 03 bd c9 00 b0 bb 3a 16 58 bd
       -0.0046657254 -0.03209386 -0.0053711873 -0.052755572
0000b0 0f ea 47 bd 6a 9e ec bb 3f d0 42 bc d8 a7 5e bd
       -0.0488072 -0.007221033 -0.01189047 -0.054359287
0000c0 0d 9e 82 bd 59 d9 03 bd 28 27 d4 3c 77 6a 42 3d
       -0.06377802 -0.0321897 0.025897577 0.047464814
0000d0 35 b6 24 bd a3 4b 33 bd 0e 05 62 3d 54 13 46 bc
       -0.04021283 -0.043773305 0.0551806 -0.012089569
0000e0 6f 44 09 bd 22 05 07 3d b8 33 73 bc 36 81 80 bd
       -0.03351253 0.03296388 -0.014843874 -0.06274645
0000f0 cb 5f ed 3a 38 59 73 3c 63 2c ac 3d 75 3e 2b bd
       0.0018110214 0.014852814 0.084069036 -0.04180761

decoder.2.weight f4 [64]
000000 3c 42 6f 3f 23 0c 7c 3f 2e d8 80 3f bc bb 84 3f
       0.9346044 0.9845602 1.0065973 1.0369792
000010 8e 98 86 3f a3 cd 81 3f 70 11 83 3f 12 31 82 3f
       1.0515306 1.014088 1.0239697 1.0171225
000020 be f1 73 3f 8b bb 82 3f cd 6c 80 3f be f5 80 3f
       0.95290744 1.0213484 1.0033203 1.0074995
000030 40 15 75 3f 86 4f 82 3f 38 16 82 3f d6 6f 7d 3f
       0.9573555 1.0180519 1.0163031 0.98998773
000040 7a 31 82 3f 2b 2f 80 3f 39 1d 7d 3f 2f 7a 77 3f
       1.0171349 1.0014395 0.98872715 0.9667081
000050 62 23 78 3f d1 d6 7e 3f 32 42 81 3f e9 93 71 3f
       0.9692899 0.99546534 1.0098326 0.9436632
000060 42 76 7a 3f e6 69 7f 3f dc 15 82 3f eb bb 80 3f
       0.978367 0.99770963 1.0162921 1.0057348
000070 59 ba 7e 3f e2 53 86 3f fd f3 71 3f 15 e7 73 3f
       0.99503094 1.0494349 0.9451292 0.9527448
000080 6c 3f 74 3f 2c be 75 3f 4b 04 81 3f c3 cc 77 3f
       0.95409274 0.95993304 1.0079435 0.96796817
000090 34 d6 81 3f 98 0d 7b 3f ea cb 83 3f cd 0f 71 3f
       1.0143495 0.9806762 1.0296605 0.94164735
0000a0 c3 81 76 3f e5 fb 79 3f 5f ae 82 3f a3 1c 7d 3f
       0.9629175 0.97649986 1.0209464 0.9887182
0000b0 9e 12 7c 3f 3e a1 73 3f 88 5f 7f 3f 75 46 80 3f
       0.9846591 0.9516791 0.99755144 1.0021502
0000c0 b8 1b 7a 3f d6 40 7e 3f bc 6d 78 3f a6 78 74 3f
       0.97698545 0.9931768 0.9704244 0.95496595
0000d0 51 c8 81 3f 24 71 7d 3f 5b c9 78 3f f0 0d 73 3f
       1.0139257 0.99000764 0.97182244 0.9494314
0000e0 41 60 7f 3f f4 44 6d 3f 01 7a 80 3f b1 56 83 3f
       0.99756247 0.9268334 1.0037233 1.0260831
0000f0 27 e5 76 3f e8 25 7c 3f 29 bd 66 3f 33 6f 79 3f
       0.9644341 0.9849534 0.90132385 0.974353

decoder.2.bias f4 [64]
000000 33 d5 f2 3c a5 db 57 bd d6 fd b0 bd 1e 88 e5 bd
       0.029642677 -0.052699704 -0.08642165 -0.11207603
000010 47 cf c7 bc 83 9a 02 be 16 7f 58 3d 97 ae e1 3c
       -0.02439083 -0.12754254 0.052855574 0.027549071
000020 2d 62 34 bd 0d 45 a3 ba f2 a9 ab bd 25 4c 9f bd
       -0.04403894 -0.0012456492 -0.08382024 -0.07778195
000030 74 81 a9 bd 39 57 91 3d c1 90 88 bd c1 a0 6e bd
       -0.08276644 0.070967145 -0.066682346 -0.058258776
000040 a9 79 57 bd c0 1d 45 bd db 2b 8d bd 14 f4 08 be
       -0.05260626 -0.048124075 -0.068931304 -0.13374358
000050 30 69 05 be f6 43 05 be 43 59 b5 bb 05 31 23 bd
       -0.13028407 -0.13014206 -0.0055343225 -0.03984167
000060 b9 c3 17 3d c1 b5 d9 bd c3 b0 9b bd d9 e3 2d bd
       0.03705189 -0.1063037 -0.07602074 -0.04245362
000070 29 bd fd bd e3 91 c6 bc 70 7a 1d bd 8a 33 17 bd
       -0.12389595 -0.024239486 -0.038446844 -0.036914386
000080 a3 32 00 3d af eb 11 bc 99 70 f5 bd 83 2b 14 bd
       0.03129829 -0.008906289 -0.11984367 -0.03617431
000090 62 6d c0 bc 5b e5 a9 bd 7a 0b cf bd 45 20 cf 3c
       -0.023489658 -0.08295699 -0.10109611 0.025283942
0000a0 e2 68 d6 bd c9 f6 a8 bd 47 0e bb bd f3 47 f4 bd
       -0.104692236 -0.082501955 -0.091335826 -0.11927786
0000b0 b6 05 ce bd a7 3b ac bd 95 df c4 bd a7 32 cb 3c
       -0.10059683 -0.08409815 -0.096129574 0.024804426
0000c0 93 2f cd bd 67 65 80 bc 49 30 9d bd b3 34 ae bd
       -0.1001884 -0.015673352 -0.07675225 -0.08506145
0000d0 17 dc ab bd 9b e0 b5 bd 3e dd 0b be c0 b4 bc bd
       -0.08391588 -0.08880731 -0.13658616 -0.09214163
0000e0 80 39 a5 bd c1 db 10 be ab f9 89 3d bc f4 74 bd
       -0.08067608 -0.1414633 0.067370735 -0.05980371
0000f0 f8 80 82 bd 57 2e 21 bd 57 2f 51 bd 85 df c2 bd
       -0.06372255 -0.039350834 -0.051070537 -0.09515289
