models/cae_ucsd.pth (torch, 754921 bytes, 27 tensors)

encoder.0.weight f4 [32, 1, 3, 3]
00000000: de81 683d bd56 0c3e 89d5 16be 1032 b2be
00000010: b89d 983d 0151 a13e adad 22be 1202 88be
00000020: 9dbc 923d 47d8 83be 3ec7 6b3e 8fbd 973e
00000030: 1aeb efbd 7a19 73be fd71 b13d 0ab6 203e
00000040: 411b 973e 65f9 7dbe af05 a2be 050f 6b3e
00000050: 92bc 413e 209f b23e 7dd1 173d eef8 e93d
00000060: d20d b7be e934 783e b258 a93d aed6 863e
00000070: d0be 38bd 8ee8 a73e 69bf 55bc 99ab a5be
00000080: 5a6c 45bc 0379 1b3d d1c1 12be 5678 44be
00000090: f139 a1be a6ad 41be bf28 a03d c524 693d
000000a0: 2dcc 2e3e 22ee 9f3e b594 c73d 3ebd 273e
000000b0: 679f 4ebe 4db2 853e 9beb 833e 52e2 86be
000000c0: 8293 cb3d f1f5 f23d eb0b 143e 3c9f 1b3e
000000d0: 03b4 8e3e 2469 823d 1654 66be 6a92 9cbe
000000e0: 5e3c 39be 6748 393e d696 523e 07c1 773e
000000f0: ceb1 c8bd 7003 0fbe 2d67 2fbd fd0a 883d
00000100: dd84 223e c0c5 923e 2ad0 eb3d dff0 96be
00000110: 5ab2 d8bd e88a 6d3e d572 823e e9c8 963e
00000120: a282 2ebe 1e4d 3fbe c7c3 0c3e 15fa 23be
00000130: d8f5 00be 926c 64be 1c13 c3bd 05dd 433e
00000140: da14 98be ecd6 47be a8e4 9c3e 2068 723e
00000150: 4868 263d d0b4 d5bd a902 adbd 33f6 6abe
00000160: bb3d c13d 0d75 113d 5c04 a43d bbbb a03d
00000170: 7480 3b3e 8084 773e 6543 28be d54d 4fbd
00000180: c31a 02be 86b4 ea3c 7b95 8fbe 9366 163e
00000190: 4eb2 a8be e0a1 3a3d 80ff c53d 6e59 a9be
000001a0: 9618 33bd 269e e6bd 2357 8f3e 32fc 9cbe
000001b0: f49d a9be efc1 5f3e f6d3 eabd fa37 973e
000001c0: 4dc1 033d e3dd 50be d7ab 78be 1bb9 c83d
000001d0: 278e 933e 5d0d 883e 0678 5abe a7d8 a2be
000001e0: 5be7 503e 4ab0 d7bc 92bf 5bbe 4142 8f3e
000001f0: dd38 07be 1655 48be 14dd 4bbe 450d 8b3e
00000200: 08c8 0f3e 21d1 14be 4741 583e bb03 243e
00000210: d2a7 663e b848 42be d0e2 51bc ba46 e7be
00000220: 0176 0b3e fe07 38be aae0 15bd e9f2 efbc
00000230: fcd2 123e f15b 8abe 2e05 42be fd28 4f3d
00000240: e3c2 893e 452b 34be a92b cbbd 8d49 7fbc
00000250: dbc0 933e 7f3a ef3d 5e2e 393e b0c7 2d3d
00000260: dae5 20be fa90 703c 462b 8d3e f6cc 9f3e
00000270: 791b 99be 3018 73be 5572 833e bc04 a03e
00000280: 2071 b23d 95b8 fa3d 3340 413e 240d 953e
00000290: 094d 5a3e 1ec1 ca3d df0d 1a3e 9a1b 3e3e
000002a0: 6435 453d 9fa2 d63d 17ca 923e 6199 25be
000002b0: 9244 923b ff88 7e3e 1c95 193d 703a 8bbe
000002c0: 0d45 903d c22c 243e 5a7c 8b3d 9194 62bd
000002d0: 1c2e 5e3d c7f6 133d 197a aebd 8eb6 00be
000002e0: 5e57 493e 01d4 423e da1c 18bd fbca 2abd
000002f0: 0985 64bd 9f2e 83be c658 e8bd 40ee 74bd
00000300: 167f ce3c 1804 86be 561c 8abb 000c 063e
00000310: a8e5 3f3e 769f 29bd 56e3 683b 0044 a03a
00000320: eb7e 00be 1e26 54be 5b60 973d eff1 9abe
00000330: ab9f 64bc 40ae 15be 76be 4cbe dc55 40be
00000340: 254b 61be 0823 fabb 5a40 e7bd 28ac 693e
00000350: 3e86 7f3e b82a 6abe 2197 c6bd 5959 233d
00000360: 7131 28be eb71 79be 2210 8ebe fcc8 f43d
00000370: 3951 3f3d b159 bfbd ddd6 cd3d 698c 7a3e
00000380: 5c5e a03e 5315 9fbe ab8b f63d 56e1 52be
00000390: 6392 07be d05b d8bd b8c3 56be b270 823e
000003a0: 9715 a23e 12b7 95be 70d3 a53e 3f03 083c
000003b0: 628a a83c 043c fb3d aaba 62bd e4de e0bd
000003c0: e30e 6cbd 02ad dcba 234c 34be f196 183d
000003d0: 7b05 38be faf7 643e 5299 12be a750 e5bd
000003e0: ec98 583d bb79 60be 1791 743e c3b3 853e
000003f0: f9a0 893e 63a6 17be 2a95 43be 35a8 5e3d
0.056764476 0.13704963 -0.14729895 -0.3480382 0.074519575 0.31507114 -0.15886565 -0.2656408
0.071648814 -0.25750944 0.23025224 0.2963681 -0.11714764 -0.23740187 0.0866432 0.15694442
0.2951298 -0.24802168 -0.3164496 0.22954948 0.1891959 0.34887028 0.037065018 0.11424433
-0.35752732 0.24238934 0.082688704 0.26335663 -0.045103848 0.32794613 -0.013046124 -0.3235748
-0.012049759 0.037957203 -0.14331748 -0.1918653 -0.31489518 -0.18913898 0.07820272 0.05691983
0.17070074 0.31236368 0.097451605 0.16380784 -0.20177995 0.26112595 0.2576569 -0.26344544
0.09940244 0.11863316 0.14457671 0.15197462 0.27871713 0.0636771 -0.22493014 -0.30580455
-0.18089435 0.18094026 0.20565352 0.24194728 -0.097995386 -0.13966155 -0.042823005 0.06642721
0.15870996 0.28666496 0.115143135 -0.29480645 -0.10580893 0.2319752 0.25478235 0.29450157
-0.1704202 -0.18681762 0.13746558 -0.16013367 -0.12593782 -0.22307041 -0.09525129 0.19127281
-0.29703408 -0.1951558 0.306432 0.23672533 0.040626794 -0.10434878 -0.08447773 -0.2294548
0.09435602 0.03551202 0.08008644 0.07848307 0.1831072 0.24171638 -0.16431959 -0.050611336
-0.12705521 0.028650533 -0.28043732 0.14687566 -0.32948536 0.045564532 0.096678734 -0.33076042
-0.04372462 -0.11260633 0.27996168 -0.3066116 -0.3312832 0.21851324 -0.114662096 0.29534894
0.032166768 -0.20397143 -0.24284302 0.09800931 0.2881939 0.26572695 -0.21334848 -0.31805918
0.20400755 -0.026329178 -0.21459797 0.27980235 -0.13205285 -0.19563708 -0.19908553 0.2715856
0.1404115 -0.14532901 0.21118651 0.16017048 0.22524956 -0.18973053 -0.012810424 -0.45171148
0.13619234 -0.17971799 -0.03659121 -0.029290633 0.14338297 -0.2702327 -0.18947288 0.0505762
0.269065 -0.17594631 -0.09920437 -0.015581501 0.28858075 0.11681079 0.18084094 0.042426765
-0.15712681 0.014683003 0.27572078 0.3121106 -0.29903772 -0.23739696 0.25673166 0.31253612
0.08712983 0.122422375 0.18872146 0.29111588 0.21318449 0.099001154 0.15044354 0.18565217
0.04814662 0.10480236 0.28669807 -0.1617179 0.0044637406 0.24856947 0.037495717 -0.27193022
0.070444204 0.16032699 0.068108276 -0.055317465 0.054243192 0.036124017 -0.08519382 -0.12569639
0.19662234 0.19026186 -0.03713689 -0.041697484 -0.055790935 -0.25621507 -0.11345057 -0.059797525
0.025207084 -0.26174998 -0.0042148037 0.13090515 0.1873995 -0.04141184 0.0035535893 0.0012227297
-0.12548415 -0.20717666 0.07391425 -0.30262706 -0.013954083 -0.14617252 -0.1999453 -0.18782753
-0.22001322 -0.0076335706 -0.11291571 0.22819579 0.24953553 -0.22867858 -0.09696794 0.03988013
-0.1642511 -0.24359863 -0.27746683 0.11952397 0.04670832 -0.09343279 0.100507475 0.24467625
0.3132199 -0.31070957 0.12038358 -0.20593771 -0.13239436 -0.10564387 -0.20973098 0.25476605
0.31657097 -0.29241234 0.32387877 0.008301555 0.020573799 0.122673064 -0.055353798 -0.10980013
-0.057631385 -0.0016836228 -0.17607169 0.037253324 -0.1797084 0.2236022 -0.143163 -0.11197024
0.052880213 -0.21921436 0.23883472 0.2611371 0.26880625 -0.14809565 -0.1909987 0.054359633

encoder.0.bias f4 [32]
00000000: a818 00be 9611 a9be f2f8 933e 61aa 9d3e
00000010: d621 803e 5aaa 733e 71e0 90bd 00e3 a1be
00000020: 3805 253e 3815 2dbd 239b 363c f65c 24be
00000030: 9948 18be d906 453e 47ae 49be 9d6b df3d
00000040: 226a 093e 8efa f5bc 4cc2 543e c046 4b3d
00000050: 74f0 4f3e 50e1 91bd 6b8d fabd 87b7 af3d
00000060: 60ff f13d 107f 4cbe 9f9e fdbc 0e81 733d
00000070: 9a91 2bbd 217c 783a 8e67 57bd f840 92be
-0.12509406 -0.3302123 0.28900868 0.3079405 0.25025815 0.23795453 -0.07074059 -0.316185
0.16115272 -0.042256564 0.011145386 -0.16051087 -0.14871444 0.19240893 -0.19695388 0.109091975
0.13419393 -0.0300267 0.20777243 0.04962802 0.2030657 -0.07123053 -0.122340046 0.08579927
0.11816287 -0.19970345 -0.030959425 0.059449248 -0.041886903 0.0009478946 -0.05258899 -0.28565192

encoder.2.weight f4 [32]
00000000: 4dda 793f 8530 7b3f fe0e 853f c332 8a3f
00000010: 6b9f 883f b9fa 803f 5b2a 833f dc24 7f3f
00000020: 51c2 803f dce5 723f eb67 653f 0000 803f
00000030: 7556 7c3f 2e40 723f 6a2d 7d3f e08b 843f
00000040: 2b2c 823f 6401 7f3f 00b1 813f cfca 7d3f
00000050: b3aa 833f 0000 803f 0000 803f 007f 763f
00000060: d7f3 853f 0000 803f 849c 5e3f 19a8 813f
00000070: 782f 7e3f f140 503f bc60 753f 9adb 7e3f
0.97598726 0.9812091 1.03952 1.0796741 1.067365 1.0076514 1.0247301 0.9966562
1.0059301 0.9488199 0.8961169 1.0 0.9856942 0.9462918 0.9889742 1.0355186
1.0169729 0.99611497 1.0132141 0.99137586 1.0286468 1.0 1.0 0.96287537
1.0465039 1.0 0.86957574 1.0129424 0.9929118 0.8134909 0.9585073 0.99553835

encoder.2.bias f4 [32]
00000000: 7a52 de3a 84bf 963c 3937 f53a 6a92 b43b
00000010: 1137 12bc 7df4 10bb 90c0 8fbb 39c0 57bc
00000020: e752 44bb c413 77bb 6c94 743b 0d38 0abd
00000030: ff55 b23b 357f c53b 67fb 36bc 1666 1cbc
00000040: 42c1 93bb 59b6 e53a 7714 c7bb 7caa c13b
00000050: f48f 6ebc e578 213d cf04 893e 3c10 a9bb
00000060: 23b3 193c 3c74 973e 7b10 9e3c 0840 e6bb
00000070: 3c83 c5b8 9f64 92bc 4837 a33c 4b4b 62ba
0.0016961836 0.018401869 0.0018708474 0.005510618 -0.008924262 -0.0022118383 -0.004386969 -0.013168388
-0.002995664 -0.003770099 0.0037319912 -0.03374486 0.0054423804 0.006027127 -0.011168337 -0.009545824
-0.004509122 0.0017525657 -0.0060754376 0.005910216 -0.014560688 0.039421935 0.2676148 -0.005159406
0.009381088 0.29580867 0.019294968 -0.007026676 -9.418136e-05 -0.017870246 0.019923821 -0.00086324353

encoder.2.running_mean f4 [32]
00000000: 6926 0937 a69e 8732 a0c4 0b3f e7d8 833e
00000010: f6d6 a93e b696 3a3f 61b9 323a 02ad 193e
00000020: cacc cd39 0c2f 5d3c 339b 133c 0000 0000
00000030: 9598 9439 5d9a 563d 2fe2 2f3d cecd c63a
00000040: 3ed6 a93e a2d4 af3e bd83 663f 12bb bf3d
00000050: d2a2 863e 0000 0000 0000 0000 100a f73b
00000060: 76d2 123e 0000 0000 ebf1 233c 38dd 063e
00000070: b73c ce3d f54a 6b38 c2d4 f231 da7a 2038
8.174779e-06 1.5788213e-08 0.545969 0.2575142 0.33171815 0.72886217 0.0006817785 0.15007403
0.00039253227 0.013499986 0.00900917 0.0 0.00028342442 0.052393306 0.042940315 0.0015167536
0.33171266 0.34341913 0.90044767 0.09361853 0.26296097 0.0 0.0 0.0075390413
0.14338097 0.0 0.010006408 0.13170326 0.10070174 5.6098175e-05 7.0673147e-09 3.8261387e-05

encoder.2.running_var f4 [32]
00000000: 0385 1634 78d9 8b2f 099f 333c b942 d93a
00000010: 2c4c e33a 4043 1e3d b233 3738 0e4c bd3c
00000020: 69ad 8d37 bdf5 273a 75b2 6539 0400 0000
00000030: 9652 7437 da5d 503b d308 1d3b 09ec f138
00000040: 4198 e13b fa75 bb3c 2df7 9b3d 12fe ef39
00000050: f078 303a 0400 0000 0400 0000 e39a 323a
00000060: 6086 f13a 0400 0000 3d94 8939 bb8b de3a
00000070: c951 653b fe40 9a35 9c3a 282f ec88 9b35
1.4018228e-07 2.5438474e-10 0.01096321 0.0016575671 0.0017341427 0.038638353 4.3678745e-05 0.023107555
1.688926e-05 0.0006407162 0.00021905622 6e-45 1.4562762e-05 0.003179422 0.0023961558 0.000115357405
0.006884605 0.022883404 0.076155044 0.0004577493 0.0006731888 6e-45 6e-45 0.0006813241
0.0018426888 6e-45 0.00026241122 0.0016978899 0.0034991375 1.1492809e-06 1.5300333e-10 1.158825e-06

encoder.3.weight f4 [64, 32, 3, 3]
00000000: 3c95 2b3d c5f6 31bd a5ae 253c 7820 893a
00000010: 098e 45bd 2701 1c3d 763c a83c 9248 6fbd
00000020: 5c85 68bd 61fb b1bb 8b2c 453d f70f 53bd
00000030: 459f d7bc dad3 493d a52b 00bc 3825 32bc
00000040: 7d9f 1ebd d96d 223d 97e9 583d 7dfa 2f3d
00000050: e62e 0cbd 8837 be3c f83f 25bd 68bd 4f3d
00000060: 79c7 2cbd 30a4 fd3c 7584 ecbc faa7 7ebc
00000070: 372a 8aba 1be3 4abd 897d f8bb 2a0a 4fbd
00000080: 4819 9b3b 716a 70bd 0614 0abc 8054 063c
00000090: 07b7 80bb d503 ef3a 5419 853d c1e3 f1bb
000000a0: 8867 873c d3b2 1f3b f210 b83c 83f0 46bc
000000b0: d313 2fbb a5ae db3a 76d8 223d a9b0 13bd
000000c0: 3c82 103d a8f9 193b 1523 d93c de05 103d
000000d0: 790f f4bc f89b f1bc 6229 fcbc 7a60 ebbc
000000e0: 54e7 7abd 25b3 dbbb 4790 4abc dd98 7ebd
000000f0: 9cfa e33c 73d5 8abc 8bd3 493d 1f35 cf3b
00000100: 969c e1bb 29f2 0dbb 778f 663d 8224 b9bc
00000110: b739 b23c dd9f 2abd eb0e 3d3d bf80 be3b
00000120: acb2 003d b545 02bd 82aa dfbb 45f9 40bd
00000130: 2935 283d 43d2 083d b9c7 033d 8cfb be3b
00000140: 5928 05bd 3758 97bc b116 f2bc db75 b63c
00000150: d679 bb3c 69e4 d2bb b796 14bd 9b2b f73b
00000160: b1b5 3abb 1a2d 5c3d 3924 f4bb a3a2 2fbc
00000170: d208 e33c f9cb 323d 82d5 f0b8 3494 26bb
00000180: 1f83 113d 0ad9 ba3c 1259 19bd 7798 ea3c
00000190: c2d4 cebc 4de7 003d f970 0dbd 71a1 8c3c
000001a0: 0a3c 22bd 6517 49bd d249 89bd 6cdb aebc
000001b0: f4ee 84bd cef7 1a3d a61d 29bd 980c f73c
000001c0: 6c2c 343d dc76 753c e38c 2d3d d952 283d
000001d0: 7ca4 afbc 35a3 263b db1f c93c 9860 aebb
000001e0: 8a81 3f3d 1222 9fba c0ee 66bd 1e16 93bc
000001f0: e6b5 64bd f085 133d cc52 043d 871b 1ebd
00000200: bb9e 323d 61d6 b83b f024 323d ac4c 543d
00000210: af67 9bbc edd0 11bd 63eb 033d fe32 34bc
00000220: 4404 3bbc d912 86bd a7b8 30bc fbae fe3c
00000230: b0d4 a53c 3d3c 8d3b 8d16 02bc ff7a d5bc
00000240: 0f99 083d 91d5 15bb 78bb f8bc db5a 1b3d
00000250: b4ed fcbc f83e 203d 53d7 623c 3509 17bd
00000260: 6eaf b1bb ec71 de3c 39ee ad3b 3672 9d3b
00000270: f0fd 81bc 7a82 053c 95a1 633d edae ba3c
00000280: 6ab9 1a3c ae39 8e3c e565 7c3d e213 063d
00000290: d617 833c a5c5 153d fa11 303d 701e 4d3d
000002a0: 00dc b73c f4d7 103d e907 11bd 000e 683d
000002b0: 37ff e63a ec32 983c 5eee 333d 610d 11bd
000002c0: d432 b9bc 65d6 3b3c 2132 633d 818d e03c
000002d0: 9c9e 1e3d 480d 9dbc 2962 103c cf6a a0bc
000002e0: 86f3 e5bb a5cd 6b3d 1c43 ef3c 4a72 edba
000002f0: 8719 d8bc 0faa 0fbd 5cf5 673d f232 493d
00000300: ce6f a33d 0a18 7b3d 80ad 59bc 8d60 bcbc
00000310: c52a b7bc 81f1 2e3d 8392 cd3c 1b20 d83d
00000320: a1a8 843d 18c1 283d 2e15 8e3c 848c 683d
00000330: 761d 7a3d 0ccf 3a3d f7e5 843b 0e28 13bd
00000340: 372a 083d 4f60 34bd 83ae eb3c e74b d0bc
00000350: f9cd 963b 2688 a9bc ce43 5ebc e86c c33a
00000360: 7c23 063d ddbc 513d 74e9 693c ff9e 05bd
00000370: 89f2 4d3b a849 20bd ccc6 50bd 3fc9 50bd
00000380: 66c1 dc3c 0de1 c23d bda3 f83d 0afd c63d
00000390: 8a58 f73d d422 d93d bd2a 6a3d d0f5 4b3d
000003a0: 96ab 5d3d 55ce 303d 730f 023b 2fe5 89bc
000003b0: 9210 5fbc d1ed 793b 3ce0 933d 0fb4 a13c
000003c0: 4a57 673d 99e6 5a3d 7201 34bc 5a5c 75bc
000003d0: e4a5 3dbd 89c1 31bd 8f7e d3bc 99da 2c3b
000003e0: ca1d 97bc d9fe 2e3c 1983 2fbd 76d3 ea3c
000003f0: 9b60 a3bc fe08 413d 8005 6d3c c04c cd3c
0.041890368 -0.04344823 0.010112439 0.0010461947 -0.04823116 0.038087036 0.020536643 -0.058418818
-0.056767806 -0.005431578 0.048138183 -0.051528897 -0.026321063 0.049274303 -0.007822906 -0.010873131
-0.03872632 0.03965554 0.052957144 0.042963494 -0.034224413 0.023219839 -0.04034421 0.05071774
-0.04218242 0.03096208 -0.028871754 -0.015542978 -0.0010541145 -0.04953299 -0.0075833243 -0.050546803
0.0047332384 -0.05869526 -0.0084276255 0.008198857 -0.0039280686 0.0018235395 0.064989716 -0.0073818867
0.01652886 0.0024368062 0.022469018 -0.012142303 -0.0026714697 0.0016760422 0.039757214 -0.036057148
0.03528045 0.0023494754 0.026505986 0.035161845 -0.029792534 -0.029493317 -0.030781452 -0.028732527
-0.061255768 -0.0067047053 -0.0123635 -0.0621575 0.02782946 -0.016947484 0.04927401 0.006323471
-0.0068851216 -0.0021659231 0.056289162 -0.022600416 0.021756036 -0.041656364 0.046156805 0.0058136876
0.031420395 -0.03180476 -0.006825746 -0.047112722 0.041066322 0.033403646 0.032172892 0.0058283266
-0.03250918 -0.018474681 -0.029551836 0.022272995 0.022885244 -0.00643592 -0.036276545 0.00754304
-0.0028489644 0.05375395 -0.007450607 -0.010719928 0.027714167 0.043651555 -0.00011483861 -0.0025417926
0.035525437 0.02280857 -0.03743846 0.028637154 -0.025247935 0.031470586 -0.034531567 0.017166825
-0.03960804 -0.049094576 -0.06703533 -0.021344863 -0.06490889 0.03783398 -0.04128804 0.030157372
0.043987677 0.014981952 0.04237069 0.041094635 -0.021440737 0.0025426869 0.024551323 -0.0053215735
0.046754397 -0.0012140891 -0.056380033 -0.017954882 -0.055837534 0.036016405 0.032305524 -0.03860047
0.04360841 0.0056407903 0.043492258 0.051830932 -0.018970339 -0.035599638 0.032206904 -0.010998486
-0.011414591 -0.06546564 -0.010786212 0.031089297 0.020243019 0.0043101595 -0.007939947 -0.026059626
0.033349093 -0.0022862891 -0.03036283 0.037928443 -0.030875064 0.03912255 0.013845283 -0.036874015
-0.005422524 0.027153932 0.0053079394 0.004804875 -0.015868157 0.008148784 0.05557402 0.02278849
0.00944362 0.017361488 0.06162061 0.032733805 0.016002577 0.03656544 0.042985894 0.050077856
0.022443771 0.0353622 -0.035407934 0.056653976 0.0017623667 0.018578969 0.043928497 -0.03541315
-0.022607245 0.01146469 0.05546773 0.027411224 0.03872548 -0.019171372 0.008812466 -0.01958218
-0.0070175556 0.057569165 0.029206805 -0.0018115726 -0.02637936 -0.03507429 0.056630477 0.04912085
0.079803094 0.061302222 -0.0132859945 -0.022995258 -0.022359261 0.042710785 0.025094276 0.10552999
0.06477476 0.041199774 0.017344084 0.05677463 0.061063252 0.04560761 0.0040557343 -0.03592687
0.033243384 -0.04403716 0.028769737 -0.025426818 0.0046021906 -0.020694803 -0.013565971 0.0014909776
0.032748684 0.051205505 0.014276851 -0.032622334 0.003142508 -0.039132744 -0.050970837 -0.050973173
0.026947688 0.09515581 0.121406056 0.09716232 0.12077434 0.10602346 0.057169665 0.049794972
0.054118715 0.043165524 0.0019845634 -0.016832916 -0.0136147905 0.0038136134 0.07220504 0.019739179
0.05647973 0.05344257 -0.010986673 -0.014975632 -0.046300784 -0.04339746 -0.025817184 0.0026375412
-0.018446822 0.010680878 -0.042849634 0.028665286 -0.019943526 0.047127716 0.014466643 0.025061011

encoder.3.bias f4 [64]
00000000: 17e8 a7bc 1462 0a3d e832 303c bdf6 08bd
00000010: d12f 143b fe59 1a3d 60e1 23bd f7c1 1a3d
00000020: 8da6 9bbc 8bb7 88bd ec6d fb3c 7030 aabb
00000030: 4a12 3c3d f6ba dcba 3159 d33c 62f5 403d
00000040: 7395 6e3d 783e 6abd 089e 6a3d 3ae9 cdbc
00000050: f154 34bd 0c9d dc3c 74a0 f5bc aae5 143d
00000060: b1e8 3abd 790d bbbc af34 b33d c118 abbc
00000070: 323e 13bd 0470 c73b c2a3 b53b 5a9c 21bd
00000080: 6997 d23c b26e 6dbc 9f89 9fbc 66af f63c
00000090: a74f 95bc 74a1 9fbb 90de 7cbd 3910 703d
000000a0: 9932 85bc 1a8b 4a3c d50c 583c 45f2 bbbc
000000b0: b1da 403d fee1 2a3d 2308 1cbc d174 f539
000000c0: 762d 443d 3d22 6cbd 7f6f 8dbc ce7f fd3b
000000d0: 0c3a 66bd 993f b23c 2385 733a 4619 583d
000000e0: 27ee dbbc cc60 2e3d b085 4abd 27c0 fd3c
000000f0: ccf1 0d3d 7f46 adbc 27f4 19bd 4233 09bd
-0.020496411 0.03378494 0.0107543245 -0.033438433 0.0022611509 0.03768348 -0.040009856 0.037782636
-0.019000316 -0.06675633 0.030692063 -0.0051937625 0.04591588 -0.0016840387 0.025799366 0.047109015
0.058247995 -0.05718848 0.057279617 -0.025135625 -0.04402632 0.026930355 -0.029983737 0.036351837
-0.045632068 -0.022833573 0.08750283 -0.020885827 -0.035947986 0.0060863513 0.005543203 -0.03945575
0.025706964 -0.014491724 -0.019474803 0.030112933 -0.018226458 -0.0048715416 -0.06173569 0.05860922
-0.016259478 0.012362266 0.013186653 -0.022942672 0.04708356 0.04171943 -0.009523424 0.00046817077
0.047894917 -0.05764984 -0.01726508 0.007736183 -0.0562077 0.021758841 0.0009289553 0.052758478
-0.026846958 0.04257278 -0.0494439 0.030975414 0.034654424 -0.02115178 -0.037586357 -0.03349615

encoder.5.weight f4 [64]
00000000: 4939 803f d8b5 7d3f 2fea 7d3f 8613 7e3f
00000010: d6ed 7b3f b12a 7f3f aa10 7f3f 7201 7b3f
00000020: 9c79 723f d989 7f3f 63a3 803f 6599 7f3f
00000030: 9119 803f 934a 813f 7275 7e3f 6b23 803f
00000040: 36e5 813f 51d7 7c3f 945b 813f 3c5b 813f
00000050: e09b 7d3f 5b66 803f 0be4 803f e721 7e3f
00000060: a691 803f 5b8b 833f 5289 893f 5847 753f
00000070: 724d 7e3f 3c83 7b3f 656b 833f 76e4 7d3f
00000080: 7960 7e3f 885d 7e3f 3d16 803f 4244 803f
00000090: 5a05 853f 4a87 833f b6ab 783f b3b4 813f
000000a0: 3d7a 803f 5d82 823f f3a5 7c3f 3f57 7f3f
000000b0: f4a7 803f 8287 7f3f d8a4 7d3f 2c9f 873f
000000c0: 85f4 803f 4f72 803f ad05 7c3f 3034 7b3f
000000d0: d086 7f3f cac9 7b3f f076 7e3f acc2 7d3f
000000e0: d5af 833f 6a4d 7c3f ccdf 803f 04ee 7d3f
000000f0: 3eeb 7f3f 5237 7f3f 748c 7e3f 6ffc 7a3f
1.0017482 0.99105597 0.9918546 0.9924854 0.98409784 0.99674517 0.996348 0.9804908
0.9471681 0.99819714 1.0049862 0.99843436 1.0007802 1.0100883 0.9939796 1.0010809
1.0148075 0.98766047 1.0106072 1.0105968 0.9906597 1.0031236 1.0069593 0.9927048
1.0044448 1.0276903 1.0745032 0.95811987 0.9933692 0.9824712 1.0267149 0.9917673
0.99365956 0.9936147 1.0006787 1.0020831 1.0392258 1.0275662 0.9713701 1.013327
1.0037304 1.0196034 0.9869072 0.997425 1.0051255 0.99816144 0.99079657 1.059545
1.0074621 1.0034884 0.9844616 0.98126507 0.9981508 0.9835478 0.99400234 0.9912517
1.0288035 0.98555624 1.0068297 0.9919131 0.99968326 0.9969379 0.99433064 0.98041433

encoder.5.bias f4 [64]
00000000: 7c17 a439 a0ff aebc 31e7 e5bb 12bd 96bd
00000010: 9a60 9e3b 145b 22bc 4fa7 98bc 87d8 503c
00000020: bef4 1b3d f0f1 c5bc 6701 acbc 9d66 0fbb
00000030: 2a39 923c dd62 bf39 df2e 453d 1dc2 1cbd
00000040: 42a7 44bc 1e4a 80bc d0d8 2abc 4c55 bebc
00000050: c1b8 1b3c ebd2 fd3b 1e8f c53c 2d6f f53b
00000060: 6aae b6bc 0d08 adbb 3b17 8e3d c4d9 7e3c
00000070: 07ab 143b 70d0 de3b 751c f93c 2101 56bc
00000080: b911 0d3c e3f2 d5bc 9244 bd3b b6c1 c5bb
00000090: 2077 1a3c 1960 203c a7d8 54bc bb4d 73bc
000000a0: 54f1 2bbd 384d b1bc 81b1 8bbd 4a6a 98bb
000000b0: 6749 45bc 993a dc3b e28f 3abd ab42 20bd
000000c0: 8744 153d bf04 5ebb 7165 4ebb c7f0 a3bc
000000d0: 571c 28bb 3b27 353c c2e4 46bd 2d13 c0bc
000000e0: da2e 4c3d a4a6 8c3c 6f05 99bc 2b15 d13b
000000f0: c4ba 48bc 5025 06bc ebf1 d73c aee7 6f3d
0.00031298015 -0.021362126 -0.0070160856 -0.07360281 0.004833293 -0.00990941 -0.018634466 0.012746937
0.0380752 -0.024163216 -0.020996762 -0.002188123 0.017849524 0.00036504018 0.048140403 -0.03827106
-0.012002768 -0.015660342 -0.010427669 -0.023234032 0.009504498 0.0077460906 0.024116095 0.00749006
-0.022299964 -0.0052805007 0.069380246 0.015554849 0.0022684948 0.00679975 0.030409077 -0.013061793
0.008610182 -0.026116794 0.0057759965 -0.006035055 0.009427816 0.0097885365 -0.012991107 -0.014850075
-0.041978195 -0.021643266 -0.068209656 -0.0046513425 -0.012041426 0.0067208526 -0.045547374 -0.03912608
0.036442306 -0.003387734 -0.003149357 -0.020012273 -0.0025651657 0.011056717 -0.048558004 -0.023446644
0.04984937 0.017169304 -0.018679349 0.0063806972 -0.01225156 -0.008187607 0.026360473 0.058570556

encoder.5.running_mean f4 [64]
00000000: e7e1 313f 9ffe 9b3e 9df0 9d3e 8e7a a73d
00000010: 5f3d 0e3f 940a 563f e020 e73e 402e 023f
00000020: a19a 743e 11dd ad3e 419c 093f e92a 3c3f
00000030: 19ac f13e 23ea 993e 984c d23f 80f1 663f
00000040: 001a 263f 90e7 173f ed62 d33e 8d82 dd3e
00000050: 0a65 e03e a9bf 273f 484e 653f 562f 4d3f
00000060: 7990 d13d 8154 483e 36f2 9a3f db93 603e
00000070: a58a f43e d187 6e3f e085 b93f 0ba9 cd3e
00000080: 9ea3 ff3e 9f92 133f bd81 f33e 4a6f 143f
00000090: c009 8a3f 9cf3 d03e 705b c83e 1ea6 053f
000000a0: 413c 293f b6f0 a23e 560a d63e 1643 233f
000000b0: 1593 503f 924c 043f 8a4a ea3e b49d 013f
000000c0: 9dae c53f 0345 623e 21c5 e63e 7238 743e
000000d0: 1d14 863e 271d 1c3f 2386 be3e 14f5 ee3e
000000e0: e80d d53f 53e8 883f a8d8 a13e c320 803f
000000f0: 8b8f 7e3f 97bc dc3e 1ecf 863e 7144 383f
0.69485325 0.30467698 0.30847636 0.08177672 0.55562395 0.8360989 0.4514227 0.5085182
0.23887111 0.33957723 0.5375405 0.73502976 0.47201613 0.30061445 1.6429625 0.9021225
0.6488342 0.5933771 0.41286412 0.43263665 0.43827087 0.65526825 0.8957257 0.80150354
0.10232634 0.19563486 1.2105167 0.21931402 0.47762027 0.9317599 1.449398 0.40168032
0.49929518 0.576456 0.4755992 0.57982314 1.0784225 0.4081086 0.3913226 0.522066
0.66107565 0.31824273 0.4180476 0.6377424 0.8147443 0.5167934 0.45759994 0.5063126
1.5443913 0.22096638 0.45072272 0.23849657 0.2618722 0.6098198 0.37211713 0.46671355
1.6644869 1.06959 0.31610608 1.0009998 0.9943778 0.43112633 0.26329893 0.71979433

encoder.5.running_var f4 [64]
00000000: b890 1b3f 165f 1f3e c9e4 173e 236e 823d
00000010: d2e9 c53e 9d32 383f e6bf 9c3e 2766 833e
00000020: 7d6c fa3d 0a39 5b3e 5024 d23e db67 223f
00000030: 7d23 7b3e 4273 183e 81ff bb3d c823 6a3e
00000040: 726e fa3e 468c cc3e a4dc 953e c691 863e
00000050: ee6b 3b3e d074 073f 6cc2 8a3d 8a62 233e
00000060: cb0a ee3c d660 d03d ffe4 053e ba68 4a3e
00000070: ec6f 883e 5984 6d3e 8f5f eb3d 6f83 813e
00000080: 2c30 ac3e ff20 cb3e 59b3 ad3e 38e3 ac3e
00000090: 8de4 db3d 2f46 5b3e 400a 9b3e 2668 833e
000000a0: eb02 153f b561 253e e3ab 833e 6e8f a63e
000000b0: e554 373f d99b a33e 123c 863e e55c 913e
000000c0: b13c 553e b4b6 423e 2cdd 953e 86d1 863e
000000d0: c77c 193e c4c1 8f3e 8423 6a3e a033 7b3e
000000e0: 1425 503e f840 453e 42f5 673e 62d5 d93d
000000f0: 527f 933f 78ae 9a3e 990f 493e 18aa e23d
0.607677 0.15563616 0.14833368 0.06368663 0.38654953 0.7195223 0.30615157 0.25663874
0.12227724 0.21408477 0.4104333 0.6343972 0.24525256 0.14887717 0.09179593 0.22865212
0.48912388 0.3995077 0.29269898 0.2628309 0.1830289 0.52912617 0.06775364 0.15955558
0.02905788 0.1017472 0.13075636 0.19766513 0.2664789 0.23195018 0.11492836 0.25295588
0.33630502 0.39673612 0.33925894 0.33767104 0.10736952 0.21413492 0.30281258 0.25665396
0.5820758 0.16150554 0.25717077 0.32531303 0.71613914 0.3195484 0.26217705 0.28391185
0.20823933 0.19015008 0.29270303 0.2633173 0.14989005 0.2807752 0.2286511 0.24531412
0.20326644 0.19263065 0.22652152 0.10636403 1.152323 0.30211234 0.19634856 0.11067599

encoder.6.weight f4 [128, 64, 3, 3]
00000000: 08f0 213c f15f a9bc c658 1ebd f106 c3bc
00000010: 8997 8bbc c397 d0bb f0ec 81ba 8c03 c4bc
00000020: df00 51bd b82a 2bbc a2e3 14bd acac 8d3c
00000030: 5ecb 15bc 018a f4bc efc9 91bb 6de1 95ba
00000040: 0f53 f53c e82c f73c d7df f73b b956 0b3c
00000050: 360e 213b d34b 783c 476e 753c ec5d d9bc
00000060: 6455 a7bc 23e8 b23c d394 dd3c 7050 0ebc
00000070: 4498 e53c c168 fcba b070 ad39 96f7 4d3d
00000080: 212b a83b 7fd8 a1bc a020 963c ebb2 f0bc
00000090: b094 c73c c5fe e5bb 54e1 dc3c 89a1 4fbb
000000a0: 5b18 083d 7232 143d f23f 2e3a 50e3 913c
000000b0: dbde 6d3c b158 1a3c b1cb 24bd bbed cf3c
000000c0: 2d31 f0bc a8e9 b5bc 741e 58bc bdb8 293c
000000d0: c002 d5bb a6c5 e43c 40de 4f3c ad5a 8abb
000000e0: 9bf4 68bc a3d0 b53c 6616 2cbd ad33 f3bc
000000f0: a925 8d3b 1257 5abc f11d 9dbc de03 ea3c
00000100: d0ae 5339 f4d9 053d f262 3dbd 0438 97bc
00000110: 9c36 ad3c 357a 0c3d d49b d03c 2687 c83c
00000120: 0cfc d5bb f25e ec3b a2cf 42bd 10b0 a73c
00000130: a3c3 7e3d 260e a4bc 5c6b 2fbc ad68 a93a
00000140: f79d 16bd a08e 283c 5ff7 cd3c fb2a 223d
00000150: 9705 ecbc f5f1 04bd dc3d 99bc 7e88 893c
00000160: 8600 ba3c 6eb2 f5bc e35a cc3c fa8b 073d
00000170: 0963 9a3c cbc5 94bc 3bae fb3c f620 07bd
00000180: 3c5b c9bc 2b86 d53c cc1f 2ebd 6e67 4fbc
00000190: 8c9a 0f3d 7b8e 7dbc 4cba fe3b 0d27 ea3c
000001a0: 0490 8c3c 3a41 c63b 5371 8ebc db8a c4bc
000001b0: fd31 e23b c497 57bb aa19 fe3c 7c69 4abc
000001c0: 63f6 1c3d c628 bf3c d659 52bc 296a 863c
000001d0: e6e7 aebc f2e3 17bd 7d38 3fbc a46b 5b3c
000001e0: f28e ebbb cc1d 583c dce9 9a3c f249 1ebc
000001f0: 702e 02bd ddb6 0cbd 95c2 833c 7a79 acbb
00000200: 94b7 ae3c 71e2 d33c 274e 42bd 1a52 31bc
00000210: 3a2a ea3c 55c7 46bb f12d b0bc 047f 18bb
00000220: ef00 e43c e44e 8abb f376 f43c 6d60 35bb
00000230: 6a9a 19bc 2252 583b feb7 bfbc 21b0 11bc
00000240: d4b5 03bd b610 493c 9282 e8bb 6e9a b9bc
00000250: 6de6 0c3d 6a93 76bc 8713 03bd 6835 f13c
00000260: f82a ec3c 4409 113d e75f 123d 2215 f7bc
00000270: 00da 0d3d b7f1 73bc cbef 2cbd 82b6 873c
00000280: e53c 1a3d aad5 16bd fe49 a6ba cdb4 e4bc
00000290: d7c8 19bd 6154 f9bb a115 0dbd 2f7a 8ebb
000002a0: ee96 1fbd 2097 96bc ed46 333d da37 353c
000002b0: 36fb e03c fd83 123d 8716 a63c c6eb 773c
000002c0: e24b b33c b918 d63c a14c af3c f557 5ebc
000002d0: 5988 793c 722c 6abc 95f3 bebc a0ce 1ebd
000002e0: dc2c b5bb 9105 eabc cc3e adbc 4894 37bc
000002f0: 0372 67bc 2bd8 feba f5cd d83c 7a28 cbbb
00000300: 1d03 a2bb 25af f03c 775d 0e3d 55de 2cbc
00000310: 6487 b93a ce79 f0bc ee0f 163c 8fa6 85bb
00000320: 6f03 f1bc 1a67 a83c 57f4 a8bb 2a24 493c
00000330: 96be b7bc 1a2d 67bb ae8b 29bb 5890 d43b
00000340: c2e9 f5bc d309 a7bc a666 963c 30ad d53c
00000350: ba20 14bc c021 f23c 7022 3bbd 10b4 fabb
00000360: 74e6 203d 58b4 c53c 9868 b8bc 1fb1 01bc
00000370: feaa 03bc fc0e d1bb 44e2 d8bc ba9e 873c
00000380: 6e81 3fbd 774f 56bc e753 c3bb 011c d33b
00000390: 564b 923c 55dd 993c 5206 fdbc 69af c03c
000003a0: 0faf 7d3b 7677 963c 5e21 10bc ba04 9fbc
000003b0: 508b 5b3c 261d 7dbc 62a2 813d b949 133d
000003c0: c6bb 2e3d 521c 703c 2e5c 313c 96de 9abb
000003d0: baf4 81bc f4e2 3b3c d58a 383a 73c4 c53b
000003e0: 78de 08bd e4cf 2b3b cd1f 8f3b e4d3 d33c
000003f0: d4c5 5fba 6edd 22bd 4de2 32bd c535 e53c
0.009883888 -0.020675631 -0.03865888 -0.02380702 -0.017040031 -0.0063657477 -0.0009912532 -0.023927473
-0.05102622 -0.010447197 -0.0363499 0.01729425 -0.009142725 -0.029850962 -0.004449121 -0.001143498
0.029946832 0.03017278 0.0075645256 0.008504563 0.002457512 0.015154797 0.014979905 -0.026534043
-0.02042646 0.021839207 0.027048504 -0.00868617 0.028026707 -0.0019257293 0.0003308109 0.050284944
0.0051320945 -0.019756554 0.018326104 -0.02938219 0.024362892 -0.0070188963 0.026962914 -0.0031681976
0.033226352 0.03618092 0.0006647102 0.017808586 0.014518465 0.00942056 -0.040233318 0.025381913
-0.029320324 -0.022206143 -0.013190854 0.010358986 -0.006500572 0.027926277 0.012687266 -0.004222235
-0.014218475 0.022194212 -0.04201355 -0.029687727 0.004307468 -0.013326423 -0.019179316 0.028566297
0.00020187651 0.03267856 -0.04623694 -0.018459328 0.021144204 0.034296233 0.02546493 0.024478506
-0.0065302905 0.007213467 -0.047561295 0.020469695 0.062198292 -0.020026278 -0.010706749 0.0012924873
-0.03677174 0.010287911 0.02514237 0.03959177 -0.02881126 -0.03245731 -0.018706255 0.016788717
0.022705328 -0.029992308 0.024945682 0.033092476 0.018846052 -0.018160721 0.030722728 -0.03299042
-0.024579637 0.026064953 -0.042510793 -0.012658937 0.035059497 -0.0154758645 0.007773673 0.028583074
0.017158516 0.006050256 -0.017388022 -0.023991993 0.0069029317 -0.0032896856 0.031018097 -0.012354251
0.03832091 0.023334872 -0.012838801 0.016408043 -0.021350812 -0.03708262 -0.011671183 0.013392363
-0.0071886713 0.013190698 0.018910341 -0.009661185 -0.031782568 -0.03435408 0.016083995 -0.0052635046
0.021327771 0.025864812 -0.047437813 -0.010822797 0.028584588 -0.0030331213 -0.021506282 -0.0023269067
0.027832476 -0.0042208303 0.029841876 -0.0027675882 -0.009375194 0.003300794 -0.023403164 -0.00889209
-0.032155827 0.012272051 -0.0070956433 -0.022656646 0.03439944 -0.015049795 -0.032001045 0.029444411
0.028829083 0.035409227 0.03573599 -0.030161444 0.03463173 -0.014889172 -0.042220872 0.016566519
0.03765573 -0.03682486 -0.0012686846 -0.027918244 -0.03754505 -0.0076089357 -0.034444455 -0.0043480615
-0.038962297 -0.018382609 0.043768812 0.011060679 0.027463537 0.035770405 0.020274414 0.015131896
0.02188677 0.026134836 0.021398844 -0.013570775 0.015230262 -0.014292823 -0.023309508 -0.03877127
-0.0055290293 -0.028567107 -0.021148108 -0.011204787 -0.014126304 -0.0019443085 0.026465395 -0.0061998935
-0.004944219 0.02938039 0.034757104 -0.010551055 0.001415473 -0.029354956 0.009159071 -0.004078693
-0.029420583 0.020556975 -0.0051560807 0.012276689 -0.022429746 -0.0035274685 -0.002587061 0.0064869337
-0.030018691 -0.020390427 0.018359493 0.026083559 -0.009041006 0.029557109 -0.04568714 -0.0076508597
0.039282277 0.024133846 -0.022510812 -0.007915764 -0.008036373 -0.00637996 -0.02647508 0.016555179
-0.046754293 -0.013080469 -0.0059609297 0.0064425473 0.017858189 0.018782297 -0.030886803 0.023521142
0.003870908 0.01836751 -0.008797018 -0.019411433 0.013399914 -0.015448844 0.063298 0.03595898
0.042659543 0.01465519 0.0108252 -0.0047262413 -0.015863765 0.011467684 0.00070397306 0.0060353815
-0.033415288 0.0026216442 0.0043678046 0.025857873 -0.00085362536 -0.039761953 -0.04367285 0.02797974

encoder.6.bias f4 [128]
00000000: d2a3 8dbc 5189 493d 1039 253c 979b dfbb
00000010: 023e e13b 4f2b 103d e172 bfbb ccd0 563c
00000020: 7fcc 193d 4581 ba3c 2574 cdbc 3316 423d
00000030: 1145 2cbb 261b 0a3d 59ed be3d 051a 213d
00000040: 6145 e73c 07ef 6bbc 54e5 5e3b 77cd cebc
00000050: e095 7b3b a9aa 5b3d 1f69 dc3a d430 68bc
00000060: 0d83 e13c aedb 463c 9ae4 e83c f8ec 703c
00000070: 4ee2 ff3c 0d29 853d cf59 433c 6e5c bfbc
00000080: 429c 093d 1ab2 963c d8f7 bbbc 3871 a13d
00000090: 0390 94bc 54cc 323d 3629 5b3d c3ec a93c
000000a0: 3be0 e63b c768 213d 6a86 bf3c dd4b 42bd
000000b0: 369c a239 10a2 afbc c828 42bc a055 33bc
000000c0: 373a ca3c 0c06 e0bc 30f2 2a3d ecf9 f0bb
000000d0: 5caa 413d a8ec 07bc 66d9 5a3b 80c0 01bd
000000e0: d349 563c 55fb eab9 b10c 2abc 8f54 403b
000000f0: bb7f 093d 471b b0bb 8321 513d eb50 793c
00000100: 95ef b03a 3a0d a2bb 6a55 2d3d 317f 073c
00000110: 8c9d b33b 3239 433d d963 763b bb03 5abc
00000120: 96ba d23c eb69 f13c 5190 c7bb d77d 523d
00000130: 468d 0b3d 7aec ef3b e657 bfbc d363 f63c
00000140: 0414 2dbd c09b ba3c b736 2d3c 2d1c d93c
00000150: 8738 82bc 7071 063d 03bc dbbc b987 0a3d
00000160: df1e bd3c 1ae4 24bd 1398 a43c 64da 7cbb
00000170: d5f8 d4bb 3e36 353d 9fac f63c d7d5 1738
00000180: 75e4 253d 8411 803b 4211 aabc 35fa ab3c
00000190: d3dc ae3d fe79 b23c 5385 94bc 0815 c83a
000001a0: 841e c63d 20b8 cf3c c8c8 c2bb bde4 1fbd
000001b0: 3605 30bd 5364 0abd 6bf1 0bbd 5469 e93b
000001c0: 2709 af3b ba8d bd3c aefa 1dbc bb01 be3c
000001d0: 2070 eabc 56d0 ba3c 920d 513d b14c bebc
000001e0: ef3e 40bc dae5 d6bc 7453 08ba 8519 473c
000001f0: 2228 a7bc f590 6b3d d5c5 bd3c 1e54 2e3d
-0.01729003 0.04920322 0.010084406 -0.0068239677 0.006873847 0.035197552 -0.005842552 0.0131113045
0.03754854 0.022766719 -0.025079796 0.047384452 -0.0026286284 0.033717297 0.09322614 0.039331455
0.028231325 -0.01440025 0.0034011202 -0.025244458 0.0038388893 0.05362955 0.0016815996 -0.014171798
0.02752831 0.012137337 0.028429318 0.014704935 0.03123584 0.065019704 0.0119232675 -0.023359504
0.033596285 0.018395472 -0.02294533 0.07882923 -0.018135076 0.043651894 0.0535061 0.02074278
0.0070457733 0.039406564 0.023379523 -0.04743563 0.00031015434 -0.021439582 -0.011850543 -0.010945708
0.024685962 -0.027346633 0.041734874 -0.0073540118 0.047281608 -0.008296169 0.003339374 -0.031677723
0.0130791245 -0.00044819215 -0.010379002 0.0029347276 0.03356908 -0.0053743455 0.05105735 0.015217046
0.0013499135 -0.0049454244 0.042317785 0.008270071 0.0054814275 0.047661968 0.0037596135 -0.0133065535
0.025723737 0.029469451 -0.006090202 0.05138954 0.034070276 0.0073218914 -0.023357343 0.030076897
-0.042255417 0.022779346 0.010572127 0.026502693 -0.015896095 0.032823026 -0.02682305 0.03382084
0.02308601 -0.040256597 0.020092046 -0.003858232 -0.0064993897 0.044241183 0.030111609 3.620036e-05
0.040501077 0.003908338 -0.020760182 0.020993331 0.085382126 0.021786686 -0.01812998 0.0015265057
0.09673789 0.025356352 -0.005944345 -0.0390365 -0.04297372 -0.033787083 -0.03416578 0.007123152
0.005341667 0.02313887 -0.009642286 0.023194185 -0.028617918 0.02280442 0.051038332 -0.023229929
-0.011733755 -0.026232649 -0.0005200424 0.01215208 -0.020404879 0.05751129 0.023165623 0.04256069

decoder.0.weight f4 [128, 64, 3, 3]
00000000: ec78 13bd b4e8 543d bcf8 49bb 25d3 0bbb
00000010: 15d3 f33c bb15 1c3d e161 07bb 2402 2cbc
00000020: f01b 9cbc 184d 07bd 8f8d 043c 40bb 343c
00000030: 70e8 033d f6b3 283d bf4c 363c 572d 09bd
00000040: eeff 903b 56fd 6e3b 6e8f 70bb ea28 813c
00000050: 8ed7 043c 01aa 803b 3e3a fbbc 6efa d03c
00000060: 9f32 30bd 7c95 593c 8ea8 0b3d f322 26bb
00000070: 5177 833c f894 783c 93af c63b f2f1 b83c
00000080: d658 fbbc ff79 87bc fe36 f73b d017 46bc
00000090: 7112 183c 8df9 5b3c 38fa e738 6070 483b
000000a0: 76c7 8e3c b11f a7bc b29b 7f3c 14ec c6bc
000000b0: b4f8 f0bc 67f5 b7bc fefd 0c3d c918 e5bb
000000c0: 57cf a13c 23b5 013d e35f c7bc 76e1 493d
000000d0: 715a fc3c 4b1e 193d 2557 883c c4f9 05bd
000000e0: 67b8 b9bc 8314 b53c 6db5 76bc 533b 86bc
000000f0: e3ae 433b dbc5 c53c 2eae bcbc 61d2 14bd
00000100: 4834 973c 32f3 82bc 7ce9 7dbb cc7b 383c
00000110: 3b7f 76bb 83ac afbb e195 12bc 2107 cfbb
00000120: e74d 73bb 93a0 243d 41b5 38bc d22a c5bb
00000130: 53f9 ceb9 2a6b 88bc a842 da3c becb b73c
00000140: c3f4 903c af23 8bbc 433c 293d c6f1 d83c
00000150: 4567 683c ea13 033a c04a 1bbd 8018 4fbb
00000160: f3a5 2bbd 341f a83b 221a 74bc b128 ca3c
00000170: 5d74 5fbc fd17 6d3c af56 0ebd 8335 a13c
00000180: fdd6 87bd c896 013d a7e1 153d 7462 2d3c
00000190: 3d94 da3c d5ae aebb e980 413c f955 30bd
000001a0: 3659 1b3d 90ef c1bc 1861 59bb 5661 e6bc
000001b0: b09b 00bc b688 c93c 7ae0 f4bc 549c eabc
000001c0: c78c a13c 5cfe b93b 9129 c6bb ba6c ba3c
000001d0: 70aa c33c debd c6bc bcd4 ad3c 42e3 193d
000001e0: 60f4 d3bc 6209 d43c b1bf 103d 03f2 9fbc
000001f0: c865 003d 5c9f ba3c 1ee4 0f3c 9ca9 bbbc
00000200: 412c e0bc bbb3 37bc b5ee 53bd 4d9a 85bb
00000210: 6784 1bbd 3990 4d3c 8552 3dbc 6e6d 373c
00000220: 9106 2cbb 2bd7 b33c 68cb 36bd c26e 9c3c
00000230: da30 2fbc dc1b 7d3b 2e67 50bc 2a82 eabc
00000240: 9ced 1dbd 07e4 cf3c efcf cf3b 812c 9fbc
00000250: c3a2 d93c 86ac 19bc 180c d8bc 0b14 8bbc
00000260: 4fe7 1cbd 8458 303c f977 2a3d 5e1b f33b
00000270: 3ac4 ddbc a098 043d 3534 a5bc a8b1 46bc
00000280: bb06 27bc 0b41 3abc c10e 12bc abd0 af3c
00000290: b27d 533c 667f 99bc 4a44 63bc 0059 7e3c
000002a0: b36e d3bc e67c 24bc 4621 d93c 29f5 d3bc
000002b0: e02f a73c 1ae9 9a3c 8b10 72bc e0c7 2f3d
000002c0: defa 3e3c 9167 ef3b 1f43 c23c 1393 423c
000002d0: 69f3 1ebd 6d3d bbbc ab01 ffbb 2b79 6ebd
000002e0: 9cfd 073d 9a1b 5f3c ea62 47bb 82b6 083c
000002f0: de07 b23c e357 c73c d59f 753c 34a9 653a
00000300: b0ec 1b3d 2859 62bd 9e66 1a3d 83d0 c83b
00000310: 4fcd 79bc a6a4 bb3c 0538 d2b8 d623 7d3c
00000320: dccb cb3c 1a21 efbc 0a0e 743c 7530 063d
00000330: 6ee8 96bc d5e4 9dbc 5a48 5d3c a3c9 a9bc
00000340: b823 773c 060a 1d3d 6833 33bc ca87 b03c
00000350: 8789 2abc 982d a8bc 04dd 093c 1f71 54ba
00000360: 13e1 10bc f8df 21bd 1126 19bd ad0c 2cbd
00000370: de5c 583d 9680 d9ba 2a2d 2abd 4519 b8bc
00000380: a5c2 de3c 65a5 133d 715a fb3c b0e3 973c
00000390: 95a5 20bc 3669 2c3c ad59 07bd fdb8 1fbc
000003a0: 6ab5 a5bc 7792 05bd d969 42bb f39b b1bc
000003b0: a136 143d 4471 803c 187d 1bbb a699 f1bc
000003c0: 4249 423d 34b5 ec3c 255a fd3c 3bfc e1bb
000003d0: 93c5 9dbc 627e 05bd 56d7 8ebc ec19 90bc
000003e0: b623 d43c ec11 e5bc ce25 24bd 342f 853c
000003f0: 5196 26bb 002a e33d 26f4 d3bc c88d c73b
-0.036003992 0.051979735 -0.0030818423 -0.0021335569 0.029763738 0.03810666 -0.0020657706 -0.010498557
-0.01905629 -0.033032507 0.008090391 0.011030972 0.03220409 0.04118725 0.011126696 -0.033490505
0.0044250404 0.0036466918 -0.0036706585 0.01576658 0.008108033 0.003926516 -0.03066742 0.02551004
-0.043017026 0.013280269 0.034096293 -0.0025350421 0.016048105 0.015172236 0.0060634105 0.022576306
-0.030682009 -0.016537664 0.0075443974 -0.012090638 0.0092817405 0.013426197 0.00011061545 0.003058456
0.017429095 -0.020400854 0.0156010855 -0.024282493 -0.029415466 -0.022455884 0.034421913 -0.00699148
0.019752188 0.031666886 -0.024337715 0.049287282 0.030804845 0.037382405 0.016643116 -0.0327089
-0.022670938 0.022104507 -0.015057904 -0.01638571 0.002985888 0.024142196 -0.023032274 -0.036333445
0.018457547 -0.015985105 -0.0038743904 0.011259984 -0.0037612456 -0.005361141 -0.008946867 -0.0063179885
-0.003712529 0.040192198 -0.011273683 -0.0060170675 -0.00039477143 -0.016652662 0.026643112 0.022436019
0.017694836 -0.016984789 0.041317236 0.026482474 0.014184778 0.0005000221 -0.037913084 -0.0031600296
-0.04190631 0.005130673 -0.014898809 0.024677606 -0.013638583 0.014471051 -0.034750637 0.019678837
-0.06632803 0.031637937 0.036592152 0.010582555 0.026682014 -0.0053309 0.01181052 -0.04305074
0.037926875 -0.023673803 -0.0033169445 -0.028122585 -0.007849619 0.024601322 -0.029892195 -0.028638996
0.019720448 0.005676074 -0.0060474356 0.022756923 0.023884982 -0.024260458 0.021219604 0.037570246
-0.025873363 0.02588338 0.03533906 -0.01952458 0.031347066 0.022781067 0.008782415 -0.022908024
-0.027364852 -0.011212285 -0.05174132 -0.004077232 -0.037968066 0.012546592 -0.011555319 0.011195524
-0.002624903 0.021953186 -0.044627577 0.019095782 -0.010692799 0.0038621342 -0.012719912 -0.02862652
-0.03855668 0.025377287 0.0063419263 -0.0194304 0.026566869 -0.009379512 -0.026372954 -0.01697733
-0.03830653 0.010763291 0.04161832 0.007419034 -0.027071107 0.032372117 -0.020166496 -0.0121273175
-0.010194476 -0.0113680465 -0.00891465 0.021461805 0.012908386 -0.018737506 -0.013871262 0.015524149
-0.025809621 -0.010039544 0.026505124 -0.025873737 0.02040857 0.01890998 -0.014774452 0.042915225
0.011656491 0.0073060472 0.023713646 0.011875886 -0.038806353 -0.022856439 -0.0077821813 -0.058221024
0.033200845 0.013617421 -0.0030423948 0.0083442945 0.021732267 0.0243339 0.01499172 0.000876087
0.03806752 -0.055260807 0.03769552 0.006128372 -0.015246703 0.022905659 -0.00010024015 0.0154504385
0.024877481 -0.029190589 0.014895925 0.032761056 -0.018421378 -0.019274155 0.0135060195 -0.02072603
0.0150842 0.038339637 -0.010937549 0.021549124 -0.010408766 -0.020529553 0.008414511 -0.00081040146
-0.008842724 -0.039520234 -0.03738982 -0.042004276 0.05282294 -0.0016594108 -0.041546978 -0.022472987
0.027192423 0.036046404 0.030682774 0.018541187 -0.009805103 0.010523131 -0.033044506 -0.0097486945
-0.020228107 -0.032610383 -0.002966514 -0.021680808 0.03618491 0.01567901 -0.0023725685 -0.02949221
0.047433145 0.028894998 0.030926773 -0.0068965233 -0.01925925 -0.03259123 -0.017436665 -0.017590486
0.025895935 -0.027962647 -0.040075116 0.01625786 -0.0025419185 0.11091995 -0.025873255 0.0060898997

decoder.0.bias f4 [64]
00000000: 57df 063d ef0d 70bb b9ac 0fbc 1182 213b
00000010: 1dcf d6ba fae5 cf3b bb85 02bc c190 cabc
00000020: c829 193d 3354 43bc cd87 273d c285 bbbc
00000030: f78c 9b3c f107 eabb 430a 133d e6b1 e13c
00000040: 855c a4bb 96ce 3c3c c639 d83c d0ff 463d
00000050: 27a9 86bc f87f c23c efc4 9f3c 74ef 99bc
00000060: 315d 0b3c e51b edbc 73d7 dfbc ee40 e4bc
00000070: 893c 0abd 4673 2cbb e72e 8ebb 92d2 903c
00000080: 9d2d 0abd 8ade 1e3d 2afa 083d 7462 423d
00000090: 3f3e 413c 32d9 833c 937e 853b b318 0cbb
000000a0: 0978 e4bc bad2 e9bc ad34 13bc 6c4e d63c
000000b0: 35d9 143c c407 4f3d 72d6 f0bc 0fde 523d
000000c0: adc4 4fbd 4240 933c b4eb 923c 5a9d f63c
000000d0: 26b3 b93c 93c5 1c3d 6b6a c03c 1b0f 023c
000000e0: d858 7c3c b431 fc3c 58f2 39bc 1522 223d
000000f0: 45e2 79bb 0d21 403d 83e4 b5bc c321 81bb
0.032927837 -0.0036629399 -0.008769208 0.0024644176 -0.0016388629 0.006344554 -0.007966454 -0.024727227
0.03739336 -0.01192193 0.040900994 -0.02289093 0.018988116 -0.00714206 0.03589846 0.027550649
-0.005015912 0.011523863 0.026394736 0.048583806 -0.01643808 0.02374266 0.019503085 -0.018790938
0.008506105 -0.028943965 -0.027324414 -0.027862992 -0.033749137 -0.0026313826 -0.0043390873 0.017678533
-0.033734906 0.03878645 0.0334417 0.047457173 0.011794626 0.016094778 0.0040739267 -0.0021377027
-0.027889268 -0.028542865 -0.008984727 0.026160441 0.009084989 0.050544515 -0.02939913 0.051481303
-0.050724674 0.017974976 0.017934658 0.030104328 0.022668432 0.03827436 0.023488244 0.007938172
0.015402041 0.030785419 -0.011349283 0.039583284 -0.0038129252 0.04690652 -0.02220369 -0.0039407923

decoder.2.weight f4 [64]
00000000: a16e 7d3f 93fd 7e3f 0db1 7c3f cb8d 783f
00000010: 09aa 803f 6892 7e3f 02ef 7a3f 1a00 813f
00000020: 430a 813f 6ae6 7c3f fd9c 813f 9e9a 813f
00000030: 51b4 7f3f 34e6 7f3f 5394 813f 9934 823f
00000040: 6536 813f dded 7e3f e0e5 7f3f 580a 843f
00000050: f857 7c3f e30c 803f 3173 813f 3c53 803f
00000060: b0d2 803f 5f8f 813f 4539 803f 14db 7a3f
00000070: ec72 803f e67b 823f c5db 813f 6a02 803f
00000080: 2abd 803f e0c8 803f a5eb 7a3f e231 823f
00000090: b5b2 7c3f 33aa 7e3f 072c 7e3f 94bd 7d3f
000000a0: cb0b 823f 0d99 7d3f 2d62 823f a00d 803f
000000b0: c58f 813f f84f 813f af83 7d3f 726a 803f
000000c0: 451c 723f bcc2 7d3f a98a 803f b849 7f3f
000000d0: 5018 823f 907c 803f 6b69 7c3f f2ed 773f
000000e0: 0e7c 7e3f 1e82 803f 7db7 813f a533 813f
000000f0: 5083 803f 7a04 7d3f c913 823f 6bb8 7d3f
0.9899693 0.99605674 0.9870766 0.9709136 1.0051891 0.9944215 0.98020947 1.0078156
1.0081257 0.98789084 1.0126034 1.012531 0.99884516 0.9996064 1.012339 1.0172302
1.0094725 0.995817 0.99960136 1.0315657 0.9857173 1.0003933 1.0113279 1.0025401
1.0064297 1.0121878 1.0017477 0.97990537 1.0035071 1.0194061 1.0145193 1.0000737
1.0057728 1.0061302 0.98015815 1.0171473 0.98710185 0.99478453 0.9928593 0.991174
1.0159849 0.9906166 1.0186211 1.0004158 1.0122 1.010253 0.9902906 1.0032485
0.94574386 0.99125266 1.0042316 0.9972186 1.016367 1.0038013 0.98598355 0.9684745
0.9940804 1.0039709 1.0134121 1.0093886 1.0040073 0.98834956 1.0162288 0.99109524

decoder.2.bias f4 [64]
00000000: e0a3 03bc e8ea a1bc 77e0 b93c da70 283c
00000010: ace8 13bd 5f2f f0bb ebc6 bbbc 16b2 773c
00000020: fb50 903c 9a67 1dbc c7da 0abc 3940 0c3c
00000030: 6991 c23b 56bb 8339 4846 71bb 3e66 263c
00000040: 395f d5bc b647 4bbb ddf5 8c3c 9ca9 a43c
00000050: 083f 22bb 5fa0 fc3b e0e8 203c 3e4f f6bc
00000060: dabb 073c 28a5 76bb 1c7c 8ebb 359d 893c
00000070: 700e 8ebb 368c 803b 0f7f adbc 5d34 d0bc
00000080: 34ab 3b3c 56ec 3d3c c84b dbbc 35fa 3b3d
00000090: 5439 3dbc 0257 92bb af08 d23b b103 9339
000000a0: 27b5 753b 0ba8 033d 9a49 81ba 2471 81bc
000000b0: 2720 b73c 0439 b13c 1c9f 85ba 1259 f73b
000000c0: dc8b 283c 4dfa af3c eda1 503b b06e 1f3d
000000d0: 45b4 a13b 6ba5 a3b7 1405 443c 2094 cb3c
000000e0: c534 59bd 1823 8a3c fdad 7cbc 8a79 d4bb
000000f0: bdb3 003c 172f 1d3c cac2 cf3c f020 763b
-0.008034676 -0.019765332 0.022690041 0.010280812 -0.036110565 -0.007329866 -0.022922 0.015118143
0.01761674 -0.00960722 -0.008475012 0.008560234 0.0059377444 0.00025125843 -0.0036815573 0.010156212
-0.026046382 -0.0031018085 0.01720708 0.020100407 -0.0024756808 0.0077095474 0.009821147 -0.030067082
0.008284533 -0.0037635062 -0.004348291 0.016798595 -0.004335217 0.0039229644 -0.02117875 -0.025415594
0.011454392 0.011591991 -0.026769534 0.045892913 -0.011549313 -0.0044659385 0.0064097266 0.00028040775
0.0037492008 0.03214268 -0.0009863854 -0.01580102 0.022354199 0.021633632 -0.0010194513 0.00754846
0.010287251 0.021481657 0.0031834797 0.03892392 0.00493482 -1.9508143e-05 0.011964101 0.024850905
-0.05302884 0.016862437 -0.015422341 -0.006484215 0.007855353 0.009593747 0.025361437 0.0037556253

decoder.2.running_mean f4 [64]
00000000: 8eac 393f f613 d13e 651e f33e fff0 143f
00000010: a320 ca3e 6260 233f 71a7 ce3e 1977 083f
00000020: 9768 073f 2fc1 ed3e 2000 443f e40a ac3e
00000030: 9024 733e 043e 103f 3418 dd3e 31cd f53e
00000040: a7da 513f 6e5e 293f 1a6a 043f d3d3 db3e
00000050: 7ce5 e83e 4555 053f f135 ec3e d513 003f
00000060: 4b64 d43e fae1 cb3e 6067 f73e b36a 1b3f
00000070: 1387 133f bbfe d93e 5452 863e 4dd3 ff3e
00000080: c379 7f3e 3c78 1f3f ca42 c03e 180a 233f
00000090: 832d f23e e8bb 3c3f 17c8 063f 2eeb 013f
000000a0: b973 ca3e e9c5 f93e 6926 333f 6ade fe3e
000000b0: 7a11 f03e 8d0b 023f 40f0 b33e c978 1b3f
000000c0: 68af 793c 634c 483f 720c 333f 5846 fd3e
000000d0: 263f 273f 562c 003f f955 1a3f 74ab c83e
000000e0: e551 e03e a472 e93e 260e 5f3f 6de9 b53e
000000f0: 11da f73e d603 f73e ccf9 a13e e976 893e
0.7252892 0.4083554 0.47484127 0.5818023 0.39478025 0.63818944 0.40362123 0.5330673
0.52893966 0.4643645 0.7656269 0.3360206 0.23744416 0.5634463 0.43182528 0.4800811
0.8197426 0.66159713 0.517244 0.42935047 0.45487583 0.52083236 0.46134904 0.5003026
0.41482767 0.39820844 0.48321056 0.60709685 0.5762798 0.42577156 0.26234686 0.49965897
0.24948792 0.6229284 0.37550956 0.63687277 0.47300348 0.7372422 0.5264906 0.5074948
0.39541414 0.48783806 0.69980484 0.49779063 0.46888334 0.50798875 0.35144234 0.6073118
0.015239574 0.78241557 0.69940865 0.4946773 0.6533073 0.5006765 0.60287434 0.39193308
0.4381248 0.45595276 0.87130964 0.35529652 0.4840856 0.48245114 0.31635892 0.26848534

decoder.2.running_var f4 [64]
00000000: be2c 403f 425b d73e 69de ed3e 5598 4f3f
00000010: 4795 863e 1a5f 113f 8db9 953e 720b 7e3f
00000020: 27b2 363f d3e9 1b3f 5323 4b3f 8798 983e
00000030: 1268 823e f614 963f bdae 0a3f 48f4 763f
00000040: 60ca 2c3f 46cc 3b3f c118 f83e c003 a83e
00000050: d6a0 b93e 59be 733f e2c4 f33e 9ed9 f83e
00000060: bad6 003f b831 1c3f 413d b23f ef3f 533f
00000070: fc9c 063f 6acc e83e fc36 613e 5368 b63e
00000080: 9f0c f33e 28d9 1e3f b232 053f 9da8 673f
00000090: b2a0 eb3e 617b 453f 78e5 b13e c68e cf3f
000000a0: d05d 353f d4f3 943f 15e1 fb3e cd71 013f
000000b0: 1c49 c23e 4f9a a13e 5946 b33e 8ab8 f63e
000000c0: 9151 653c 4e7b 8a3f 9b83 c93f 4e84 073f
000000d0: a9da 893f 44e6 813e bb51 673f 64c4 013f
000000e0: 3364 fc3e 2ea5 233f 1c49 833f 0d84 ad3e
000000f0: 5373 293f 72f4 1c3f b688 093f 58aa df3e
0.7506827 0.42061812 0.46458748 0.81091815 0.26285765 0.5678574 0.29243127 0.99236214
0.7136559 0.6090366 0.79350775 0.2980387 0.25470024 1.1725147 0.5417288 0.96466494
0.674963 0.7335857 0.48456386 0.3281536 0.3625552 0.9521232 0.47611147 0.4860353
0.50327647 0.61013365 1.3924943 0.8251943 0.5258329 0.45468456 0.21993631 0.35626468
0.47470567 0.62050104 0.5203048 0.9049166 0.46021038 0.77141386 0.34745383 1.6215446
0.7084627 1.163691 0.4919516 0.5056427 0.37946403 0.3156304 0.35014609 0.48187667
0.013996498 1.081888 1.5743288 0.52936256 1.0769855 0.2537099 0.90359086 0.50690293
0.49295196 0.6392392 1.0256686 0.3388981 0.66191596 0.61310494 0.5372423 0.4368465
