models/patch_ae.pth (torch, 469207 bytes, 35 tensors)

encoder_conv.0.weight f4 [16, 1, 3, 3]
000000 82 9c bf be 6e 4b c8 be 68 9c d1 3d 12 19 b0 bd
       -0.37424093 -0.39120048 0.1023491 -0.08598532
000010 dc 5b 5e 3e 74 2a 80 3e a1 cd ba bd cb 91 bb be
       0.21714729 0.2503239 -0.09121252 -0.3663467
000020 2d a9 88 be 0a 5b 87 be 69 3f 9b 3d df d6 4b bc
       -0.2669157 -0.26436645 0.07580454 -0.012441366
000030 c6 c9 93 bc e9 15 e1 3d 48 6e 43 3e 49 79 c2 3c
       -0.018040549 0.10990507 0.19085038 0.023739474
000040 75 ba c2 bd 91 24 8f 3e 2c 2d ab be 27 0b 4e 3b
       -0.0950822 0.27957585 -0.334329 0.0031439753
000050 e9 b0 7c 3e ed 7e 63 3d 06 93 54 3e 48 bf 92 3e
       0.24676861 0.055540968 0.2075921 0.2866156
000060 84 f0 e2 3d 91 2b 31 3f 63 d1 82 3d 5d 64 a8 bd
       0.11081031 0.692071 0.063875936 -0.08222268
000070 74 f6 81 3e 18 f7 a0 be dc e1 c1 3e 31 05 29 3e
       0.2538334 -0.31438518 0.3786763 0.16505887
000080 80 03 3a be 5d 9a 45 3e 8f d1 55 be aa 1a 59 be
       -0.18165398 0.19297166 -0.20880722 -0.21201578
000090 4d 1a 8c 3e 9e 4c 3b be f2 42 23 be 86 ef 86 be
       0.27363816 -0.18290946 -0.15943506 -0.26354617
0000a0 27 9b 26 be 57 89 5b be a9 eb 96 3e de 95 88 be
       -0.16270123 -0.2143911 0.2947667 -0.2667684
0000b0 f8 bb 80 3e b6 13 21 be b1 6a 79 3e 12 91 3c 3e
       0.2514341 -0.15730175 0.24357106 0.18414715
0000c0 98 85 40 be 4b 50 13 be b9 40 09 3e c4 eb 91 bd
       -0.18800962 -0.14386098 0.13403596 -0.07125047
0000d0 b8 c8 dd 3d c4 fd 9b bd 0d 59 9e 3e a9 1e 71 be
       0.108293 -0.07616761 0.30927315 -0.23546852
0000e0 f8 a0 79 be 3f 10 c3 3e 14 55 5b 3e 94 8d 08 3d
       -0.24377811 0.38098332 0.21419173 0.033338144
0000f0 cc 21 2a 3e 5a 57 ac bd de 72 88 3e a6 68 47 be
       0.16614455 -0.084150985 0.26650137 -0.19473514
000100 6d 1f e1 3e d4 91 3e 3e a3 8e b6 3e b8 58 1e be
       0.43969288 0.18610317 0.35655698 -0.15463531
000110 d8 bf 52 3e d2 77 8c 3e 0b 33 64 3d be 99 a0 3e
       0.20580995 0.27435166 0.05571274 0.31367296
000120 23 1a 04 3e 68 c8 f4 3c 59 5a 92 3e bd ca 0f be
       0.12900595 0.029880717 0.28584555 -0.14042182
000130 e3 b6 48 be 51 d5 5b 3d 3d 6c 61 be 25 e7 9d be
       -0.19601016 0.05367023 -0.22013946 -0.30840412
000140 9a 0b 5f be c6 b5 24 be 3f fc d4 3d 0c a1 79 be
       -0.2178177 -0.16084966 0.103996746 -0.24377841
000150 2f 1c e4 3d ce e4 d5 3d 73 80 db bd 25 3b 56 3e
       0.11138188 0.10444032 -0.10717859 0.20921
000160 83 37 c0 3e 9f 89 e8 3b 4c 9b e3 bd c2 cc 06 3e
       0.37542352 0.007096484 -0.11113605 0.13164046
000170 7d a4 c4 3d 8d 1f 80 3e 4d df 24 3e 29 e0 e8 3c
       0.09601686 0.2502407 0.16100807 0.0284272
000180 b4 e5 8f be 00 33 7f 3d bc 87 8d 3d 5a b9 40 be
       -0.28104937 0.062304497 0.06910655 -0.18820706
000190 a7 4d 8a be 0e 54 86 bd 25 93 9d be 3c fb 4b be
       -0.2701237 -0.06559001 -0.30776325 -0.19920057
0001a0 b9 51 2e bd df 07 9c bb 6c ca 59 3e 12 0d 84 be
       -0.042558406 -0.0047616805 0.21268624 -0.25791222
0001b0 67 dc 80 3d 3e 0a 07 bf 1c 0f d4 be 29 2a 33 3e
       0.062920384 -0.52750003 -0.41417778 0.17496552
0001c0 52 3e 67 3b d7 37 5c 3e bb d5 93 be 79 c2 38 3d
       0.0035284949 0.21505676 -0.28874 0.04510734
0001d0 43 74 b1 be 66 5b a1 3e d3 c6 5d be f7 d1 33 be
       -0.34659013 0.31515044 -0.21657877 -0.17560564
0001e0 1d f3 0e be a1 86 7f be a5 1f 13 be a6 e9 40 3e
       -0.13959928 -0.249537 -0.1436754 0.1883913
0001f0 15 d1 4f be 25 a7 c3 be 77 e2 55 39 17 ee 51 3e
       -0.20294602 -0.3821346 0.00020397628 0.2050098
000200 97 fc 06 bd c3 79 b7 be f9 d7 b3 bd 4e 7e 96 be
       -0.032955732 -0.35835084 -0.08781428 -0.29393238
000210 69 30 12 bd 58 cf 36 3d 88 e6 69 be 1e 83 3d be
       -0.0356907 0.044631332 -0.22841847 -0.18507048
000220 d5 71 4d 3d 83 08 46 bd c7 ca 24 bf 30 9c 48 bd
       0.050157387 -0.04834796 -0.64371914 -0.048977077
000230 49 5d 1e 3e cc d1 e7 be 47 80 87 be f7 c3 be 3d
       0.15465273 -0.4527725 -0.26465055 0.09314721

encoder_conv.0.bias f4 [16]
000000 99 db a0 be 69 fa ee bc c6 63 94 3d ca 1b 78 3e
       -0.3141754 -0.02917214 0.07245593 0.2422935
000010 09 6e 06 3e b2 7c c8 bc 8a ca 76 3e a4 68 e2 3d
       0.13127913 -0.024473522 0.241007 0.11055115
000020 4e 79 83 3d 84 1a 09 be 08 79 53 3e 54 2b 6c bc
       0.064196214 -0.13389021 0.20651639 -0.014414627
000030 e0 4a 8c 3e 82 be 6d 3e ea bc 15 3d aa 3e 81 3c
       0.27400875 0.23217204 0.036557116 0.01577695

encoder_conv.1.weight f4 [16]
000000 bb 6e 78 3f c1 f7 63 3f 77 b6 83 3f df 74 56 3f
       0.9704396 0.8904992 1.0290059 0.8377208
000010 11 22 68 3f 40 40 70 3f fb cb 83 3f b9 ab 84 3f
       0.9067698 0.9384804 1.0296625 1.0364906
000020 d8 21 82 3f 98 52 6b 3f eb ed 82 3f bb c1 84 3f
       1.0166578 0.91922903 1.0228857 1.0371622
000030 fa 1e 84 3f 25 2d 80 3f 1b 86 84 3f 51 21 82 3f
       1.0321953 1.0013777 1.0353426 1.0166417

encoder_conv.1.bias f4 [16]
000000 82 ad b0 bd 70 fa 9b bd 60 bb 29 bc e3 e2 82 be
       -0.08626844 -0.076161265 -0.010359615 -0.25563726
000010 29 49 1d 3b e0 5a c7 bc 68 ff 3f bd 08 90 88 3c
       0.0023999906 -0.024335325 -0.046874434 0.016670242
000020 17 ea ee bc 7b b8 9b bd 6e cc b1 3c 0e 2d 1c bd
       -0.029164357 -0.07603546 0.021703925 -0.038128905
000030 9e 87 08 be 8f 1d 07 bd 80 88 21 bd bf d1 e9 bd
       -0.13332984 -0.032987174 -0.039436817 -0.11416959

encoder_conv.1.running_mean f4 [16]
000000 67 12 3b bf 3a 4a e4 3d 81 53 2c 3f 36 00 69 3e
       -0.73074955 0.1114697 0.67314917 0.22753987
000010 ca 08 8e bd 36 ca 8a bb 52 e1 14 3f 12 c9 3f 3f
       -0.0693527 -0.004235531 0.5815631 0.74916184
000020 db dd 4f be c6 77 43 3d 45 30 c6 3e 91 c3 f9 be
       -0.20299475 0.047721647 0.38708702 -0.48782018
000030 cf 32 39 be 30 00 68 be bf 2a 9e be 80 94 0b bf
       -0.18085788 -0.22656322 -0.30891988 -0.5452347

encoder_conv.1.running_var f4 [16]
000000 6b 51 17 3d 3d 31 99 3b f7 99 6d 3d 62 f3 8f 3b
       0.03694288 0.004675059 0.05800816 0.004393027
000010 c1 5b 05 3c c4 e9 6d 3b 3a af e9 3c b8 8a 8e 3d
       0.008139552 0.0036302665 0.028525937 0.06960052
000020 bc 63 75 3c 39 1c ea 3b fe dd bf 3b a3 f9 2d 3d
       0.014977392 0.0071444777 0.005855321 0.0424744
000030 3f 30 31 3d f7 ee 11 3d 2a 00 ae 3c bc 51 95 3d
       0.0432589 0.035628285 0.021240313 0.0729098

encoder_conv.3.weight f4 [32, 16, 3, 3]
000000 f2 2e 03 bc 81 89 22 3d 3c 91 f8 3c c7 2b 36 3e
       -0.008006798 0.039681915 0.03034269 0.17790137
000010 47 6c b6 3d 5c a2 07 3e 47 50 ee 3d d3 19 1f 3d
       0.08907371 0.13245529 0.116364054 0.038842987
000020 76 3a 4f 3d 89 c1 3a bd 58 36 d4 bd 1e d6 a5 3d
       0.050592862 -0.045594726 -0.10361928 0.0809748
000030 28 ac 31 3c 94 2b 40 bd f1 16 01 bd df 55 99 bd
       0.010844268 -0.04691656 -0.03151602 -0.07487082
000040 50 08 9b bd e6 a4 1c be 38 08 df bc ca 8b 0f be
       -0.07569945 -0.15297279 -0.027225599 -0.14018169
000050 8f a9 e5 bd 0e 2f 53 3d dc 4b 4d 38 81 5e 08 bd
       -0.11213981 0.051558547 4.894646e-05 -0.03329325
000060 c4 2b f0 ba 9e 0d 7b bd 88 e6 5b bd d8 e1 7a 3d
       -0.001832359 -0.061292283 -0.05368665 0.061250538
000070 c7 7d e0 3d da 6c bd 3c 36 a7 44 bb 89 51 9e 3c
       0.1096149 0.023123194 -0.0030006892 0.019325988
000080 43 b0 a1 ba d5 ad b7 bc 65 db cb bc fd 87 29 be
       -0.0012335855 -0.022421757 -0.024884889 -0.16555782
000090 b3 e9 98 bb 60 5a f7 bc a4 ed 06 bc 71 2a d7 bd
       -0.004666531 -0.030194461 -0.008235369 -0.10506142
0000a0 76 db e0 bc 99 1d 19 bb d5 34 68 bd 8f 8b a4 bd
       -0.027448397 -0.002336359 -0.05669101 -0.08034431
0000b0 51 33 9d bc 60 81 4b bc f0 00 ee bd cd bf 2b bd
       -0.019189509 -0.012420982 -0.116212726 -0.041930962
0000c0 a1 41 e5 b9 e2 8c 40 bc e6 d4 94 bd 07 7c 05 bd
       -0.0004372718 -0.011752339 -0.0726717 -0.032588985
0000d0 30 4f a8 3c ef 2e be bd 55 dc f8 bb 54 1f 56 bc
       0.020545572 -0.092862956 -0.007594625 -0.013068993
0000e0 7d 2b 56 bd a1 ee 7f 3d 35 06 3e bd 49 5b d0 bd
       -0.052287567 0.062483434 -0.04639264 -0.10173661
0000f0 06 2d 59 bb bb a8 fa 3a 56 26 9f bd 05 0c 88 bd
       -0.0033138408 0.0019123772 -0.07770984 -0.066429175
000100 68 56 04 be 6b 3c 03 be 94 d3 19 be 2a f7 85 be
       -0.12923586 -0.12816016 -0.15022117 -0.26165134
000110 d6 73 3d be 27 90 54 bd 05 90 a9 bd 36 1a 1f 3d
       -0.18501219 -0.051895287 -0.08279423 0.038843356
000120 55 1c 54 bd dc db 97 3c f2 d2 e6 bd 98 95 88 bd
       -0.051784832 0.018537454 -0.112707034 -0.06669158
000130 c1 1f a5 3d 93 a8 9a bd ff d1 a2 3c dd f3 76 3c
       0.08062697 -0.07551684 0.019875525 0.01507279
000140 c4 f5 83 bd 73 ef 42 bc ca c3 70 bd 58 7e 41 3d
       -0.064433604 -0.011897909 -0.05878047 0.04723963
000150 f4 c9 d5 3c 56 8f 24 3d 95 fc 33 3c f5 30 0e be
       0.026097275 0.04017576 0.010985513 -0.13885863
000160 fa 47 95 bd 38 95 ac bd a5 c2 b0 bd af cd b1 bd
       -0.07289119 -0.08426899 -0.086308755 -0.08681809
000170 81 2d a3 bd 43 87 27 be 0b 54 23 be fe 21 38 be
       -0.079676636 -0.16360192 -0.15950029 -0.17981717
000180 ea fa b8 bd e6 4a d0 bd 19 cc 7e bd 20 d8 e0 bb
       -0.09032233 -0.10170536 -0.06220636 -0.0068617016
000190 dd 2c cd 3d d8 68 f9 3d f0 66 18 3e 92 98 36 3e
       0.100183226 0.121782005 0.14883018 0.17831638
0001a0 f7 6e 28 3e 05 93 71 bb c7 51 c9 bc f4 24 6c bd
       0.1644858 -0.0036861312 -0.024575127 -0.05765243
0001b0 8b 5f 06 bd b7 26 e7 3d 16 81 78 3d 8e 40 1e 3e
       -0.03280596 0.11286681 0.06066998 0.15454313
0001c0 77 2b 0b 3e d2 8f 0a 3e 66 27 8d 3c 1a e3 2c bd
       0.135908 0.13531426 0.0172307 -0.04220877
0001d0 4c c4 26 bd b8 69 dc bd 36 3f cc 3b c3 07 b8 bc
       -0.040714547 -0.10762352 0.0062331213 -0.022464639
0001e0 1e 32 c4 bd fe e8 60 bd 4c e1 d9 bd e0 22 27 bd
       -0.095798716 -0.0549097 -0.10638675 -0.040804744
0001f0 89 9c d1 3b 9b d2 50 bd 96 22 c0 bd 92 ad 43 3d
       0.0063968343 -0.0509821 -0.09381597 0.04777295
000200 3a 11 de 3b 3a 33 5a bd c1 23 60 bc 06 e4 ad bd
       0.006776956 -0.05327151 -0.013680399 -0.08490758
000210 21 d6 41 bd a4 6a 09 bd a1 8c 88 bc aa 2b e6 3a
       -0.04732335 -0.033548966 -0.01666862 0.001756062
000220 c0 32 a3 3d 17 87 9e 3d b7 74 01 be 9c bc 6f bd
       0.07968664 0.0774061 -0.1264218 -0.05852948
000230 6c 94 c0 bc c8 86 13 3c a9 99 0e bd fb c3 10 3d
       -0.023508273 0.009004302 -0.03481451 0.03534315
000240 81 fe fc 3c 94 f3 50 3c 97 7a aa bd 82 17 cc 3d
       0.030883076 0.012753386 -0.083241634 0.09965421
000250 cc 5c d9 3c 18 3e 06 3e 50 fc 55 bd 66 39 af bd
       0.026533507 0.13109624 -0.052242577 -0.0855587
000260 1b 4e e2 3c 10 ab 57 3e 0a fa 76 3d cc 66 cb 3b
       0.027625134 0.21061349 0.06029705 0.0062073227
000270 59 13 87 3c 21 6d e8 3c 74 c5 18 3d 51 52 7d 3d
       0.016488718 0.02837235 0.03729768 0.06184608
000280 5e 3e 0a bd b4 c0 24 3d 6d 6d 3e ba ff e4 9c 3d
       -0.033750884 0.04022284 -0.00072642305 0.07660865
000290 c5 44 b9 3c 8f 4e e1 3d ad fc 00 3e d6 4c 75 3d
       0.0226158 0.11001312 0.12596388 0.05988773
0002a0 11 e9 fb 3c 22 3a 86 3d 77 36 0f 3d 68 24 69 bd
       0.030750783 0.06554057 0.03496405 -0.056919485
0002b0 85 59 13 be 32 6d a6 be 33 80 9c bd 1b fc 8c bc
       -0.14389618 -0.32505184 -0.076416396 -0.017210057
0002c0 a1 1f da 3c 98 b7 e4 bd 76 2d e5 bd fc 23 fb be
       0.02662641 -0.1116783 -0.111903116 -0.4905089
0002d0 db c6 c2 3d 39 c7 f3 bb cf c1 b7 bd 67 08 2d bd
       0.09510585 -0.0074395207 -0.08972513 -0.04224434
0002e0 cd 5c 71 bd e7 e6 08 3b 98 cc 1b be 9d cb ef bd
       -0.058926392 0.0020889582 -0.15214765 -0.11708758
0002f0 ca 56 86 bd d0 bd 20 3e 98 e0 b9 3d 01 81 ce 3d
       -0.065595224 0.15697408 0.09076041 0.10083199
000300 40 f9 15 3e 7a e7 cd bc 24 f3 c0 3c 6f 6e 3c 3d
       0.14645863 -0.02513479 0.023553438 0.046003755
000310 84 0b d9 bc 10 b6 36 bd 73 2f ba bd a5 18 50 3c
       -0.026494749 -0.044607222 -0.090910815 0.012701188
000320 77 aa 72 bd 47 9c f6 bd 39 b3 c9 3d 7d 56 31 bd
       -0.0592446 -0.12041526 0.09848637 -0.043295372
000330 bd 58 02 bd ca aa 9c 3c 1c a8 9c 3d e4 ba 9f bd
       -0.03182291 0.019124407 0.07649252 -0.077993184
000340 55 37 de 3d 3b 53 cb 3d a9 08 86 bd ed 99 45 3d
       0.108503975 0.09927984 -0.065446205 0.0482425
000350 01 0a ea bc 84 29 56 3d bd d2 e1 3d 21 13 a3 3d
       -0.028569223 0.052285686 0.11026523 0.07962633
000360 8e 5a b4 bc 60 9f c9 bd eb d3 13 bd 52 3d 9e bc
       -0.022015836 -0.098448515 -0.036090773 -0.01931635
000370 4a fc 23 3d 3c 93 be 3d 28 08 bb bd 33 9c 55 be
       0.040035523 0.093054265 -0.09132415 -0.20860367
000380 27 b8 04 be 7c e7 4e bb df 7c 85 3d 19 8e c5 bd
       -0.12960874 -0.003157108 0.06517958 -0.096462436
000390 25 c3 5d 3d de 95 64 3d b2 6b 89 bd ce a1 a9 3d
       0.054141182 0.055806987 -0.067099944 0.08282815
0003a0 2d ad be 3d 1a af 8c bd 80 99 88 bd b3 fb eb bc
       0.093103744 -0.068693355 -0.06669903 -0.028806543
0003b0 32 ff a8 3d df 05 a7 3d a4 2b 04 bd 7f 85 1e bc
       0.082518 0.08155417 -0.03226818 -0.009675383
0003c0 be 52 1d 3e a5 67 d5 3c 17 8b 51 bd 20 be 73 3e
       0.15363595 0.026050398 -0.051158037 0.23802996
0003d0 41 ed 8d 3d 02 93 a7 bd 14 7d 29 3e b5 f5 b3 3d
       0.06930018 -0.081823364 0.1655162 0.08787099
0003e0 6b b1 2b 3e ec 28 de bd f6 d1 da bc 4b ef 96 bd
       0.16766898 -0.10847649 -0.026711445 -0.0736986
0003f0 ae 94 80 3d 72 f3 4a bd 0c 3e 15 bd a2 8f d1 3d
       0.062783584 -0.049548574 -0.036436126 0.10232474

encoder_conv.3.bias f4 [32]
000000 9e 22 a2 bd cc c1 07 3c 8b e4 96 bd 8e b0 95 bd
       -0.07916759 0.008285951 -0.0736781 -0.07309066
000010 89 07 9f 3d ba 63 90 bd 0b a3 7e bd 82 95 23 bd
       0.07765109 -0.07050271 -0.06216721 -0.039937504
000020 d9 ae a6 3a 36 15 1c 3d 23 1d 4e 3d 2b 6d 61 bc
       0.0012716904 0.038106166 0.050320756 -0.013758938
000030 93 68 c2 3c bb 00 8a 3d 7e 8d 2d bc 66 2c 37 bd
       0.023731505 0.067384206 -0.010592816 -0.044720076
000040 15 85 a8 3d a0 81 9a bd b3 e1 e5 bc 21 8b 96 bc
       0.082285084 -0.07544255 -0.028061723 -0.018376889
000050 61 98 a6 3c 52 49 22 bd 88 1e 96 bc 1b 6a fd bc
       0.020336332 -0.039620705 -0.018325105 -0.030934384
000060 f3 01 10 3d 9a 9c 92 3d ce 25 c4 bc 65 c1 34 bd
       0.03515811 0.07158776 -0.023943808 -0.044129748
000070 ed 17 84 3d 09 03 68 3c 07 dc 83 bd d3 54 97 bd
       0.06449876 0.01416088 -0.06438451 -0.07389226

encoder_conv.4.weight f4 [32]
000000 70 98 7f 3f b3 8e 7d 3f 80 97 82 3f 79 1c 78 3f
       0.99841976 0.99045867 1.0202484 0.96918446
000010 35 f8 7c 3f e5 c1 81 3f 28 e3 70 3f 2c 41 4d 3f
       0.98816234 1.0137297 0.9409661 0.8017757
000020 cd 21 7d 3f 3c e5 87 3f 79 c7 6f 3f 37 5c 7c 3f
       0.988797 1.0616832 0.93663746 0.9857821
000030 af a2 7d 3f 6d 66 82 3f 53 f5 81 3f f7 a9 80 3f
       0.9907636 1.0187508 1.0152992 1.0051869
000040 97 e2 84 3f 03 1c 83 3f f8 a5 71 3f 71 f8 75 3f
       1.038165 1.0242923 0.94393873 0.96082217
000050 92 e5 70 3f 28 fb 83 3f cf f4 65 3f e2 61 71 3f
       0.94100296 1.0311022 0.89826673 0.9428998
000060 a4 c6 84 3f 07 43 7d 3f 62 d0 74 3f 28 14 7f 3f
       1.037312 0.989304 0.95630467 0.9964013
000070 c7 1f a1 3f 93 10 7c 3f 42 fd 76 3f 4b 1b 7d 3f
       1.2587823 0.9846279 0.9648019 0.9886977

encoder_conv.4.bias f4 [32]
000000 60 bf fd bd 7c 67 59 be d8 96 2f 3e 94 23 11 3d
       -0.123900175 -0.21230882 0.17147386 0.03543432
000010 eb 8b 28 3d 87 98 4a be 69 8d d0 3c ae af 48 be
       0.04114906 -0.19784747 0.025458055 -0.19598266
000020 9d 82 5e bd 38 f1 4d be 85 3e 8a bd de 75 2e bd
       -0.05432378 -0.20111549 -0.06750206 -0.042592876
000030 0c a0 3b 3d 4e 25 e3 bd f8 25 9a bd 34 59 09 be
       0.04580693 -0.110911 -0.07526773 -0.13412935
000040 e9 87 09 be a7 e0 02 be 4a 8b f8 bd eb 62 2e bd
       -0.13430752 -0.1278101 -0.12135942 -0.042574804
000050 5e 5d 32 be ab c7 39 bd 31 89 5c be 65 ab 0a 3d
       -0.1741843 -0.045356434 -0.2153671 0.03385486
000060 59 c3 0d bc 0a ff a4 bd 18 7f 7f 3c 5b c8 2c be
       -0.008652532 -0.08056457 0.015594266 -0.16873305
000070 c9 7e b2 be 58 21 05 3c 76 f4 64 bd c7 3f b1 bd
       -0.34862354 0.008125626 -0.0558972 -0.08654743

encoder_conv.4.running_mean f4 [32]
000000 43 aa a0 bf 26 f6 18 3e da 72 64 3e f4 78 23 3f
       -1.255196 0.14937648 0.22309437 0.63856435
000010 20 84 85 3e 68 fd 1e 3e e0 ce 8b bf 6f df 5a bf
       0.26077366 0.15526354 -1.0922508 -0.8549718
000020 9d a3 0e bf bf 02 fc 3f 3c 5c d8 3e 69 53 7a bd
       -0.55718404 1.9688338 0.4225787 -0.061114702
000030 3e 29 92 3e 08 2a 61 3f a9 dd 3f bf d4 c3 82 bf
       0.2854709 0.8795476 -0.749476 -1.0216012
000040 86 67 40 3d 01 51 01 bf 55 88 d4 be 6d 04 87 bf
       0.046973728 -0.5051423 -0.41510263 -1.0548226
000050 10 b4 08 3e b0 6a 00 bf 23 0a 50 bf ea 90 90 be
       0.13349938 -0.5016279 -0.8126547 -0.2823556
000060 da 60 79 3e 26 2d 23 bf 87 0e 78 3f 45 70 00 be
       0.24353352 -0.63740766 0.96897167 -0.12542827
000070 78 82 09 40 ce 87 85 3d 57 0c c8 bf 5f 75 bb 3c
       2.1485882 0.06520043 -1.5628766 0.022883115

encoder_conv.4.running_var f4 [32]
000000 5a 18 40 40 e9 c2 8d 3f ac 95 22 3f 3d fd cd 3f
       3.0014863 1.1075107 0.6350963 1.6092907
000010 d1 96 c0 3f 20 bf 1e 40 27 a8 01 3f 60 92 54 3f
       1.5046026 2.4804153 0.50647205 0.8303585
000020 c5 6b 15 40 cf f7 bc 3f 4d e4 ba 3f 79 8d ac 3e
       2.3347027 1.4763125 1.4600922 0.33701685
000030 fd 8e 2b 40 ee 3f b0 3f f5 80 5d 40 05 ab 9c 40
       2.6806023 1.376951 3.460996 4.8958764
000040 00 95 92 3f 1c 05 d1 3f 95 46 15 40 d2 53 bb 3f
       1.1451721 1.6329684 2.332433 1.4634955
000050 12 0a e3 3e b2 64 e1 3f e5 0d 9f 3f 4a 9c fd 3e
       0.4434362 1.7608855 1.2426115 0.49533302
000060 14 24 e1 3e 93 73 21 40 cb 29 14 40 95 22 ea 3f
       0.43972838 2.522679 2.3150508 1.8291804
000070 ea 14 b6 3f 13 82 a0 40 ab 73 12 40 76 43 0b 40
       1.4225132 5.015878 2.2883098 2.1759925

encoder_conv.6.weight f4 [64, 32, 3, 3]
000000 c0 c6 00 3d d0 f1 26 bd d6 8f 51 bd 10 52 e0 bd
       0.031439543 -0.040757954 -0.051162563 -0.10953152
000010 c6 84 cf bd c5 03 10 be da 59 28 bc 2d c4 6d bd
       -0.101327464 -0.14063938 -0.0102753285 -0.058048416
000020 6d c2 59 3d 2c d7 42 bd 2c 89 a3 bb af 97 7a 3d
       0.053163934 -0.047568485 -0.0049907174 0.061179813
000030 a1 fa 83 bd e3 4e 2e bd 23 81 4d bd 5c 55 f8 3d
       -0.06444288 -0.0425557 -0.050171982 0.12125656
000040 0a 0d 9a 3c b4 42 2f 3d 9e c8 88 bc f1 00 df 3d
       0.018805046 0.042788222 -0.016697224 0.108888514
000050 e1 4b 89 bd 40 8a d5 bc af 3c 05 3e 93 75 73 3d
       -0.06703926 -0.0260669 0.1301143 0.0594383
000060 31 96 db bd f8 ef c4 bb 41 c0 a9 3d d9 16 93 3d
       -0.10722006 -0.006010052 0.08288623 0.07182092
000070 48 af ca 3c 2b 95 b8 bd 97 73 a7 bd f1 83 65 3d
       0.024741784 -0.090128265 -0.08176344 0.056034032
000080 de 8d 2b 3c b4 19 d5 bd 6c 33 90 bd 7a f8 f7 3c
       0.0104708355 -0.10405293 -0.07041058 0.03026985
000090 07 20 4e 3d 73 31 c6 3c 6e 25 b0 bc 89 3b 1d bd
       0.050323512 0.024193501 -0.021502223 -0.038386855
0000a0 83 56 8c 3b 25 af b2 3d 52 bc ce bd f8 09 98 bd
       0.004282774 0.087248124 -0.10094513 -0.074237764
0000b0 9b 24 14 3d 48 00 31 bd a5 b0 76 bd 83 0d 0a 3d
       0.036167722 -0.04321316 -0.060227055 0.033704292
0000c0 61 26 fa bc 9b 09 ff bb 34 9e da 3a 3f 5c 08 3e
       -0.030535879 -0.0077831275 0.0016679228 0.13316439
0000d0 9b d7 7e 3d 8d 66 74 3d 3e 9b 87 3d 1e 30 ab 3d
       0.062217336 0.059668113 0.06621407 0.08358787
0000e0 b7 41 c5 3d fb 51 b3 3b 65 2d c6 3c 6a e9 94 3b
       0.09631675 0.0054724193 0.024191568 0.0045444267
0000f0 9d 62 e0 bc f3 6a c6 bd e8 b1 71 3d 1b e6 7e bd
       -0.027390772 -0.09688368 0.059007555 -0.062231164
000100 ec 0e eb bd de 58 eb 3c 37 1b 10 3d 4a f7 84 bd
       -0.114774555 0.028728899 0.035182204 -0.06492479
000110 36 b4 10 bd e1 0b c5 3d 36 d1 14 3d 90 f2 47 3d
       -0.035328113 0.09621406 0.03633233 0.04881531
000120 b1 7d 55 bd 7b d0 1b bd 10 7c 26 bb 9c e6 3f 3d
       -0.05212182 -0.03804062 -0.0025403537 0.046850786
000130 f5 5d 96 3d 8a 3e b6 3c 1c a5 be 3d 78 65 1e 3e
       0.0734214 0.022246618 0.09308836 0.15468395
000140 06 84 9f 3d cd 61 bf 3d 01 51 e6 bb f6 40 ab 3c
       0.07788853 0.09344826 -0.0070286994 0.020905
000150 04 60 a5 3d 7c 0f 63 3c 4a b7 c3 bc 0e e8 47 3c
       0.08074954 0.013858672 -0.02389111 0.012201322
000160 87 b7 eb 3d b1 a9 0d bd 24 eb 54 bc 4b 95 5c bc
       0.115096144 -0.03458566 -0.012995515 -0.013463329
000170 63 a4 16 be 76 67 9c bd 71 9c 8b bd 4a ff 01 bd
       -0.14711146 -0.07636921 -0.06816948 -0.031737603
000180 06 a3 a4 bc 4c d3 b9 bd 9c 3b fc bc 08 60 af bc
       -0.020097267 -0.09073505 -0.030790143 -0.021408096
000190 4e ea d4 3d 66 2f c3 3d c5 0f 06 bd 2f ff 38 3c
       0.103962526 0.09530525 -0.032729883 0.011291309
0001a0 02 e1 7d 3d 9e c9 09 be f5 1f 66 be e6 89 af bd
       0.061982162 -0.13455817 -0.22473128 -0.08571224
0001b0 02 7f ec 3c 93 f0 8b b9 ab 43 08 3d 51 b4 8a 3d
       0.028869156 -0.00026691388 0.03326766 0.06772674
0001c0 85 3b c8 3d 3b a7 47 3d d3 2c 6d 3d 9d 12 82 bd
       0.097769774 0.048743468 0.057904076 -0.063512065
0001d0 ff 00 c2 3d 72 db 2c bd c2 e4 ec bc ec df 20 bd
       0.09472846 -0.042201467 -0.028917674 -0.03927605
0001e0 ff c9 69 bd ac 3c 96 bd 39 01 76 bd 93 6d b2 3d
       -0.057077404 -0.07335791 -0.06005976 0.08712306
0001f0 63 2d 18 3e 3d 2e 3e 3d 16 3a f1 3b 5c ff 68 bd
       0.14861064 0.046430815 0.0073616607 -0.056884155
000200 b9 99 16 bd d0 02 07 3e 86 83 55 3d ef ba f6 3d
       -0.036767695 0.13184667 0.052127384 0.120473735
000210 31 a1 94 3d c2 eb 6e 3d 9b ba 44 3c af ce 5f 3c
       0.07257307 0.058330305 0.012007381 0.013660117
000220 46 8c 65 bd 6b 55 18 3c a6 a0 ca bc ed 27 b7 3c
       -0.05604198 0.009297709 -0.024734806 0.022357905
000230 4c 76 78 bd 0a 19 58 3d ed 74 96 3d af 59 6f bb
       -0.06065969 0.052758254 0.073465206 -0.0036521961
000240 85 f2 88 3d aa aa c3 3d 09 4a 41 bd da 9f d7 3d
       0.06686882 0.09554036 -0.047189746 0.10528536
000250 e6 f9 b9 3e d6 de 00 3e d6 e6 eb 3c 8b 3a 8a 3e
       0.3632347 0.12585005 0.028796595 0.2699779
000260 b2 29 b6 3d d6 e0 f0 39 4d 62 2c 3c 3f 76 5c 3d
       0.088946715 0.00045943883 0.010521484 0.053823706
000270 1f 1a c5 bd c0 fe 6e bd 80 e0 a5 bd 08 79 54 3d
       -0.09624123 -0.058348417 -0.080994606 0.051873237
000280 44 57 d7 3d 35 cf b5 3d d4 65 b5 3d 1a c9 53 3b
       0.105146915 0.08877412 0.08857313 0.003231591
000290 9a a4 18 3c 6c f3 d2 bd d7 05 89 bd 5d 60 ba 3a
       0.009316588 -0.10300335 -0.06690567 0.0014219392
0002a0 7f 30 82 bd 5f d2 be bd 1f eb 69 3d c0 4e a8 3b
       -0.06356906 -0.09317469 0.057108995 0.005136341
0002b0 b7 49 d4 3c ef 78 e1 3c ce 0d c0 bc 4b 6c 9f bc
       0.025914056 0.027523486 -0.023444083 -0.019460818
0002c0 11 af c2 bb 5e 99 86 bd 5b c7 89 bd e9 55 c9 bd
       -0.0059412797 -0.06572221 -0.06727477 -0.09830839
0002d0 f6 2b 93 3c 76 0a 7f bd c8 f8 a4 bc 15 56 a1 bc
       0.017965298 -0.062265836 -0.02013816 -0.019694367
0002e0 9c df 91 bd 23 b6 8c 3c 4e 1a 0b 3e 32 05 04 3e
       -0.07122728 0.017176693 0.13584253 0.12892607
0002f0 94 84 c2 3a d1 fb 8a bc ff 76 6e 3c f9 b8 9e 3b
       0.0014840537 -0.016965779 0.014554738 0.004843828
000300 10 25 06 3d 99 3d 4e bd e3 6f e2 3d 4c f8 e4 3d
       0.03275019 -0.050351713 0.11056497 0.11180171
000310 2d f2 a1 3d 89 bf f4 3b 45 88 d1 3c ca 84 93 3c
       0.079075195 0.007469122 0.025577674 0.018007655
000320 76 54 6e bd a3 e2 be bc 04 4a 89 bd 92 3a ca 39
       -0.058186017 -0.023301428 -0.067035705 0.0003857208
000330 4b 2f 2d bd ad 65 c6 bd 99 7a 11 3d 1a 2f 29 bc
       -0.04228143 -0.09687362 0.03551731 -0.010326171
000340 d2 6d bf 3d 8a c3 3c 3e 72 5d 4a 3d 33 05 a3 bd
       0.093471184 0.18433967 0.049405523 -0.07959976
000350 de df 7d 3e 47 1f 3e bd 56 95 03 be 75 5a 24 be
       0.2479243 -0.046416547 -0.12849936 -0.16050132
000360 e8 7c 1a 3c 1e 2c 02 3d d2 8e d6 3d 75 f3 8e bd
       0.009429194 0.031780355 0.104764596 -0.069800295
000370 f1 b8 04 bd 7b 3d ca bb 1a 44 8e bd 6c 50 df bd
       -0.032402936 -0.00617188 -0.06946583 -0.10904011
000380 2a ca 1f bd 6c 61 6c 3c bc 11 e5 bc c4 83 8d bb
       -0.039011158 0.014427524 -0.027962558 -0.004318686
000390 75 84 1f 3e fe c1 2b b9 8d cf f9 3d af ae 60 bb
       0.15577872 -0.00016380099 0.1219779 -0.0034283807
0003a0 ce b2 93 bd b8 51 b2 3c 5d 86 5d 3d 16 73 a6 3d
       -0.07211839 0.021767482 0.054083217 0.0812742
0003b0 9b ee 49 3d bc b6 0d 3d eb f0 f2 3d 62 b2 85 3d
       0.049299818 0.034598097 0.11862358 0.065281644
0003c0 b3 1a b5 bd 01 1a ad bd fc 54 a3 3d 16 fb 9f bb
       -0.08842983 -0.084522255 0.07975194 -0.0048822267
0003d0 3e 38 37 bd 36 3b f7 3c 21 30 cd 3c 89 31 69 3d
       -0.04473137 0.030179601 0.025047364 0.056932006
0003e0 a7 41 e3 bb c9 25 56 3d f9 b8 e8 3d df 73 0d 3d
       -0.0069353166 0.05228213 0.11363406 0.03453433
0003f0 df a6 9e bd 60 7f e6 3c 11 42 c1 3c a3 8c 07 be
       -0.07746672 0.028136909 0.023591073 -0.13237242

encoder_conv.6.bias f4 [64]
000000 18 c4 6a bd ee a3 1d 3c a2 04 86 bb a1 99 95 bc
       -0.057315916 0.009621603 -0.0040899077 -0.018261733
000010 6b 02 83 3c 4e cf 89 3b 9c 55 8c bc 62 61 a5 bc
       0.015992364 0.004205621 -0.017130665 -0.020188037
000020 d6 bb a5 3c 42 57 97 3b 5c ac 55 bc 60 ef b0 bb
       0.020231169 0.0046185562 -0.013041582 -0.0053996295
000030 56 f4 61 bd 20 87 21 bc e8 e1 c0 3b 20 74 00 3d
       -0.055164658 -0.0098588765 0.005886305 0.031360745
000040 9f a4 07 bd 32 5f 32 bd ba c3 3e 3d 57 8e 57 3d
       -0.03311598 -0.043547817 0.04657338 0.05262598
000050 f7 eb 24 3d d7 2b 01 bd a4 fa 9d bc 57 dd ef bc
       0.040264096 -0.03153595 -0.019284554 -0.029280348
000060 24 6d 7e 3c 8a 20 1a bd f9 5a 2a 3c ec 43 6a bd
       0.015528951 -0.037628688 0.010397666 -0.05719368
000070 91 06 de bc 85 63 cd 3b 70 9a 50 3c 9a a7 79 bc
       -0.02710274 0.006267967 0.012732133 -0.015237713
000080 1c 0b 08 3d e0 ef 98 3c 18 11 08 3c 9b 0a 14 bd
       0.03321372 0.018669069 0.008304857 -0.036142927
000090 cc d7 5f bd 05 92 13 3d 10 db 45 3d 65 70 b8 bc
       -0.05464916 0.036027927 0.048304617 -0.022514531
0000a0 e8 71 29 bc 6b 07 4d bd 19 39 df bb cf 0e 0e bd
       -0.010342099 -0.050055902 -0.0068122265 -0.03468209
0000b0 73 e7 43 3d 57 2d 8a bc a7 a5 6a bd ac 94 d0 3a
       0.04782815 -0.016867323 -0.057286885 0.0015913448
0000c0 f3 fb ef bb 69 e3 62 bd 33 6d fd 39 a1 e5 5a bd
       -0.007323736 -0.055392656 0.0004833728 -0.053441647
0000d0 48 15 8a 3b 3f 31 00 3d 8a 50 c1 bc 42 2f 99 3c
       0.0042139627 0.031296965 -0.023597974 0.018699292
0000e0 85 7b 96 3c d2 25 66 3d d9 91 21 3d ae cd df bc
       0.018369446 0.056188412 0.03944573 -0.027319755
0000f0 69 ef 5a bd d1 2b 1e 3d f1 ce bc 3b bf fd 0c bd
       -0.053450976 0.038616005 0.005761974 -0.03442168

encoder_conv.7.weight f4 [64]
000000 e2 72 65 3f 1f 33 79 3f 13 aa 73 3f f9 71 70 3f
       0.8962842 0.9734363 0.9518139 0.9392391
000010 2a f0 7a 3f 98 22 93 3f 1e 11 87 3f 98 12 76 3f
       0.9802271 1.1494932 1.0552099 0.9612212
000020 c1 09 7d 3f bd 2b 50 3f dc cf 63 3f 1f 2c 81 3f
       0.9884301 0.8131674 0.88989043 1.009159
000030 10 d9 70 3f 90 c6 75 3f 01 93 85 3f a9 50 6b 3f
       0.9408121 0.9600611 1.0435487 0.9191995
000040 d6 e0 67 3f d6 40 94 3f 6b 66 80 3f 74 0c 65 3f
       0.9057745 1.1582286 1.0031255 0.89472127
000050 77 57 84 3f d0 f3 67 3f 18 1a 81 3f 01 90 63 3f
       1.0339192 0.90606403 1.0086088 0.8889161
000060 9d 4f 69 3f 45 61 80 3f b5 60 87 3f e2 70 8f 3f
       0.91137105 1.0029684 1.0576388 1.1206324
000070 20 61 8d 3f 14 b3 7e 3f 55 66 80 3f e7 bd 84 3f
       1.1045265 0.99492 1.0031229 1.0370454
000080 88 8d 93 3f 51 a1 7f 3f ac 95 8b 3f 99 d0 61 3f
       1.1527567 0.99855524 1.0905051 0.8820892
000090 f9 9d 74 3f 17 43 a9 3f 14 56 87 3f 6d 93 6a 3f
       0.9555355 1.3223599 1.0573144 0.91631204
0000a0 b9 ef 70 3f d6 8c 8f 3f 12 d5 64 3f 8a 63 7b 3f
       0.9411579 1.1214855 0.8938762 0.9819876
0000b0 7d 0d 57 3f 43 67 67 3f 1e f6 82 3f 05 89 72 3f
       0.84004956 0.9039194 1.0231359 0.94740325
0000c0 d1 c5 81 3f b4 83 7c 3f 58 31 80 3f b8 b2 73 3f
       1.0138494 0.98638463 1.0015059 0.9519458
0000d0 93 66 5d 3f ee 9c 56 3f a8 30 6f 3f 23 d7 6d 3f
       0.8648464 0.83833206 0.9343362 0.929064
0000e0 0e 62 7b 3f 8c 96 58 3f 8a 4d 86 3f 2a d6 90 3f
       0.98196495 0.84604716 1.0492413 1.1315358
0000f0 30 bd 5e 3f 69 f5 82 3f bb 68 6a 3f ba eb 65 3f
       0.8700743 1.0231143 0.91566056 0.89812815

encoder_conv.7.bias f4 [64]
000000 76 13 2f be 5e 53 c7 bd 23 9b 08 be 5b 45 9a bd
       -0.17097268 -0.09732698 -0.1334043 -0.0753276
000010 42 a4 f0 bd 5a b2 3f 3e 89 90 0e be d4 a0 9d 3c
       -0.1175008 0.1872038 -0.13922323 0.019241728
000020 07 0a bc bd 8a 2d 81 be 23 38 0a be 94 9a 50 bc
       -0.091816 -0.25230056 -0.13497977 -0.012732167
000030 a6 bc ab bc 1a 8d c0 bb db 14 68 bd 40 9c 4a be
       -0.020963978 -0.0058761956 -0.056660514 -0.19786167
000040 c9 06 31 be bc 58 dc bd 22 31 88 3e 15 9a 8c 3c
       -0.17287745 -0.10759112 0.26599985 0.017163316
000050 d1 3e f0 bd 28 d1 3a be ab aa 41 be 27 70 3e be
       -0.11730731 -0.1824385 -0.18912761 -0.1859747
000060 04 02 96 bd 67 4e 2d be 47 11 7b be b7 9a 50 be
       -0.07324603 -0.1692444 -0.2451831 -0.20371519
000070 40 42 09 3d ea 4b 2d be 83 47 2b bd b5 4c 82 bd
       0.033510447 -0.1692349 -0.041816246 -0.06362287
000080 5b 90 8f 3d d1 70 6f 3d 67 f1 af bd b6 68 43 be
       0.070099555 0.0584572 -0.08590966 -0.19082913
000090 ab 2b 27 3d 87 10 82 3e 38 5c 02 be b3 00 9f 3d
       0.04081313 0.25403234 -0.12730491 0.07763805
0000a0 6d f8 cf bd cc 0f 9e 3e a9 9e 8a 3d 14 21 b4 bc
       -0.10154805 0.30871427 0.06768543 -0.02198843
0000b0 3c 53 7e be f7 e0 0f be 2d 59 87 be 7f 75 9e bd
       -0.24836439 -0.14050661 -0.26435223 -0.07737254
0000c0 47 a2 7f 3d 03 12 0f be 40 06 b1 be 62 58 d9 bd
       0.06241062 -0.13971715 -0.3457508 -0.10612561
0000d0 37 07 5e be 16 fa a4 be ed 8e 4a be 7b 60 17 be
       -0.2168244 -0.3222205 -0.19781084 -0.14782898
0000e0 63 18 a5 be e5 2e 2e be 5a f5 e1 3c 54 1f 06 3c
       -0.32245168 -0.17010076 0.027582813 0.00818618
0000f0 d9 73 15 be 07 15 6a bc a4 9b 2a be b9 eb 41 be
       -0.14594974 -0.01428724 -0.16660935 -0.18937577

encoder_conv.7.running_mean f4 [64]
000000 82 71 1d 3f b6 1a 33 bd ed ea e7 3e a2 88 86 3d
       0.61501324 -0.043726645 0.45296422 0.065690294
000010 b3 9e 9d bd 3b 85 ca 3d 18 b2 32 bf 48 68 a9 bf
       -0.07696285 0.09888693 -0.69803 -1.3234949
000020 94 3f 05 3f 12 fe 07 40 a8 d2 a6 bf fe 60 53 c0
       0.5205014 2.1248822 -1.3033037 -3.302795
000030 df b0 dd bf b0 1d 4a bf b2 1a 40 40 e1 80 c5 bf
       -1.7319602 -0.7895155 3.0016294 -1.5429956
000040 8d 8d 00 3f 8d 3a 62 3e 64 2e 1e 3d 13 b1 bd bf
       0.5021599 0.22092648 0.03861846 -1.4819664
000050 3d ab 33 3f 71 8d 14 40 5d b5 14 40 c7 99 11 be
       0.70183164 2.321133 2.3235695 -0.14218818
000060 d6 3a 09 be a8 69 90 3f 87 2b d5 3f 72 c4 e1 be
       -0.1340135 1.1282244 1.6653908 -0.44095188
000070 8f 6c 91 3f 3b 03 99 3e 03 26 b6 bd eb 66 dc 3f
       1.1361254 0.29885277 -0.08893969 1.7218908
000080 fc b9 ca 3e d9 57 a5 be b5 14 2d 3f 89 94 61 bf
       0.3959502 -0.32293585 0.6760972 -0.8811727
000090 c1 6d f5 be c5 df 8f 3e 30 6a 0b 40 92 2f 5e 3f
       -0.47935298 0.2810041 2.1783562 0.86791337
0000a0 f2 ba ee 3e 26 db 4a be 71 99 c8 be 4f 3d 14 3d
       0.46627003 -0.19810161 -0.39179567 0.03619128
0000b0 2a d3 56 3f 5b d1 94 3c ee 70 5d 40 8a 3b 88 bd
       0.8391596 0.018166235 3.4600177 -0.06651981
0000c0 c9 33 6e 3e 89 8d bd 3e 26 0e b3 3e b7 8f 0e bf
       0.23261942 0.37022045 0.34971732 -0.5568804
0000d0 b9 37 ce 3f 06 01 06 40 bd ee a8 3f bc ce 14 c0
       1.6110755 2.0938125 1.3197857 -2.325118
0000e0 cf 9a a4 3f ab d0 c5 be 27 13 ec bd 4c aa 92 3e
       1.2859744 -0.38635764 -0.115270905 0.2864555
0000f0 84 03 c7 3e 87 b4 cc 3e a2 36 59 be bb a0 89 3f
       0.3886987 0.3998148 -0.21212247 1.0752176

encoder_conv.7.running_var f4 [64]
000000 6c 0c 1d 40 8c 8d 20 40 43 c5 e0 3f 62 13 93 40
       2.4538832 2.5086393 1.75602 4.596116
000010 6b 6f 1b 3f bf 03 8c 3f 53 49 0f 3f 57 98 ee 40
       0.60716885 1.0938643 0.5597126 7.456096
000020 79 22 11 3f b2 22 4f 40 59 b0 b9 40 7e c5 d5 40
       0.56693226 3.2364926 5.802777 6.680358
000030 fe 36 55 41 99 38 a5 40 fe 1d 5d 40 00 03 af 40
       13.325926 5.163159 3.4549556 5.469116
000040 3d e9 ed 3f 6a 76 5e 3f 14 7f 4c 3f 38 5f eb 40
       1.8586804 0.86899436 0.79881406 7.3553734
000050 1c fa b7 3f 7c 40 1f 40 33 e0 ba 3f 20 34 8e 3f
       1.4373202 2.4883108 1.459967 1.1109657
000060 59 f6 93 3f 75 2c ab 3f 95 36 50 3f 5b 2c a6 3e
       1.1559554 1.3372942 0.81333286 0.32455716
000070 06 66 82 3f ee 50 25 3f dc 8c 00 40 c6 7a 07 40
       1.0187385 0.64576614 2.0085974 2.1168685
000080 2c 7b 96 3f f3 2f 16 40 06 50 4b 3f f3 d5 f8 3f
       1.1756339 2.3466766 0.7941898 1.9440292
000090 ae 5d 9d 3f c0 09 ed 3e e8 27 86 40 9a 92 28 3f
       1.2294214 0.462965 4.1923714 0.65848696
0000a0 df 85 58 3f 87 0d 13 3f 75 f2 01 40 15 f7 f3 3f
       0.8457927 0.57442516 2.0304234 1.9059778
0000b0 50 c3 74 40 80 2b 88 3f f3 6e 4e 40 98 f8 0c 3f
       3.824421 1.0638275 3.2255218 0.55066824
0000c0 75 d7 31 3f 89 de a0 3f d3 fc cf 3e aa 63 3c 40
       0.69469386 1.2567912 0.40622577 2.943583
0000d0 34 90 e2 3f 35 dc 45 3f 0e 5f 8e 3f 72 b9 e1 40
       1.7700257 0.77289134 1.1122758 7.0538874
0000e0 1b 0e ad 3f b2 d7 d0 40 58 ab 75 3f 3f 1b 97 3f
       1.351993 6.52633 0.95964575 1.180519
0000f0 73 c7 fa 3f 1c f6 b3 3f 07 33 13 3f 7c be 89 40
       1.9592117 1.4059482 0.57499737 4.3045025

bottleneck_enc.weight f4 [32, 1024]
000000 e8 9f 88 3b c9 03 c3 bc 69 0f 97 3d 2c 91 ae bd
       0.004169453 -0.023805516 0.07375986 -0.08523783
000010 b7 80 1f be cc f4 ba 3c 62 8c 9c bd 6e 77 4c bd
       -0.15576445 0.022821806 -0.076439634 -0.049918585
000020 06 55 5a 3d b2 0c 44 3c bd ce 04 3d fc a0 9f 3c
       0.05330374 0.011965917 0.032423723 0.019485943
000030 3d ee ee 3b 1c 68 47 3c 80 f2 aa 3b 5c c2 48 3b
       0.007291584 0.012170818 0.0052168965 0.0030633425
000040 3a 17 96 3c 1f 7b 53 3e 22 55 13 3c 0a f8 81 3d
       0.018321622 0.20652436 0.008992465 0.06346138
000050 58 75 96 bd 74 80 5e 3a 96 83 9f bd 77 f9 22 bd
       -0.073466 0.0008487769 -0.0778877 -0.03978869
000060 a3 e5 90 3d 4c f1 ea ba 1c 26 1b 3b 8f bc 60 bd
       0.0707505 -0.0017924695 0.0023673838 -0.054867323
000070 86 c6 9c 3d ab 65 94 3d 53 47 33 3d 61 a8 cd 3c
       0.07655053 0.07245954 0.043769192 0.025104703
000080 28 9f 5a bd 39 49 33 3e 4c c9 25 3d 87 93 95 bd
       -0.05337444 0.17508401 0.040475175 -0.07303529
000090 1a 47 1c bc 84 57 54 3c 99 77 39 be bc ac 21 bd
       -0.009538436 0.0129603185 -0.18112029 -0.039471373
0000a0 00 6c 62 bc 80 04 c7 bc a5 d7 d4 3b 6a 4e 56 3b
       -0.0138196945 -0.024294138 0.0064954334 0.0032700547
0000b0 98 4e 09 3d ac 9d a0 3d a7 5b 27 3d 76 f8 3d 3c
       0.03352222 0.078425735 0.04085889 0.011594882
0000c0 0e be d9 3d 0e 4c 2d bd 21 b7 87 bc 2c 4c 45 3e
       0.10631953 -0.04230886 -0.016566815 0.19267339
0000d0 9e 1f 85 bd 4e ea 9f bc 0b 23 53 3c d4 2d 08 bd
       -0.06500171 -0.019520905 0.012886773 -0.03324683
0000e0 08 d3 57 bd 5c 51 68 bd 25 ad 8f 3d 86 14 0f 3c
       -0.05269149 -0.056718215 0.070154466 0.0087329205
0000f0 95 68 88 bd ff c7 41 3c 1c b1 e0 3d 4e 03 af 3d
       -0.066605724 0.011827468 0.10971281 0.08545552
000100 a7 ff dd 3c 7a d4 dc 3b 44 1f 5c 3e 3e 5a 1d be
       0.027099444 0.0067391964 0.21496302 -0.15366456
000110 83 fe 02 be 97 c9 08 bb 9e 44 90 3c 88 13 b4 bd
       -0.12792401 -0.002087211 0.017610844 -0.08792788
000120 5d 44 f3 bd ca c8 da 3d b0 5f bd 3d 2e 34 b4 bc
       -0.11878274 0.10682829 0.092467666 -0.021997537
000130 62 a5 10 bd d2 57 bb 3d 76 2f e0 3c fe f8 9b 3c
       -0.03531397 0.0914761 0.027366381 0.019039627
000140 18 c3 64 3d c3 5e cd 3d e7 72 a9 3d 15 cd 01 3e
       0.05585012 0.1002784 0.08273869 0.12675889
000150 22 46 12 bc 5d 13 b6 bc 93 b2 9f bc 95 4b c7 3d
       -0.008927854 -0.02222603 -0.01949433 0.09731213
000160 39 01 82 3d ab 41 00 bd 4e 4f 89 3d ea f1 cb 3c
       0.063478895 -0.031312626 0.06704579 0.024895627
000170 18 ae 1a bd c8 e3 08 be 11 70 fc 39 9a 85 34 3e
       -0.037763685 -0.13368142 0.00048148682 0.1762909
000180 db 36 00 bd 4a 41 0c 3e c5 99 b3 bd 95 ce 78 3b
       -0.031302314 0.13696781 -0.087695636 0.003796493
000190 e9 0c 7f bd 1d 07 20 bd 61 26 25 bd b0 e2 30 bd
       -0.06226817 -0.039069284 -0.040319804 -0.043184936
0001a0 3a d5 f9 3c f7 ce 1c 3c b7 3f cd bc d8 ee 04 bc
       0.030497182 0.009570829 -0.025054796 -0.008113585
0001b0 70 e4 9e 3d d6 15 da bb f4 d2 ed bc 59 89 52 3d
       0.07758415 -0.006655435 -0.029031254 0.051400516
0001c0 bb 49 a2 3c 50 69 85 3d d9 7e 27 3d 31 40 de bc
       0.019810548 0.065142274 0.040892456 -0.027130218
0001d0 10 e7 c6 bd 39 87 08 bc 37 3b a2 bd 57 a4 ac bc
       -0.097120404 -0.008333021 -0.079214506 -0.021074457
0001e0 1f 76 fd 3d c3 2b 46 3d 25 b1 b1 3d 8f 52 6c 3c
       0.123760454 0.04838158 0.08676366 0.01442398
0001f0 ba 17 04 3e 95 02 8a 3d 19 32 a3 3d fe 65 d4 3c
       0.12899676 0.06738774 0.0796854 0.02592754
000200 bf 95 53 bd c6 7c a9 bc 47 66 19 3d ac d7 d7 bd
       -0.05165648 -0.02068938 0.037451055 -0.10539183
000210 0d b0 b4 bc 93 d4 ca 3c 71 4b 12 3c 47 c2 f9 bd
       -0.022056604 0.024759566 0.008929119 -0.121952586
000220 bb 6f ed bd 2d ef e4 3c eb a5 aa bc d8 43 b3 3c
       -0.115935765 0.02794608 -0.020831069 0.021882936
000230 6e b6 f1 3a d0 f2 6e 3d bd 87 3f 3d 9d f0 ae bc
       0.0018441209 0.058337033 0.04676031 -0.021354968
000240 d5 06 d9 bc d8 03 bf bc 2c 24 4d 3d 17 bc 59 3c
       -0.026492516 -0.023317263 0.050083324 0.013289473
000250 f7 4f 76 bd 6b 2a a7 bd 21 c5 9a 3b c4 50 92 bc
       -0.060134854 -0.081623875 0.0047232066 -0.017860778
000260 a8 9d b0 bb 95 b2 9b 3d 0c 77 24 3e d1 1c 09 3d
       -0.005389888 0.07602421 0.16061038 0.033474747
000270 10 6d 30 ba 0e 18 40 3d d5 ac 37 3d f3 c1 2f 3d
       -0.0006730119 0.04689794 0.04484256 0.042909574
000280 d7 35 9b 3b 8e ee a1 3d 44 f4 03 3c 26 02 9b bc
       0.004736643 0.07906829 0.008053843 -0.018921923
000290 bd 87 e1 bd d5 9b 3a bd 09 0c 90 3c 4c ea ce bd
       -0.11012218 -0.04555877 0.017583864 -0.10103282
0002a0 e2 f7 88 bd 4e 2a 20 bc 81 a9 f9 bc 21 ce 19 bd
       -0.06687905 -0.009775711 -0.030476334 -0.037550095
0002b0 c6 7c 9d bc 37 f9 ae bc 09 e6 67 3d 5d 56 87 3d
       -0.019224536 -0.02135907 0.056615863 0.06608269
0002c0 dc fa ac bc 46 e9 8b 3c ed e3 40 3d 94 ba 23 bc
       -0.021115713 0.017079007 0.047092367 -0.009993214
0002d0 ed 43 35 bd 85 0c e5 bb e0 a7 aa 3c e0 88 73 bd
       -0.044254232 -0.006990018 0.020832002 -0.059456706
0002e0 df e4 16 3d a8 56 59 3d 6d 66 88 3d bc 28 52 3c
       0.036839362 0.053061157 0.06660161 0.012827095
0002f0 e0 d9 7d 3d a3 41 9e 3d 24 b5 b3 3d 2a f3 47 3d
       0.06197536 0.07727363 0.08774784 0.048815884
000300 30 84 f7 3b 34 df 5b 3d e4 e6 8b 3d f6 88 81 bd
       0.0075536 0.05367966 0.06831148 -0.06324951
000310 89 13 f2 bd 0f 89 c1 3c 52 fd 12 bd 1f 25 99 bd
       -0.11820132 0.023624925 -0.035886116 -0.074777834
000320 fe ba 78 bd 03 4a 9e 3c b2 d2 c7 3c 71 36 f0 bc
       -0.060725205 0.0193224 0.02439246 -0.029322835
000330 47 06 17 3d 16 ca 7e 3d 91 ef b2 3d 90 ff 50 3d
       0.03687122 0.062204443 0.087371 0.051024973
000340 84 26 bd bb d0 9c e3 3d f0 86 5c bd f5 60 1a 3b
       -0.0057724137 0.11113894 -0.053839624 0.0023556326
000350 93 c1 ad bd 3a 1a 08 bd 98 09 90 bd 64 fe d4 bc
       -0.08484187 -0.033228137 -0.0703308 -0.02600021
000360 9f 65 8c bd 06 50 76 3c 51 26 72 3c c0 25 92 3c
       -0.0685532 0.0150337275 0.014779643 0.017840266
000370 9e a4 3a bb 29 93 9d 3c 41 0a 99 bb 8e 57 9c 3d
       -0.0028479467 0.01923521 -0.004670412 0.07633887
000380 38 35 e4 3b 42 97 84 3e 86 ad 0b be 23 d1 a1 3d
       0.006964352 0.2589665 -0.13640413 0.07901218
000390 b5 f0 3b bd 03 ab 9b 3d 3a 7c c2 bd e4 e6 ad bd
       -0.045883853 0.07600977 -0.094963506 -0.084913045
0003a0 7b 57 4a bd e9 d7 3f 3d a4 d0 8f 3d 22 ca 32 3c
       -0.049399834 0.046836767 0.07022217 0.01091245
0003b0 70 89 9f bc 5b a3 eb 3d 9a 61 e3 3d e5 db e0 3d
       -0.019474715 0.11505767 0.111026004 0.109794416
0003c0 57 bf 71 3c 64 04 13 be dd 7f b6 bc 29 01 15 bd
       0.014755092 -0.14357144 -0.022277767 -0.03637806
0003d0 ba 7f b7 3c fe 74 14 3d f5 89 fd 3b 16 29 09 3d
       0.022399772 0.036244385 0.007737393 0.03348645
0003e0 b4 9d 9b b9 37 1e 79 bd c7 77 a5 bd e9 2c a6 3c
       -0.00029681402 -0.06081983 -0.08079486 0.020285087
0003f0 b4 54 2c bc c7 1d 4d be 20 0f 70 bd d4 c8 bf 3c
       -0.010518242 -0.2003089 -0.058608174 0.023411192

bottleneck_enc.bias f4 [32]
000000 ec 3e 5e 3c 6e 70 f9 bc 3e 72 27 bb f4 46 0f bd
       0.013564806 -0.030449118 -0.0025550271 -0.034979776
000010 2b bd c6 3c 31 13 7a bb f0 97 fa bc 8b 24 1f bc
       0.024260124 -0.0038158412 -0.030590028 -0.009713302
000020 1d d8 8c bb d5 09 88 3d 27 5f be bd 06 c9 05 bd
       -0.0042982236 0.066425 -0.092954926 -0.032662414
000030 d0 d5 7d 3d b3 63 ad 3d 0a ae 1c bd b7 66 e8 3c
       0.061971486 0.08466282 -0.038251914 0.02836929
000040 f6 0d be 3c 09 c1 0d bb d4 8e e9 3c 6f cd b3 3d
       0.023200016 -0.002162995 0.028510489 0.08779418
000050 a5 a7 1e 3d 08 55 58 bd cc ec e5 b9 ff 7c 0d bd
       0.038734097 -0.052815467 -0.0004385471 -0.034543034
000060 8f 7c 52 bd 85 dc c6 3c 6c 5a 8f 3c af 5b ae 3c
       -0.05138832 0.024275074 0.017499171 0.021283953
000070 16 f8 ae bb 5a 07 39 3d 97 7d 30 3c dd 56 06 3d
       -0.0053396327 0.045173027 0.01077213 0.032797683

bottleneck_dec.weight f4 [1024, 32]
000000 f5 68 5a bd 01 89 9f 3e 27 1a 62 bd 12 ef fe bd
       -0.05332275 0.31159213 -0.055200722 -0.12447943
000010 68 d5 b3 3c f7 d2 fc bd e8 5f 10 3d e5 46 34 bd
       0.021952346 -0.12344926 0.035247713 -0.044012923
000020 f5 5c 4e be 3c 91 3a bd 1d 0d c7 bd 1d 1a 06 3d
       -0.20152648 -0.045548663 -0.09719298 0.032739747
000030 42 90 0d be 7e 76 02 be 07 be 0d bd e2 ac 2c 3e
       -0.13824561 -0.12740514 -0.034605052 0.16862825
000040 07 8f 3e 3e ed ad 9b bc da 8e 2e be b9 3a f7 3d
       0.18609248 -0.019003833 -0.17046681 0.12071747
000050 8e f5 52 3d 77 f2 62 bd 04 7b 99 3b 8f 85 13 be
       0.05150371 -0.055407014 0.004683854 -0.14406417
000060 c5 1a da 3b dd e3 cd bc 36 d8 88 3c ea a0 3c be
       0.006656023 -0.025133068 0.01670466 -0.18420759
000070 08 7d 44 be 09 72 af 3d 0b 60 0f 3e 59 19 ab 3d
       -0.1918832 0.08566672 0.14001481 0.08354444
000080 1f 2c 70 3e 74 38 8f be 97 d8 87 bd 62 ad 47 be
       0.23454331 -0.27972758 -0.06633108 -0.19499734
000090 c7 bc 67 bb 43 d8 1f 3e dc 7a 0d 3e 56 f4 78 bd
       -0.0035360323 0.15609841 0.13816398 -0.060779892
0000a0 3c 66 c0 3c 62 70 90 3d 0b df 28 3d 10 33 15 bb
       0.02348625 0.07052685 0.041228335 -0.0022766031
0000b0 4d a3 d1 3d 9a db 53 3e 2b fd ec bd a4 78 0c bd
       0.10236225 0.2068924 -0.115717255 -0.03429474
0000c0 2d 03 5d bd b5 61 56 bd fc fd 9a 3d c8 db 68 bd
       -0.053958107 -0.052339274 0.07567975 -0.056850225
0000d0 19 57 c7 3d 54 f1 b7 bd 3d e8 85 be a0 f3 e3 3d
       0.097334094 -0.089815766 -0.26153746 0.11130452
0000e0 37 cd 39 bc 58 76 ae 3d e3 06 09 be e0 aa 4f bd
       -0.011340431 0.08518666 -0.13381533 -0.05070007
0000f0 8c 0e 61 be 05 4a 28 be 62 a6 3d 3e 1f 74 8d 3c
       -0.21978205 -0.16434486 0.18520501 0.017267285
000100 52 7c 61 3d 0e d9 8d bd 92 55 0b bd 97 24 24 3d
       0.0550502 -0.069261655 -0.034017153 0.040073957
000110 f4 ee c0 3d 6e 7a e3 bd a2 7a 3c 3c a1 28 28 3e
       0.09420577 -0.11107336 0.011503847 0.16421749
000120 89 47 40 be 0a 02 0d bd c9 12 b8 3c 8a c9 ec 3c
       -0.18777288 -0.034425773 0.022469895 0.028904695
000130 17 4b f8 bc 72 dd bc 3c 70 7c 06 3e 4b e9 08 3e
       -0.030309243 0.023054812 0.13133407 0.13370244
000140 a5 67 c2 ba 27 e5 fe bc 17 f4 de 3c 5f 0f a5 3d
       -0.0014831914 -0.031115128 0.027216 0.080595724
000150 65 2b ac bd 6d 38 89 bd 6f e9 1d 3d 0b 90 1c be
       -0.08406714 -0.067002155 0.038552698 -0.15289323
000160 61 8e 42 3d 43 67 0b 3e 48 c3 df 3d c0 2a 03 be
       0.047499064 0.1361361 0.10925919 -0.12809277
000170 cf ba 0d be aa 71 d5 bd 9c e5 78 be ac 1c 33 bd
       -0.13840793 -0.1042207 -0.24306339 -0.043728516
000180 b6 51 9b 3e 01 9f 20 be 7d af 38 3e 83 6f 1c be
       0.30335778 -0.15685655 0.18035693 -0.15276913
000190 8e 69 a3 bd 9c 4a 25 3e 7d 49 52 be 59 fd 37 be
       -0.07979117 0.16141742 -0.20535846 -0.17967738
0001a0 5d 7e 4b bd 85 a5 f3 bd 01 5d b7 bd b7 8e ee 3d
       -0.049681056 -0.11896805 -0.08953286 0.116483144
0001b0 35 a0 33 bc 7c bc 88 be 0a 05 ee 3d 23 a2 e9 bd
       -0.010963489 -0.26706302 0.11622055 -0.11407878
0001c0 d6 31 46 3e 48 0c d0 3d ff a1 e4 bd 15 31 2e 3e
       0.19354948 0.101585925 -0.11163711 0.17010911
0001d0 4d 01 ab bd 4a 54 89 3d 64 d2 c1 3d 30 8f 25 be
       -0.083498575 0.0670553 0.09463957 -0.16167903
0001e0 d0 1a 9b bd f7 52 f8 3d 8c 56 d5 bb fd 33 e0 3d
       -0.075734735 0.12125199 -0.0065105613 0.10947416
0001f0 56 7f 5f be f9 1d 07 bd 12 ac 5b bd bb 76 f4 3d
       -0.21825919 -0.03298757 -0.053630896 0.119367085
000200 41 7f f4 bd ca 26 42 bd dd 31 0e 3e 2a 49 a8 3c
       -0.11938334 -0.047400273 0.13886209 0.0205427
000210 2e de a3 3c 10 e6 2d 3e a0 99 28 bd b9 f7 1d be
       0.020003404 0.16982293 -0.041162133 -0.1542653
000220 24 6f 20 3b 4b d1 57 3d 45 68 24 be 6e ac ea 3d
       0.0024480307 0.05268983 -0.160554 0.114586696
000230 8e 4e 81 bd 85 85 ce ba 14 23 95 bd d9 23 a5 bd
       -0.06313811 -0.0015756345 -0.07282081 -0.08063478
000240 5e ed 4b 3e ab 85 24 3e 33 2d 46 bd 75 c5 e4 3b
       0.19914767 0.16066615 -0.04838295 0.0069815465
000250 e9 33 0e 3e 73 a5 30 be 26 b2 12 be 2a 22 33 3c
       0.1388699 -0.17250614 -0.1432577 0.010933438
000260 e4 c9 61 bd e3 0a f7 3c d3 9f 95 bd 9a 64 b5 bd
       -0.05512418 0.030156558 -0.07305875 -0.08857079
000270 d5 a7 3d bb 74 7f ce bd f5 74 fd 3d 83 0f 89 bd
       -0.0028939147 -0.100829035 0.123758234 -0.06692412
000280 ae b3 94 3e be 7e 6f bc 31 21 2d 3e 06 a7 3e be
       0.29043335 -0.01461762 0.16907193 -0.18618402
000290 03 54 6b 3b e2 93 06 be 71 34 10 be 5c 0f 52 be
       0.003590823 -0.1314235 -0.14082505 -0.20513672
0002a0 cf e2 08 be 30 16 34 3e ae c4 46 3b 91 2b 45 3c
       -0.1336777 0.17586589 0.0030329633 0.012034313
0002b0 46 b3 b9 3d 9d 07 5f bd 86 85 38 bd 9e 84 49 3c
       0.09067397 -0.05445062 -0.045049213 0.012299685
0002c0 f7 ec c9 bc ed 4b b5 3d 72 e5 21 bd 43 75 6c be
       -0.024649126 0.08852372 -0.039525457 -0.23091607
0002d0 2a 2a e4 bd 34 80 8e 3e c5 54 a1 bd 70 a8 82 bd
       -0.11140855 0.27832186 -0.07877497 -0.06379783
0002e0 d2 fa 61 be c9 13 ea 3c 14 ca e6 bd 29 fb c4 bd
       -0.22068337 0.028573887 -0.11269012 -0.096182175
0002f0 6f 61 33 3d 90 f2 28 be 44 98 78 3e 35 2e 54 be
       0.04379409 -0.1649878 0.24276835 -0.20720752
000300 23 b7 68 be 30 ad 84 3a 1d 00 f5 3d 64 7e 10 be
       -0.22726111 0.0010122415 0.11962912 -0.14110714
000310 42 e0 8f 3d 1e cb 13 3c 6a 0a 93 3d 9e 69 f0 bd
       0.07025196 0.009020595 0.07179721 -0.11738895
000320 42 de 97 be 8a ac 6d 3e a3 2f bb ba d5 cc 02 3d
       -0.29661757 0.2321035 -0.0014281165 0.031933624
000330 1c bc c6 3b 8f 61 06 3e ae 28 03 3e dc 9f 01 3e
       0.006064905 0.13123153 0.12808487 0.12658638
000340 ff e1 39 3e 6e 81 19 be b8 75 8b bd 90 6f 89 be
       0.18152617 -0.1499078 -0.068095624 -0.26842928
000350 c6 c3 c5 3d b0 a4 07 be c4 bd 04 be cb 15 61 be
       0.096564814 -0.13246417 -0.12963015 -0.2198097
000360 c5 4b 07 bd 82 88 61 3d d5 f8 57 be 7f c9 23 be
       -0.033031244 0.055061825 -0.21091016 -0.15994833
000370 4d e6 b5 3d a8 3f fb bd 42 61 0d 3e b8 6a 3b be
       0.08881817 -0.12268001 0.13806632 -0.18302429
000380 4c c8 0b be 19 78 d0 bc 96 1f b3 3d 22 19 4f bd
       -0.13650626 -0.025447892 0.08746259 -0.050561078
000390 e6 eb de 3d 21 19 5e bd 9d 2a a8 3d 88 94 b8 bd
       0.10884838 -0.054223184 0.08211253 -0.09012705
0003a0 8c 82 17 3e 66 da 26 3e 83 5e f0 bb 10 78 9f bd
       0.14795893 0.1629425 -0.0073354854 -0.07786572
0003b0 6b 20 9f 3d 3e a9 e4 3c 15 f6 df 3d 2d fb 5a 3e
       0.07769855 0.027912732 0.10935608 0.21384878
0003c0 23 8d 78 3e 2e a7 38 3e a4 9c dc bd c4 2c 0b be
       0.2427259 0.18032524 -0.10772064 -0.13591295
0003d0 19 64 3d be b6 f7 06 3c a3 a7 53 bd 19 7f a3 bc
       -0.18495215 0.00823777 -0.051673543 -0.019958066
0003e0 f8 c5 81 bd 28 53 c6 3c 39 d0 88 bd 06 c3 82 be
       -0.06336588 0.024209574 -0.0668034 -0.25539416
0003f0 17 3d 55 3d 6a 9c 6e be e5 15 a5 bd 15 b5 52 3e
       0.052060213 -0.23301855 -0.08060817 0.2057689
